CNN_RNNv1.pth (torch, 222874 bytes, 10 tensors)

conv1.weight f4 [32, 1, 3, 1]
0	0xbf0f7f9f	-0.5605411
1	0x3f1089b0	0.56460094
2	0x3e6e29bb	0.23258106
3	0x3e61579f	0.22006081
4	0xbf0e7043	-0.5564005
5	0xbf0577be	-0.5213584
6	0x3da2ba0b	0.07945641
7	0x3e8077bb	0.25091347
8	0xbeccf07e	-0.4002723
9	0x3e31b333	0.17353515
10	0xbcd66007	-0.026168836
11	0x3f1c8903	0.61146563
12	0x3f0b503b	0.54419297
13	0xbefb4f11	-0.4908376
14	0xbeb038dd	-0.34418383
15	0xbe7d604d	-0.24743767
16	0xbe2bbf7f	-0.16772269
17	0x3d5fce39	0.05464003
18	0xbcaa182d	-0.020763481
19	0xbea1e57a	-0.3162039
20	0xbebdd4fa	-0.3707655
21	0x3d189b62	0.03725756
22	0xbddf8562	-0.10914113
23	0xbe3f1544	-0.18660456
24	0x3e7c5c13	0.24644499
25	0xbef40188	-0.47657418
26	0xbed3225b	-0.4123715
27	0x3dc86d94	0.09786525
28	0xbe92ce8a	-0.28673202
29	0xbef00bf7	-0.46884128
30	0x3e45c4d8	0.19313371
31	0xbf0d9efd	-0.5532072
32	0x3dc445ff	0.09583663
33	0xbee61123	-0.4493495
34	0xbdf9aec4	-0.12191537
35	0x3f2d7cc2	0.6776849
36	0x3d07a90d	0.033120204
37	0x3ee85aaf	0.45381686
38	0x3dd58494	0.10425678
39	0x3dfab5f0	0.12241733
40	0x3ee9c4df	0.45658013
41	0x3eef5053	0.4674097
42	0x3cde4925	0.027134487
43	0xbdeefeda	-0.11669703
44	0xbecab81a	-0.39593583
45	0xbe8964bd	-0.2683467
46	0x3edc4a68	0.43025517
47	0xbdb9931f	-0.09061264
48	0xbc67b47a	-0.01414215
49	0xbef357c8	-0.4752791
50	0x3e98733b	0.29775414
51	0x3eaa0291	0.33205083
52	0xbdbdfd70	-0.09276855
53	0x3eae125d	0.33998385
54	0x3e1d948f	0.15388702
55	0x3eedd531	0.46451715
56	0xbf01a1bb	-0.50637406
57	0xbed3b989	-0.4135249
58	0xbf009000	-0.50219727
59	0xbe4dcbdc	-0.20097297
60	0xbe4f7ba7	-0.20262013
61	0xbecb724e	-0.39735645
62	0x3f0ada48	0.5423932
63	0xbe404815	-0.18777497
64	0x3e449701	0.19198228
65	0x3f30b0ce	0.6901978
66	0xbf00d679	-0.5032726
67	0xbf067f02	-0.5253755
68	0xbf0f3a94	-0.5594876
69	0x3d831229	0.06399948
70	0xbe2f365f	-0.17110585
71	0x3e8356a0	0.25652027
72	0x3edb6e54	0.4285761
73	0x3dcf9d01	0.10137368
74	0x3ea9bb99	0.33150938
75	0xbe9b7279	-0.30360773
76	0x3f084db5	0.5324357
77	0x3e1bad65	0.15202864
78	0xbf03119f	-0.5119876
79	0x3eba475d	0.3638257
80	0x3ebff44e	0.37491077
81	0xbec3c29d	-0.38234416
82	0x3a90ac96	0.0011037763
83	0x3f0665c6	0.52499044
84	0x3eb6a54d	0.3567299
85	0x3e95bb88	0.29244637
86	0xbf1ae4f9	-0.60505635
87	0x3ddbee0c	0.10738763
88	0x3ed0884a	0.4072898
89	0x3ee2cbfb	0.4429625
90	0x3dbc9647	0.09208351
91	0xbe2cc9ef	-0.16873907
92	0x3ef886f1	0.48540452
93	0xbee7034b	-0.451197
94	0xbe9f8524	-0.31156266
95	0x3ebcb519	0.36856917

conv1.bias f4 [32]
0	0x3f183d72	0.5946876
1	0x3e02e790	0.12783647
2	0x3e020910	0.1269877
3	0xbe3faf2e	-0.1871917
4	0x3f2ac16d	0.66701394
5	0x3e5163ec	0.20448273
6	0xbba38c4a	-0.004991089
7	0xbf07363d	-0.52817136
8	0x3f0d31fc	0.55154395
9	0x3e018fc1	0.12652494
10	0x3f13f15c	0.5779016
11	0x3f04b514	0.51838803
12	0x3ef95113	0.48694667
13	0x3e8b2b91	0.27181676
14	0xbf15e325	-0.5854972
15	0xbc6cd0cb	-0.014454077
16	0x3f28a9a6	0.6588386
17	0xbd55fc3d	-0.052242506
18	0x3f0cfba7	0.5507149
19	0xbebe82ac	-0.3720907
20	0x3ee98abc	0.45613658
21	0x3ee7e820	0.45294285
22	0xbe30e9a0	-0.17276621
23	0x3de467a4	0.111525804
24	0x3f0ed2b2	0.55790246
25	0x3eef0541	0.46683696
26	0x3f35c20e	0.7099923
27	0xbeb98073	-0.3623081
28	0x3ec49d3e	0.38401216
29	0xbd0ae443	-0.033909094
30	0x3e866c9f	0.26254746
31	0x3ece7485	0.40323272

rnn.weight_ih_l0 f4 [64, 640]
0	0x3dc0c024	0.09411648
1	0x3df7e8a2	0.12104918
2	0xbd348624	-0.04407324
3	0xbcff4448	-0.031160489
4	0x3d87865c	0.06617424
5	0x3a303400	0.0006721616
6	0xbdd19a34	-0.1023449
7	0xbc934d00	-0.017981052
8	0x3de63938	0.11241382
9	0x3b8ac3e0	0.004234776
10	0x3de16c40	0.11006975
11	0x3b34b900	0.002757609
12	0x3d3857a4	0.045005456
13	0xbd810374	-0.06299487
14	0x3d8ddcf4	0.06926909
15	0xbdc287f8	-0.0949859
16	0xbdeb0bec	-0.11476883
17	0x3d99dfb0	0.07513368
18	0x3dfa7ad6	0.1223046
19	0xbd788904	-0.060677543
20	0xbd885eec	-0.0665873
21	0xbdde8c10	-0.108665586
22	0x3d3ecd78	0.04658267
23	0xbd334084	-0.0437627
24	0x3dd9d948	0.10637146
25	0xbd7ba2a4	-0.061434403
26	0xb8fd7000	-0.00012084842
27	0x3c29b040	0.010356963
28	0x3d75fe74	0.06005712
29	0x3c38a270	0.011269197
30	0x3dd851a4	0.10562447
31	0xbc7792d0	-0.015110686
32	0x3d6ffbdc	0.0585898
33	0xbbbeab20	-0.0058187395
34	0x3dda255a	0.106516555
35	0xbcc06398	-0.02348499
36	0xbd6daa9c	-0.058024034
37	0xbc792c10	-0.015208259
38	0xbd0e20bc	-0.034699187
39	0x3db52ed6	0.08846824
40	0x3d5cbf2c	0.053893253
41	0xbd5d80bc	-0.05407785
42	0x3d09c2f0	0.033633173
43	0xbd954c90	-0.07289994
44	0x3dc01788	0.09379488
45	0xbdd31886	-0.10307412
46	0xbdbe6b30	-0.09297788
47	0x3ceba758	0.02876632
48	0x3dffe0fe	0.12494086
49	0x3d917f84	0.071044
50	0xbde7c75e	-0.11317323
51	0xbc4aa180	-0.012367606
52	0xbd6412d8	-0.055682033
53	0xbd561f58	-0.052275985
54	0x3db2f33a	0.08737798
55	0xbdaf5fe0	-0.085632086
56	0x3df8e740	0.121534824
57	0xbc3416d0	-0.010991767
58	0x3cec5ff0	0.02885434
59	0xbda1b232	-0.07895316
60	0xbd5ec66c	-0.05438845
61	0x3d9425f6	0.07233803
62	0x3df02240	0.11725283
63	0x3dd8e176	0.10589878
64	0xbdfdfbf6	-0.12401573
65	0xbc604180	-0.013687491
66	0x3caca9c8	0.021077052
67	0x3dcaa36a	0.0989445
68	0x3d4f8598	0.050664514
69	0xbdb83a0e	-0.08995448
70	0x3ce1a630	0.027545065
71	0xbdcc03da	-0.09961672
72	0xbdd015c6	-0.10160403
73	0xbdb77ec4	-0.089597255
74	0x3cf07588	0.029352918
75	0xbdef6ca4	-0.116906434
76	0xbde6a618	-0.112621486
77	0xbd408d54	-0.04700978
78	0x3ccf13c0	0.025277972
79	0xbcd8cf98	-0.026466176
80	0x3dd7a422	0.10529353
81	0x3dd3bf68	0.10339242
82	0x3dc1cb2a	0.094625786
83	0x3c8ccc18	0.017187163
84	0x3c937ea0	0.018004715
85	0x3d2656f4	0.04061027
86	0xbda67a1e	-0.08128761
87	0xbd76d4b0	-0.06026143
88	0xbcdc7d88	-0.026915327
89	0xbd714edc	-0.058913097
90	0xbdbc8790	-0.09205544
91	0x3d50a0cc	0.050934598
92	0xbd901e92	-0.07037081
93	0x3ac58c00	0.001507163
94	0x3ba2c520	0.004967347
95	0x3bbb4500	0.0057150126
96	0xbd968cb0	-0.07351053
97	0xbdde1f2a	-0.10845788
98	0xbd719ab8	-0.058985442
99	0x3dd800ea	0.10547049
100	0xbb941c00	-0.0045199394
101	0x3dfa0d12	0.12209524
102	0x3da21032	0.07913245
103	0xbd844d8e	-0.06460105
104	0xbdb3c4c2	-0.08777763
105	0xbcf7c4c0	-0.030245185
106	0x3dd1b818	0.10240191
107	0xbd4d7188	-0.0501571
108	0xbdc2176e	-0.09477125
109	0xbda41704	-0.080122024
110	0x3d40c5e0	0.04706371
111	0xbdbf3136	-0.09335558
112	0x3d6938a8	0.056938797
113	0x3d913d56	0.07091777
114	0x3d377b7c	0.0447955
115	0xbcca0300	-0.024659634
116	0xbdbee834	-0.09321633
117	0xbdb49f02	-0.08819391
118	0x3d716214	0.058931425
119	0x3d46264c	0.048376366
120	0xbda85f80	-0.0822134
121	0xbc8cbeb8	-0.017180786
122	0xbd662228	-0.056184918
123	0x3d2875f4	0.041128114
124	0xbde5e044	-0.11224416
125	0x3d5925bc	0.053014502
126	0x3b6305c0	0.0034640878
127	0x3d0fbbe8	0.03509131
128	0x3c8faf20	0.01753956
129	0xbde99a70	-0.1140641
130	0xbd34e664	-0.04416503
131	0xbdc56eea	-0.09640296
132	0xbca962c0	-0.02067697
133	0x3d93b68e	0.07212554
134	0xbce477d0	-0.027889162
135	0xbbe51500	-0.006991029
136	0xbde5a1d4	-0.11212507
137	0x3dfc3cae	0.12316261
138	0x3d1fb9d8	0.038995594
139	0xbce81110	-0.028328449
140	0x3ab39d80	0.0013703555
141	0x3d91ab24	0.071127206
142	0x3db7d81a	0.08976765
143	0x3c260010	0.010131851
144	0x3d5b5268	0.053545386
145	0x3d8004ea	0.06250937
146	0x3cb22e68	0.021750644
147	0x3d16b6dc	0.036795482
148	0x3dc2658a	0.09492023
149	0xbca2cb30	-0.019872278
150	0xbd8891be	-0.06668423
151	0x3ce2dec0	0.027694106
152	0xbd4b5c60	-0.049648643
153	0x39d1b400	0.00039997697
154	0xbd764580	-0.060124874
155	0xbab74200	-0.0013981462
156	0x3dd4afd8	0.10385102
157	0x3ddbe2fc	0.10736653
158	0xbd2e9488	-0.04262212
159	0x3c11d380	0.008900523
160	0x3dafb074	0.08578578
161	0x3cdd8170	0.02703926
162	0xbc626b10	-0.013819471
163	0x3cfcaa58	0.030842945
164	0xbdbcdd9a	-0.09221955
165	0x3de7f158	0.113253295
166	0x3dac98f8	0.08427614
167	0x3db3dbfe	0.087821946
168	0xbda06f5e	-0.078337416
169	0x3dd66b38	0.10469669
170	0x3d26a7e8	0.04068747
171	0x3dd79216	0.105259106
172	0x3be84ee0	0.0070894808
173	0x3dcfb19e	0.101413
174	0xbc428040	-0.0118713975
175	0x3dce2d8c	0.10067281
176	0xbce268e0	-0.027637899
177	0xbdb5728e	-0.0885974
178	0xbdc715ce	-0.09720956
179	0x37104000	8.59797e-06
180	0xbdb12e50	-0.086514115
181	0xbdf6b0ec	-0.12045464
182	0xbdc5ac0e	-0.096519575
183	0x3de5d242	0.11221744
184	0x3c920138	0.017822847
185	0x3defaa66	0.11702423
186	0xbde71470	-0.11283195
187	0x3d03c808	0.032173187
188	0x3dfbeab4	0.123006254
189	0x3d1575d8	0.036489338
190	0x3bbe63e0	0.005810246
191	0x3d93bbae	0.072135314
192	0x3d86f146	0.06588988
193	0x3dee324e	0.116306886
194	0xbd75b418	-0.059986204
195	0x3dfa253e	0.12214135
196	0x3d3eae88	0.046553165
197	0x3da45bfa	0.08025356
198	0xbdc10170	-0.09424102
199	0xbd8d8b74	-0.06911364
200	0x3cb9db00	0.022687435
201	0x3de97a28	0.114002526
202	0xbbae8ba0	-0.005326703
203	0x3dddb48c	0.10825452
204	0x3ddf2840	0.10896349
205	0x3ce91f98	0.028457448
206	0x3dd91150	0.10599005
207	0xbdddd722	-0.10832049
208	0xbd0dd3e4	-0.034625903
209	0x3d764208	0.060121566
210	0xbdd15574	-0.10221377
211	0x3dee0ff4	0.116241366
212	0xbda366dc	-0.07978603
213	0xbd626eec	-0.055281565
214	0xbdcd3900	-0.100206375
215	0x3cd35af0	0.025800198
216	0xbd639478	-0.055561513
217	0xbbc00380	-0.005859792
218	0x3d32a128	0.04361072
219	0x3d5fd54c	0.054646775
220	0x3ded881c	0.115982264
221	0x3d16d5c0	0.03682494
222	0x3bf8aac0	0.0075887144
223	0xbd85dfbc	-0.065368146
224	0xbc61dc80	-0.013785481
225	0x3cdcf860	0.026973903
226	0xbbdb63a0	-0.006695226
227	0x3d767b14	0.06017597
228	0xbdbcf03c	-0.092255086
229	0x3d627c98	0.055294603
230	0xbd7ebed4	-0.062193707
231	0x3d208c60	0.039196372
232	0xbcd9fa38	-0.026608571
233	0x3b256500	0.0025237203
234	0x3d9c25de	0.0762441
235	0x3dc4f736	0.09617464
236	0x3c81bff0	0.015838593
237	0x3c4a4020	0.01234439
238	0xbdf20616	-0.11817567
239	0x3d95652e	0.07294689
240	0x3d502080	0.050812244
241	0x3ca8bdd8	0.020598337
242	0x3ddf4e62	0.10903622
243	0x3d4239cc	0.0474184
244	0xbdf3bcb6	-0.11901228
245	0xbdf13834	-0.11778298
246	0xbd426624	-0.04746069
247	0x3c8db000	0.017295837
248	0x3df349dc	0.11879322
249	0x3bf4d4e0	0.0074716657
250	0xbcc8c0f8	-0.024506077
251	0x3d54d1d4	0.05195792
252	0x3d40f198	0.0471054
253	0xbda016aa	-0.07816823
254	0x3dcd591c	0.10026762
255	0xbdb9927e	-0.09061144

rnn.weight_hh_l0 f4 [64, 64]
0	0x3cd96be8	0.026540712
1	0x3dc3ee42	0.095669284
2	0xbd7aee00	-0.06126213
3	0x3da0e8c0	0.078568935
4	0x3c460240	0.012085497
5	0x3c807bc8	0.015684023
6	0x3d0d99f8	0.034570664
7	0xbc85ded0	-0.016341597
8	0x3de1e762	0.11030461
9	0xbd90094a	-0.07033022
10	0xbd3c4390	-0.04596287
11	0xbd5c942c	-0.053852245
12	0xbc0fbc40	-0.00877291
13	0xbc08a800	-0.008340836
14	0x3d92cf7c	0.07168481
15	0x3d1b75cc	0.037954137
16	0x3dfb6542	0.12275173
17	0xbd0a3a90	-0.033747256
18	0x3cdfe1f8	0.02732943
19	0x3cf45750	0.02982679
20	0xbddcd7a2	-0.10783316
21	0x3da13776	0.078719065
22	0x3d96b2ea	0.07358344
23	0x3dc16942	0.094439045
24	0x3de4a4f4	0.11164275
25	0x3d66b4b4	0.056324676
26	0x3d8f63dc	0.070014685
27	0xbd4276a0	-0.04747641
28	0x3c9a8e60	0.018866718
29	0x3ae1ab00	0.00172171
30	0xbb93e880	-0.0045138
31	0x3dbd80d8	0.092530906
32	0xbdd9213e	-0.106020436
33	0xbc641320	-0.013920575
34	0xbdbce87c	-0.092240304
35	0x3da0ca94	0.07851139
36	0xbd05fb88	-0.032710582
37	0x3cfe5e68	0.031050876
38	0x3d7a2aa8	0.061075836
39	0x3c9409a8	0.01807101
40	0x3c8db478	0.017297968
41	0xbdd7fc38	-0.10546154
42	0xbdec5752	-0.115400925
43	0xbd5aaee8	-0.05338946
44	0xbdfda7dc	-0.12385532
45	0x3bb52e40	0.005529195
46	0xbc6bf4e0	-0.0144016445
47	0xbd2d14bc	-0.042256102
48	0x3db9d610	0.09074032
49	0x3df323c6	0.118720576
50	0xbcc939c0	-0.02456367
51	0xbdc76cdc	-0.0973756
52	0xbdf1eece	-0.118131265
53	0x3df5da6a	0.1200455
54	0xbd913c92	-0.07091631
55	0xbd27bbec	-0.0409507
56	0xbdcbbf1c	-0.099485606
57	0xbd7748dc	-0.06037222
58	0x3cb5ac28	0.022176817
59	0x3dcafaee	0.09911142
60	0xbd192e58	-0.037397712
61	0xbdf2cd56	-0.11855571
62	0x3dd286e4	0.102796346
63	0x3d57acbc	0.052654967
64	0xbbf1f0c0	-0.007383436
65	0x3b8c74a0	0.0042863637
66	0xbbc186a0	-0.005905941
67	0xbca628c0	-0.020283103
68	0xbcfdc180	-0.030976057
69	0x3ae99c80	0.001782313
70	0x3d388448	0.04504803
71	0x3dae6d9a	0.085169986
72	0xbd89eb00	-0.06734276
73	0xbc3d8cf0	-0.011569247
74	0x3dcf8ae2	0.10133912
75	0xbdb0bbfa	-0.08629604
76	0xbdfb2ba8	-0.12264186
77	0xbd789444	-0.060688272
78	0x3b490340	0.0030672103
79	0x3d064220	0.032777905
80	0xbd939100	-0.07205391
81	0x3da93940	0.08262873
82	0xbda87108	-0.08224684
83	0xbd882632	-0.0664791
84	0x3d3e27c8	0.046424657
85	0x3df4f4d6	0.11960761
86	0x3c9dd880	0.019268274
87	0xbdd04c8c	-0.1017085
88	0x3d94f614	0.07273498
89	0x3dbb32e0	0.09140563
90	0xbcd4f718	-0.02599673
91	0xbd0a945c	-0.033832893
92	0x3cfb2920	0.030659258
93	0x3dd564a2	0.10419585
94	0x3d93cb14	0.072164685
95	0xbdb1f120	-0.08688569
96	0xbdd54b50	-0.10414755
97	0xbd46343c	-0.04838966
98	0x3dff29e0	0.12459159
99	0xbda4d5d0	-0.08048594
100	0x3c8e70a8	0.017387703
101	0x3df39156	0.11892955
102	0xbd1120b8	-0.035431594
103	0x3dfcf036	0.12350504
104	0x3daad856	0.08342044
105	0x3db0d3b0	0.08634126
106	0xbcd3d7c0	-0.025859714
107	0xbd289dc0	-0.041166067
108	0xbd52b730	-0.051444232
109	0x3d078a0c	0.033090636
110	0x3b9161a0	0.0044366866
111	0xbbecd8a0	-0.007227972
112	0xbdfe61d2	-0.124210015
113	0xbd5f7364	-0.054553404
114	0x3d8415fa	0.06449504
115	0xbdd75b14	-0.10515419
116	0xbda2bb72	-0.079459086
117	0x3ca56348	0.020188943
118	0x3d82f606	0.063945815
119	0xbdfd7d72	-0.123774424
120	0x3dce9e6a	0.10088809
121	0x3cc98530	0.024599642
122	0xbd57b7a4	-0.052665368
123	0x3dd8054a	0.10547884
124	0x3d699e40	0.057035685
125	0xbd5fd750	-0.054648697
126	0xbdcb8cfc	-0.09939
127	0x3d27e1e0	0.040986896
128	0x3d839df8	0.064266145
129	0x3cd17ea0	0.025573075
130	0xbdd4ad52	-0.10384621
131	0xbd9c144c	-0.07621059
132	0xbcdad688	-0.026713625
133	0xbd475338	-0.048663348
134	0xbdf68d8a	-0.12038715
135	0xbc62a7b0	-0.013833925
136	0xbddeb9d6	-0.10875289
137	0xb91da400	-0.00015033782
138	0xbde94f8c	-0.113921255
139	0xbdec259c	-0.11530611
140	0xbd3dddfc	-0.04635428
141	0x3cca5288	0.024697557
142	0x3d2e6e3c	0.042585596
143	0x3d9ce6da	0.07661219
144	0x3d8d6566	0.06904106
145	0x3c3e85b0	0.011628553
146	0x3da9ac38	0.08284801
147	0xbdf49ff6	-0.11944573
148	0xbd6e7c8c	-0.058224246
149	0xbd891bec	-0.06694779
150	0xbd1fab58	-0.038981766
151	0x3db67470	0.089089274
152	0x3da55afa	0.08073993
153	0xbc934300	-0.017976284
154	0xbcbb8800	-0.022891998
155	0xbdb9e8f6	-0.09077637
156	0x3d8fd086	0.070221946
157	0x3df17656	0.11790149
158	0xbaee8180	-0.0018196553
159	0x3c848248	0.016175404
160	0xbb9c0f60	-0.004762575
161	0x3c9e9028	0.019355848
162	0x3dee61c0	0.11639738
163	0xbd912d62	-0.07088734
164	0x3d814f06	0.06313901
165	0x3cd8a080	0.02644372
166	0xbd8a1262	-0.067417875
167	0x3deb2b7a	0.11482902
168	0xbbb2d460	-0.005457446
169	0x3d861d56	0.06548564
170	0x3d220064	0.039551154
171	0xbdba49b2	-0.090960875
172	0x3d25fa00	0.04052162
173	0x3d96da82	0.07365896
174	0xbdeea7d0	-0.116531014
175	0x3aff4f80	0.0019478649
176	0xbdd8866e	-0.105725154
177	0xbcca09a8	-0.024662808
178	0xbddc44c4	-0.107553035
179	0x3b318700	0.0027088523
180	0xbd9bbdc4	-0.07604554
181	0xbc9f3330	-0.019433588
182	0x3c814990	0.015782148
183	0x3d01e8c4	0.031716123
184	0xbda5f62c	-0.08103594
185	0xbc849b20	-0.01618725
186	0x3d8ba478	0.06818479
187	0x3ae9cc00	0.0017837286
188	0xbdde54d0	-0.108560205
189	0xbcadba68	-0.02120705
190	0x3dc0e748	0.094191134
191	0x3c139ad0	0.009009078
192	0x3d98fb86	0.07469849
193	0x3cd245a0	0.025667965
194	0x3dc5d942	0.09660579
195	0x3db55ffe	0.088562
196	0xbde2e7c8	-0.11079365
197	0xbdbd88c4	-0.092546016
198	0xbdb4a6f8	-0.08820909
199	0xbdcf5286	-0.10123162
200	0xbcd27fb0	-0.025695652
201	0xbdd005ee	-0.10157381
202	0x3bcdb100	0.0062772036
203	0x3dadab6c	0.08479962
204	0x3c121f70	0.008918628
205	0x3dc96108	0.0983296
206	0x3c00fe60	0.007873148
207	0xbde16c28	-0.11006957
208	0x3cc51e60	0.024062335
209	0x3da10e84	0.07864097
210	0x3dfaeec4	0.12252572
211	0x3cd94ff8	0.02652739
212	0xbde0a87c	-0.10969636
213	0xbdfacae0	-0.122457266
214	0xbd11ec94	-0.03562601
215	0x3ce01490	0.027353555
216	0x3d00f254	0.031481102
217	0x3c838ac0	0.016057372
218	0x3ceb5990	0.02872923
219	0xbd9c9c38	-0.07646984
220	0x3dd038b8	0.10167068
221	0xbc668bb0	-0.01407139
222	0xbd9c9b42	-0.076468006
223	0x3dfea496	0.12433736
224	0xbdae7246	-0.0851789
225	0xbdcec65c	-0.10096428
226	0xbdbd0198	-0.092288196
227	0xbd846072	-0.06463708
228	0xbdeae8d0	-0.11470187
229	0xbca99218	-0.020699546
230	0xbda18068	-0.0788582
231	0xbd8f20b2	-0.06988658
232	0x3d0d6b60	0.03452623
233	0xbc8defa0	-0.017326176
234	0x3d70a6c0	0.058752775
235	0xbde6e91c	-0.11274931
236	0xbd8835b6	-0.066508695
237	0xbbbd3ea0	-0.0057752877
238	0x3d9600da	0.07324381
239	0x3d9adeea	0.07562049
240	0x3dede72a	0.11616357
241	0x3d4261a4	0.0474564
242	0xba7b4800	-0.0009585619
243	0xbd608678	-0.05481574
244	0xbda18342	-0.078863636
245	0x3ddfb2a6	0.10922746
246	0x3ce3f100	0.027824879
247	0xbd697de4	-0.057004824
248	0x3de70f4e	0.11282216
249	0xbdd70840	-0.104996204
250	0x3dd7ae04	0.10531238
251	0xbd16b5ec	-0.036794588
252	0x3cbe3310	0.023217708
253	0xbd80f6da	-0.06297083
254	0xbd65c080	-0.056091785
255	0x3c63fbd0	0.013915017

rnn.bias_ih_l0 f4 [64]
0	0xbdae2716	-0.08503549
1	0xbdb26a8a	-0.08711727
2	0xbc83d8a8	-0.01609452
3	0xbd039108	-0.032120734
4	0x3d23cb08	0.039988548
5	0x3d0d923c	0.034563288
6	0x3d58f954	0.052972153
7	0x3d5be028	0.05368057
8	0x398fd22f	0.00027431684
9	0xbde00daa	-0.10940106
10	0x3d0cf2a2	0.03441108
11	0xbcd1bce0	-0.025602758
12	0x3c1d025e	0.009583084
13	0x3e2713a3	0.16316085
14	0x3d3048e2	0.043038256
15	0xbd17cd23	-0.037060868
16	0xbc7a7bd0	-0.015288308
17	0x3ddcb04a	0.10775812
18	0xbd53bc20	-0.05169308
19	0x3d498424	0.049198285
20	0xbd9c8cb3	-0.07644024
21	0xbd614f04	-0.055006996
22	0x3d9d0c89	0.076684065
23	0xbd9bd5fc	-0.07609174
24	0x3d30dd0c	0.043179557
25	0x3dd5c206	0.10437398
26	0xbd9be62a	-0.0761226
27	0x39cf7800	0.00039571524
28	0xbcc8a7f4	-0.024494149
29	0xbdbf4e0a	-0.09341057
30	0xbcb8df38	-0.022567376
31	0x3d3ae370	0.045627058
32	0xba1d248c	-0.00059945206
33	0xbda09dd7	-0.078426056
34	0xbd43bb63	-0.047786128
35	0xbbe16d80	-0.0068795085
36	0x3d2c5984	0.042077556
37	0xbda993ad	-0.0828012
38	0xbd2b4638	-0.041815013
39	0x3d8ddd60	0.069269896
40	0xbc975418	-0.018472716
41	0xbdf65896	-0.12028615
42	0xbd391f2f	-0.045195755
43	0x3cbf74d3	0.023371136
44	0xbc4450c0	-0.011982143
45	0x3c819b4d	0.015821123
46	0xbd9721ca	-0.073794916
47	0x3db3eb2c	0.0878509
48	0xbdf7098b	-0.12062367
49	0xbcd695e0	-0.026194513
50	0xbdf6d410	-0.120521665
51	0xbd29001c	-0.04125987
52	0x3cd3f3ce	0.025873091
53	0xbcdcea80	-0.026967287
54	0xbde0ffcc	-0.109862894
55	0x3dc5e4ea	0.096628025
56	0xbdaade1a	-0.08343144
57	0x3da4501c	0.08023092
58	0x3d2bb228	0.04191795
59	0x3d674de9	0.056470785
60	0x3cc4e89b	0.024036696
61	0xbdeee6b2	-0.116650954
62	0x3de49b6e	0.11162458
63	0xbdd907eb	-0.10597213

rnn.bias_hh_l0 f4 [64]
0	0xbc8c4680	-0.01712346
1	0xbdcba120	-0.099428415
2	0xb95f8585	-0.00021316677
3	0xbd9d26fa	-0.0767345
4	0xbce37c60	-0.027769268
5	0x3de1f1c8	0.11032444
6	0x3d677ef0	0.05651754
7	0x3d9d53ea	0.07682021
8	0xbdcb5fca	-0.0993038
9	0x3d30cdab	0.04316489
10	0x3d2552ee	0.04036229
11	0x3d1670e0	0.03672874
12	0xbdfce419	-0.12348194
13	0xba542440	-0.000809256
14	0x3e0296be	0.12752816
15	0xbe03a84e	-0.12857172
16	0xbdfcd42a	-0.123451546
17	0x3d749db4	0.05972071
18	0x3b3c0d40	0.002869442
19	0xbc2df210	-0.010616794
20	0x3c0fb8be	0.008772073
21	0xbdfaf2f2	-0.122533694
22	0xbded1b0b	-0.11577424
23	0xbce5fccf	-0.02807465
24	0xbc88fe30	-0.016722769
25	0xbd1497a4	-0.03627743
26	0x3daf25e6	0.085521504
27	0x3c03ce20	0.0080447495
28	0x3cc1604d	0.02360549
29	0xbda666d2	-0.0812508
30	0xbd17748c	-0.036976382
31	0x3b4f7a40	0.003165856
32	0xbc80fc82	-0.015745405
33	0x3d0bf4ba	0.034168936
34	0x3dc8b494	0.098000675
35	0xbdb084d8	-0.08619088
36	0x3d0367fc	0.03208159
37	0xbaf82415	-0.0018931652
38	0xbdb2504a	-0.0870672
39	0xbddf548c	-0.10904798
40	0xbdf67848	-0.120346606
41	0xbcf6812b	-0.030090889
42	0x3d2d2da5	0.04227986
43	0x3d31fe24	0.043455258
44	0xbd9142b8	-0.07092804
45	0xbd7484cc	-0.059696957
46	0xbd99bfbc	-0.075072736
47	0x3dd164ec	0.102243274
48	0xbdf38519	-0.11890621
49	0x3bbb51a0	0.0057165176
50	0x3cff0c40	0.031133771
51	0xbd607a50	-0.054804146
52	0x3d5e65ad	0.054296184
53	0xbd9db85a	-0.07701178
54	0x3d845e34	0.0646328
55	0xbe03fb1b	-0.12888758
56	0x3ce8a468	0.028398708
57	0x39f11c00	0.00045987964
58	0xbd969906	-0.07353406
59	0xbc6cbf0f	-0.014449849
60	0x3d934375	0.07190601
61	0x3d97279c	0.07380602
62	0x3d04c120	0.03241074
63	0x3d780695	0.060553152

fc1.weight f4 [128, 64]
0	0xbc56e220	-0.013115436
1	0x3d9e2aae	0.07722984
2	0xbda34a16	-0.07973115
3	0x3d844bc6	0.06459765
4	0xbd3f8620	-0.04675877
5	0x3dc81c3c	0.0977101
6	0x3dcada1e	0.09904884
7	0xbd9e8ad8	-0.07741326
8	0xbdb3db8c	-0.087821096
9	0xbdd039e8	-0.10167295
10	0xbdca1d6a	-0.098688915
11	0xbd1aec64	-0.037823096
12	0xbdc63ec0	-0.09679937
13	0xbd7994c8	-0.060932904
14	0x3c138960	0.009004921
15	0x3c85bbe8	0.016324952
16	0x3c2223c0	0.009896219
17	0xbae96b80	-0.0017808527
18	0xbc9b9b28	-0.018994883
19	0x3dee0884	0.11622718
20	0xbdffd09e	-0.124909624
21	0xbcd31780	-0.025768042
22	0xbdfa5132	-0.12222518
23	0x3cda4cf0	0.026648015
24	0x3d92b77e	0.071639046
25	0xbd1265ec	-0.03574173
26	0xbda220c0	-0.07916403
27	0xbdc79e54	-0.097469956
28	0xbded1fd8	-0.11578339
29	0xbd53c2e0	-0.05169952
30	0xbd7806c4	-0.060553327
31	0xbd73ac20	-0.059490323
32	0x3d8827d2	0.0664822
33	0x3d5b4be4	0.05353917
34	0x3d44f4e4	0.04808511
35	0x3db4352e	0.08799206
36	0x3c9d0d50	0.019171387
37	0xbdc71220	-0.09720254
38	0xbd8d7dfa	-0.06908794
39	0xbd72258c	-0.05911784
40	0x3d34adac	0.04411094
41	0x3d3d78a8	0.046257645
42	0xbda17e30	-0.078853965
43	0x3d06a1a4	0.032868996
44	0x3dbaf51a	0.09128781
45	0x3d988422	0.07447077
46	0x3df4b4d4	0.11948553
47	0x3d09d998	0.03365478
48	0xbd94eac8	-0.072713435
49	0xbd994792	-0.07484354
50	0x3d372a70	0.044718206
51	0x3dfcfb00	0.12352562
52	0xbda13f5e	-0.078734145
53	0xbbe35b00	-0.0069383383
54	0xbde03788	-0.10948092
55	0x3d95796c	0.0729855
56	0x3d5572b8	0.052111357
57	0xbad57a80	-0.0016287118
58	0xbc688bc0	-0.014193475
59	0xbd4544dc	-0.048161373
60	0xbd84079a	-0.064467624
61	0x3de0a410	0.109687924
62	0x3de39d56	0.11113994
63	0x3d309488	0.0431104
64	0x3ad16800	0.0015976429
65	0xbcb642b8	-0.02224861
66	0x3dec7198	0.11545104
67	0x3dd05e80	0.101742744
68	0xbdb65abc	-0.08904025
69	0xbdb4e94e	-0.08833562
70	0x3c6beb80	0.014399409
71	0x3c4852c0	0.01222676
72	0xbdad1032	-0.08450355
73	0x3dfdb762	0.12388493
74	0xbd3c7630	-0.04601115
75	0xbd874d62	-0.066065565
76	0x3d966dfe	0.07345198
77	0xbde47dfe	-0.111568436
78	0xbd7c0284	-0.061525837
79	0x3dcc5502	0.099771515
80	0x3d0b2e48	0.033979684
81	0x3b7893c0	0.0037929863
82	0x3cba8a68	0.022771075
83	0x3ccbaa88	0.02486159
84	0xbdbaa3d6	-0.091132805
85	0xbd8abcca	-0.0677429
86	0x3dd575f4	0.104228884
87	0xbdd7905c	-0.10525581
88	0xbdb3bf12	-0.08776678
89	0x3df1c4b2	0.11805095
90	0x3d73f2f8	0.059557885
91	0x3d3e0044	0.046386972
92	0xbd680ecc	-0.056654736
93	0xbd877a9e	-0.06615184
94	0x3dd4355e	0.103617415
95	0x3cd8c7b0	0.026462406
96	0xbd24815c	-0.04016243
97	0xbcdd5ec0	-0.02702272
98	0xbd411004	-0.047134414
99	0xbd942478	-0.07233518
100	0xbdbb0072	-0.09130944
101	0x3dd3b304	0.10336879
102	0xbcc02888	-0.023456827
103	0xbd6f6b84	-0.058452144
104	0xbd3ba328	-0.045809895
105	0x3dbf70f8	0.09347719
106	0x3dbdb4d4	0.09263006
107	0xbdcfab7a	-0.101401284
108	0xbde1ca92	-0.11024965
109	0x3d5d0a6c	0.053965017
110	0x3cdba988	0.026814237
111	0x3cea53a8	0.028604344
112	0x3dfa7e3e	0.1223111
113	0x3dcd2480	0.100167274
114	0xbcf32f88	-0.02968575
115	0x3db06e96	0.086148426
116	0x3da70456	0.08155124
117	0x3deac1ba	0.11462732
118	0xbd3ea41c	-0.046543226
119	0x3c8bee88	0.017081514
120	0xbad20200	-0.0016022325
121	0xbd35e760	-0.04441011
122	0xbcb4a150	-0.022049576
123	0x3d78a3e4	0.060703173
124	0x3d5f6968	0.054543883
125	0xbd30b03c	-0.04313682
126	0xbb9278a0	-0.004469946
127	0x3d551f40	0.052031755
128	0xbd263b09	-0.040583644
129	0x3d200b01	0.039072994
130	0xbd400d00	-0.046887398
131	0x3d8a7eb5	0.06762449
132	0xbce910ec	-0.028450452
133	0x3c31da57	0.010855279
134	0xbdcd6b21	-0.10030199
135	0x3da991af	0.0827974
136	0xbdb79336	-0.08963625
137	0xbd7a1635	-0.061056335
138	0xbd5f6431	-0.05453891
139	0x3b8fccdc	0.004388435
140	0xbc5f4453	-0.01362713
141	0xbf04a682	-0.5181657
142	0x3dc3d16d	0.09561429
143	0x3e2adb63	0.16685252
144	0xbc2ee54b	-0.010674785
145	0x3da55dff	0.08074569
146	0x3dce5d6b	0.10076412
147	0x3d1827ad	0.037147213
148	0xbda6c471	-0.08142937
149	0x3d5ef3ff	0.05443191
150	0xbc13c408	-0.009018905
151	0x3d69de80	0.05709696
152	0x3d91df84	0.0712271
153	0x3d414ee7	0.047194388
154	0xbc0d2761	-0.008615346
155	0x3c0a3bfb	0.008437152
156	0xbd86c339	-0.065802045
157	0x3d9b3d02	0.07579996
158	0x3dfeab16	0.12434976
159	0xbde8a2ff	-0.11359214
160	0x3dae2e69	0.08504946
161	0xbe096fed	-0.13421603
162	0xbdd05a76	-0.10173504
163	0xbdc29925	-0.09501866
164	0xbd191222	-0.03737081
165	0xbda12dd9	-0.07870073
166	0x3dd57f93	0.104247235
167	0xbc667ce5	-0.014067863
168	0xbd344ced	-0.044018675
169	0xbe0180b4	-0.12646753
170	0x3d87a288	0.06622797
171	0xbe0acbcc	-0.13554305
172	0x3cdf2921	0.027241291
173	0xbd9681be	-0.07348965
174	0xbd00605d	-0.0313419
175	0x3d3d9654	0.046285942
176	0x3cc29709	0.02375366
177	0x3e0beb5f	0.13664006
178	0x3db2af0d	0.087247945
179	0xbaa7791f	-0.0012777186
180	0xbdf83e87	-0.12121301
181	0xbe097855	-0.1342481
182	0x3dffb22e	0.12485157
183	0x3a1cbd77	0.000597916
184	0x3d5cac7c	0.05387543
185	0x3d573f14	0.05255039
186	0xbdc9c729	-0.0985244
187	0xbd69e627	-0.057104256
188	0x3de221b5	0.11041585
189	0x3da64c5f	0.081200354
190	0xbdaf27eb	-0.085525356
191	0xbe3c55d5	-0.18392117
192	0xbd7e0218	-0.062013716
193	0xbdaf948c	-0.08573255
194	0xbdadb5c6	-0.08481936
195	0xbbd3b1c0	-0.0064603984
196	0x3dba6bc8	0.09102589
197	0x3d432da0	0.047650933
198	0xbd6c1930	-0.05764121
199	0x3dffb1b4	0.12485066
200	0xbd861802	-0.06547548
201	0xbde54bba	-0.11196084
202	0xbdf84dec	-0.121242374
203	0xbaec9580	-0.0018049926
204	0x3df25876	0.11833279
205	0x3dcb7ba4	0.09935692
206	0x3942a400	0.00018562376
207	0xbd8cd93a	-0.0687737
208	0x3de6fa86	0.11278252
209	0x3c815030	0.015785307
210	0xbbc92620	-0.006138578
211	0x3dff6eb0	0.12472284
212	0xbde5430e	-0.1119443
213	0xbdb256fa	-0.08707996
214	0xbdd5384c	-0.104111284
215	0x3d481530	0.04884833
216	0xbd952a38	-0.07283443
217	0xbdfd94f6	-0.12381928
218	0x3d683b4c	0.056697175
219	0x3d0a880c	0.03382115
220	0xbd1e4cb0	-0.038647354
221	0xbcc28e08	-0.023749366
222	0xbdb9c454	-0.0907065
223	0xbda9f536	-0.082987234
224	0x3deeb7d6	0.11656158
225	0xbdffdd0c	-0.12493333
226	0xbd3e61f4	-0.046480134
227	0xbc23cbd0	-0.009997323
228	0xbcba4ad0	-0.022740752
229	0x3d5db9b0	0.054132164
230	0x3d7aa7d8	0.061195225
231	0x3d83464c	0.064098924
232	0xbaebd200	-0.0017991662
233	0xbd90af08	-0.070646346
234	0x3c6eb240	0.014568865
235	0x3d597a50	0.053095162
236	0xbdcecad4	-0.1009728
237	0xbdeea5c2	-0.116527095
238	0xbd64213c	-0.055695757
239	0xbdd69a1a	-0.10478611
240	0xbd47384c	-0.048637673
241	0xbd8d53c6	-0.06900744
242	0x3c820b28	0.01587446
243	0xbcdc1580	-0.02686572
244	0x3b693680	0.0035585463
245	0xbd92e282	-0.07172109
246	0x3d02e88c	0.031960055
247	0x3df27a5e	0.11839746
248	0x3d88458a	0.066538885
249	0xbc0a4190	-0.008438483
250	0x3c99c6b8	0.018771514
251	0x3cb0a840	0.021564603
252	0xbda80b36	-0.08205263
253	0x3dc6d4ae	0.09708534
254	0xbd8cfb06	-0.068838164
255	0xbb6762c0	-0.0035306662

fc1.bias f4 [128]
0	0xbcbd4ef0	-0.02310893
1	0x3d6c7ddc	0.057737216
2	0x3dbeb6d6	0.09312217
3	0xbddf6f5e	-0.109099135
4	0xbd4e2fe5	-0.050338645
5	0xbcef706b	-0.02922841
6	0xbd356ea7	-0.04429498
7	0xbca6af12	-0.020347152
8	0xbd2a73d6	-0.041614376
9	0x3bb2846e	0.0054479158
10	0x3d14d72e	0.036338024
11	0xbbb3b3bc	-0.0054840725
12	0xbd0017f5	-0.031272847
13	0x3da7a2a1	0.08185316
14	0x3decdc76	0.11565487
15	0xbdba5637	-0.090984754
16	0xbe0350ef	-0.12823842
17	0xbd8ac95c	-0.067766875
18	0xbcc66df0	-0.024222344
19	0x3d45a5bb	0.048253756
20	0xbdcb4e9f	-0.09927105
21	0xbd8e0944	-0.06935361
22	0xbddf4db6	-0.10903494
23	0xbcaac780	-0.020847082
24	0xbbe36170	-0.0069391057
25	0x3dbfcb50	0.09364951
26	0x3b5917fc	0.0033125868
27	0xbc90ca2b	-0.017674526
28	0x3cffef38	0.031241998
29	0x3c40c351	0.011765317
30	0xbacd4280	-0.0015660077
31	0x3de37333	0.11105957
32	0x3dbe1b5f	0.09282564
33	0xbd9c269f	-0.07624554
34	0x3d3711a0	0.044694543
35	0xbd620bbc	-0.055186972
36	0xbdef99d0	-0.11699259
37	0x3d8fbdd4	0.07018629
38	0x3dcfcaa0	0.101460695
39	0xbdbe8cd6	-0.09304206
40	0xbda4b1d2	-0.08041729
41	0xbd50c2f6	-0.05096718
42	0xbd499a7f	-0.049219605
43	0x3db4d599	0.08829803
44	0xbcb29e40	-0.021803975
45	0xbd0d93d5	-0.03456481
46	0xbd593649	-0.053030286
47	0x3dcf02d8	0.10107964
48	0x3ccd522b	0.025063595
49	0x3d606f1f	0.054793473
50	0x3e097fb1	0.13427617
51	0xbd2d656c	-0.04233305
52	0xbdec6aa4	-0.115437776
53	0x3d11e574	0.035619214
54	0xbd9bae45	-0.07601599
55	0x3cf3f331	0.029779049
56	0xbd754ed1	-0.05988962
57	0xbd13b5dd	-0.03606211
58	0x3d9133b0	0.07089937
59	0x3d2d1f78	0.04226634
60	0xbd9394b8	-0.072061
61	0xbdc983a8	-0.098395646
62	0x3d8bb9c3	0.068225406
63	0x3da0cba4	0.07851341
64	0xbd88bf56	-0.066771194
65	0x3c8a778d	0.01690271
66	0x3d102ad9	0.035197113
67	0x3d8d73a0	0.06906819
68	0xbdb377bf	-0.08763074
69	0xbcec30b0	-0.02883181
70	0x3d7eb3d7	0.062183227
71	0x3cf90ed6	0.030402582
72	0xbb4278b8	-0.0029674005
73	0xbd44a369	-0.048007403
74	0xbe079c9b	-0.13243334
75	0x3d11d958	0.035607666
76	0xbd7d9c21	-0.061916474
77	0x3d990478	0.074715555
78	0x3d51d198	0.051225275
79	0x3dd4ba08	0.10387045
80	0x3d729134	0.059220508
81	0xbd17e68a	-0.037085094
82	0xbcb5cb1d	-0.022191579
83	0xbbbeb040	-0.0058193505
84	0x3d92ceb2	0.0716833
85	0x3db76842	0.089554325
86	0xbd25a483	-0.040440094
87	0xbde24d79	-0.11049933
88	0xbd1cc280	-0.038271427
89	0xbd94c93a	-0.072649434
90	0xbdd86ae7	-0.10567265
91	0xbd6aaec8	-0.05729559
92	0xbd2c3cf0	-0.042050302
93	0x3d78f68b	0.060781997
94	0x3b9b5dc0	0.0047414005
95	0xbb459eee	-0.0030154544
96	0xbdd191ae	-0.10232864
97	0xbdf31c51	-0.11870635
98	0xbdd109cc	-0.10206947
99	0xbdb06835	-0.08613626
100	0xbdc3a540	-0.09553003
101	0x3da9e757	0.08296078
102	0xbda56203	-0.08075335
103	0xbce63101	-0.028099539
104	0x3d98199f	0.07426762
105	0x3dbf1966	0.09331016
106	0x3dfbc9f6	0.1229438
107	0x3d83c4bf	0.06434011
108	0x3dbf1b84	0.0933142
109	0x3d8824cf	0.06647646
110	0x3d807266	0.0627182
111	0x3d7f281b	0.062294107
112	0xbce67d38	-0.02813588
113	0x3da5e138	0.08099598
114	0xbe07fe6d	-0.1328065
115	0xbdf75d2e	-0.120783195
116	0xbcfcc730	-0.030856699
117	0xbda22188	-0.07916552
118	0xbc2a8500	-0.010407686
119	0xbdc5c9d8	-0.09657639
120	0xbddc7a4a	-0.10765512
121	0x3d21c862	0.03949774
122	0xbbb5ddab	-0.0055501065
123	0xbdfaa9ab	-0.12239393
124	0xbcae8a14	-0.021306075
125	0xbd6636b2	-0.056204505
126	0x3cbeaef6	0.023276787
127	0xbba98f4b	-0.0051745526

fc2.weight f4 [10, 128]
0	0xbd8c957e	-0.06864451
1	0x3db0e2f9	0.086370416
2	0x3dfe7b63	0.12425878
3	0xbd874a76	-0.06605999
4	0x3d65b6c8	0.056082517
5	0x3d4ff584	0.05077125
6	0x3e18d439	0.14924707
7	0x3dd2962c	0.10282549
8	0x3dd36349	0.103216715
9	0x3e1c5723	0.15267615
10	0x3d4cbae1	0.04998291
11	0x3da1b570	0.078959346
12	0xbd133408	-0.035938293
13	0xbc8c5de2	-0.01713461
14	0x3d883d70	0.06652343
15	0xbc2e80c2	-0.010650815
16	0xbd9178df	-0.071031325
17	0x3cbd382c	0.023098074
18	0xbd10c574	-0.035344556
19	0xbd86e5f3	-0.06586828
20	0x3d67f51d	0.056630243
21	0xbdaf2520	-0.08552003
22	0x3d7abde2	0.061216243
23	0x3d1135be	0.035451643
24	0x3c5812be	0.013188062
25	0xbd49d37f	-0.049273964
26	0x3e121890	0.14267182
27	0xbd1651f9	-0.03669927
28	0x3db0f7f2	0.08641042
29	0x3d368e06	0.044569038
30	0xbd9f12ad	-0.07767234
31	0x3cdca02a	0.02693184
32	0x3dca10d6	0.098664925
33	0x3df3789c	0.11888239
34	0xbd543a9a	-0.0518137
35	0x3ac0d210	0.0014711041
36	0x3d87ff29	0.06640465
37	0x3d73c4fd	0.059514035
38	0xbcd87dcb	-0.02642717
39	0xbd92dece	-0.07171403
40	0x3dbb9626	0.09159498
41	0x3d027c8a	0.03185705
42	0xbd5fcd23	-0.054638993
43	0x3d0744aa	0.033024468
44	0xbda98023	-0.08276393
45	0x3c7b6270	0.015343294
46	0x3e9d1d22	0.3068629
47	0x3d2d205b	0.042267185
48	0x3da8f053	0.08248963
49	0x3df8e605	0.12153248
50	0xbe9b0fbd	-0.30285445
51	0x3d6a843a	0.057255007
52	0x3dafe8de	0.08589338
53	0xbda8d1b0	-0.0824312
54	0xbd88435b	-0.06653472
55	0x3dfa203f	0.12213182
56	0x3c7d22d0	0.0154501945
57	0x3d9aa67e	0.07551287
58	0x3e2563bf	0.16151331
59	0x3d99e1f3	0.075137995
60	0x3c88ebae	0.016713943
61	0x3dbe9316	0.09305398
62	0xbd2daf69	-0.042403612
63	0x3d9acb71	0.075583346
64	0xbd92206f	-0.071350925
65	0xbd9cc317	-0.07654398
66	0xbcf27750	-0.029597908
67	0xbcbcabb6	-0.023031097
68	0xbd955229	-0.072910614
69	0x3d9558c8	0.07292324
70	0xbc6086fc	-0.013704058
71	0x3e1fc700	0.15603256
72	0x3c1ee8d8	0.009699069
73	0xbe133ad0	-0.14377904
74	0x3d25adf1	0.040449087
75	0xbc9d5fb8	-0.019210681
76	0x3d8a82c1	0.067632206
77	0x3d5b5606	0.053548835
78	0x3d8cd1bc	0.06875941
79	0x39aff588	0.00033561536
80	0x3dabcfbe	0.08389233
81	0xbd73a46b	-0.059482973
82	0x3e276728	0.16347945
83	0x3c87699a	0.016529847
84	0xbcaec674	-0.021334864
85	0xbd5f3422	-0.054493077
86	0x3d00d5b1	0.031453792
87	0x3c06dfec	0.008232098
88	0x3d203c1a	0.039119817
89	0xbe0505d8	-0.1299051
90	0x3c99e752	0.01878706
91	0xbd40075e	-0.046882026
92	0xbcd7080a	-0.02624895
93	0x3e14e9ac	0.14542264
94	0x3ca606f3	0.020266986
95	0xbd0f57ff	-0.03499603
96	0xbd82fae7	-0.06395512
97	0x3caf9629	0.021433907
98	0xbd9658ad	-0.07341132
99	0x3cea918e	0.028633859
100	0x3db3574d	0.08756886
101	0x3b9cc75b	0.004784507
102	0xbeaf4f0e	-0.3424
103	0xbd32b265	-0.04362716
104	0x3d8960eb	0.06707939
105	0x3d9e4d91	0.07729638
106	0x3bba7730	0.005690478
107	0x3c836d53	0.01604334
108	0x3d879392	0.06619944
109	0x3d7529c6	0.05985429
110	0x3d82fd87	0.06396013
111	0x3d0595d3	0.032613587
112	0xbd401a59	-0.046900127
113	0xbd8992ed	-0.06717477
114	0xbd5fdf4c	-0.054656312
115	0x3d97410c	0.073854536
116	0xbda28d8c	-0.07937154
117	0xbc956752	-0.018237744
118	0x3a9d086f	0.0011980663
119	0x3db0a6d1	0.08625568
120	0x3bf64a3c	0.0075161736
121	0xbe127678	-0.14303005
122	0x3ce7833a	0.028260816
123	0x3d29e277	0.04147574
124	0xbcadf75f	-0.02123612
125	0xbd63e6d9	-0.055640075
126	0x3dca4b6d	0.098776676
127	0x3ce2ccd2	0.027685557
128	0xbb843183	-0.0040342226
129	0xbd8ac788	-0.06776339
130	0x3c73d090	0.014881268
131	0xbdb37cf7	-0.087640695
132	0x3d6763e1	0.056491736
133	0x3d705982	0.05867911
134	0xbcca73eb	-0.024713477
135	0x3dd0fadc	0.10204098
136	0x3d844453	0.06458344
137	0x3af08373	0.0018349722
138	0xbcc2e753	-0.023791945
139	0x3db8f7bc	0.090316266
140	0x3da64fc8	0.08120686
141	0x3d45bce0	0.04827583
142	0x3dd5527a	0.10416122
143	0x3da056ec	0.07829079
144	0xbd015b4d	-0.03158121
145	0x3cd1d626	0.02561481
146	0xbd9f5858	-0.07780522
147	0x3cd2a38e	0.025712755
148	0xbcf8640d	-0.030321145
149	0xbd17a47e	-0.037022106
150	0xbdb0df35	-0.08636323
151	0xbd61d1c5	-0.055131692
152	0x3de5df9e	0.11224292
153	0x3e2a1f2f	0.16613458
154	0xbd6bdf99	-0.057586286
155	0xbd17b663	-0.037039172
156	0x3d78661a	0.060644247
157	0xbd6dd20f	-0.058061656
158	0xbda7447b	-0.081673585
159	0xbcf06af7	-0.02934788
160	0xbb2961e8	-0.002584571
161	0x3cdf2028	0.027237013
162	0x3d39e24c	0.04538183
163	0x3d9336cf	0.07188188
164	0xbc4c0aaf	-0.012453719
165	0xbcbdfc70	-0.02319166
166	0xbd8e12cd	-0.0693718
167	0x3bff728f	0.007795639
168	0xbda42b50	-0.08016074
169	0x3c62d077	0.013843647
170	0x3e5f562b	0.21810214
171	0x3d31ce90	0.043409884
172	0xbd7e4de5	-0.062086005
173	0xbd3d9bc5	-0.04629113
174	0xbe3dd9cd	-0.18540116
175	0x3d627581	0.05528784
176	0x3da4b4e0	0.08042312
177	0x3d77d445	0.06050517
178	0x3e9d4372	0.3071552
179	0x3d7269c0	0.059182882
180	0xbda4ffcd	-0.080566026
181	0x3ce9ab77	0.028524144
182	0xbcacc5fa	-0.021090496
183	0x3d8ec1e2	0.06970574
184	0x3dca0eda	0.09866114
185	0x3d8f1e58	0.069882095
186	0xbd55aad7	-0.05216488
187	0x3c1d412b	0.009598057
188	0xbd8b8e67	-0.068142705
189	0x3d96cf8c	0.07363805
190	0xbd75ca6d	-0.0600075
191	0xbd9470ad	-0.07248054
192	0x3d1d90ce	0.038468175
193	0xbd4c2ead	-0.0498492
194	0x3d8e0f65	0.0693653
195	0xbcfc1bd2	-0.030774985
196	0xbbd25588	-0.0064188875
197	0x3da41d64	0.08013418
198	0x3de15604	0.11002734
199	0xbda49ac8	-0.08037335
200	0x3d8cf7bb	0.06883188
201	0x3e15e405	0.14637764
202	0xbcac6e23	-0.021048611
203	0x3bf2fca0	0.007415369
204	0xbd5e0b2b	-0.05420987
205	0xbbc3722b	-0.0059645376
206	0x3c24175b	0.010015334
207	0x3c6bb22c	0.014385741
208	0x3dd95070	0.10611045
209	0xbd20d87c	-0.039268956
210	0x3b9fd579	0.004877743
211	0x3caa42f8	0.020783886
212	0xbd6e9041	-0.05824304
213	0x3deb3922	0.114855066
214	0xbdb8b9ed	-0.090198375
215	0x3d28a3bd	0.041171778
216	0x3d8fde83	0.070248626
217	0x3e3f013a	0.18652812
218	0xbda3394d	-0.07969914
219	0xbd10764e	-0.035269074
220	0x3d0e6f68	0.034774214
221	0x3d3d6247	0.046236303
222	0x3d28c335	0.04120179
223	0x3d7512ca	0.05983237
224	0xbcffc3d5	-0.03122131
225	0xbca1a80b	-0.01973345
226	0xbc414e07	-0.011798388
227	0xbd823060	-0.06356883
228	0x3da0fda0	0.07860875
229	0x3ba9ffc3	0.00518796
230	0x3e6f3b66	0.23362502
231	0xbd685afc	-0.056727394
232	0x3d44ac4d	0.04801588
233	0xbd193ae6	-0.037409686
234	0xbd6de40e	-0.058078818
235	0x3da8fa08	0.08250815
236	0x3d8e9988	0.069628775
237	0x3df47723	0.11936786
238	0x3d93a6f9	0.07209582
239	0x3d00f52a	0.031483807
240	0xbd8e62d0	-0.06952441
241	0xbd3d801f	-0.046264764
242	0xbd827e1c	-0.0637171
243	0xbd117507	-0.035511997
244	0x3d5714bc	0.05251001
245	0xbd3047a2	-0.043037064
246	0x3d56bf33	0.052428436
247	0xbd99e266	-0.07513885
248	0xbda372f7	-0.07980912
249	0x3e5831ef	0.21112798
250	0x3d9b26ca	0.07575758
251	0xbd65b34a	-0.056079186
252	0xbc7afef5	-0.015319576
253	0xbd0104be	-0.031498663
254	0x3d80d60e	0.06290828
255	0xbc711bef	-0.014716133

fc2.bias f4 [10]
0	0x3cec3074	0.028831698
1	0x3cdfadbb	0.02730452
2	0x3a526ebc	0.0008027365
3	0xbd40068d	-0.046881247
4	0xbc66abb9	-0.014079028
5	0xbdb9fd78	-0.090815485
6	0xbd1810f2	-0.037125535
7	0xbd01cb16	-0.03168782
8	0x3b287cb1	0.0025709087
9	0xbe069883	-0.13144116
