CNN_RNNv2.pth (torch, 222874 bytes, 10 tensors)

conv1.weight f4 [32, 1, 3, 1]
-0.21355847 -0.4721861 -0.12016402 -0.26259336 0.44865033 -0.12507713 0.11553318 0.22185399
-0.47825465 -0.16691548 0.49103898 -0.3900227 0.45321274 -0.462278 -0.18289417 0.33196694
-0.36035913 -0.23085748 -0.28756157 0.12936792 -0.4706449 -0.5294987 0.22917159 0.6054442
-0.16798444 -0.08509654 -0.1017061 -0.34180912 -0.058814373 0.3907681 0.32088694 -0.2875252
0.20268281 0.44559845 0.44247538 0.19348368 -0.047292624 0.55380666 0.5929961 -0.054402053
0.41292226 -0.22086567 -0.21722107 0.5588611 -0.21625301 0.28364363 0.6957007 0.36913967
0.40687275 0.2443716 0.4242344 0.24941315 -0.19927564 -0.6882983 0.10168718 0.20405549
-0.50015503 -0.013260633 0.1700296 -0.4399588 0.030691838 0.35206416 -0.229328 -0.5018775
0.3584321 0.4093919 0.5494282 -0.45031595 0.6151461 -0.44020808 0.51443624 0.08311848
-0.002492394 -0.30415225 -0.14010541 0.27330503 -0.38261765 -0.32099947 -0.45678502 -0.49410626
-0.5684433 0.53883904 -0.21705207 0.33201933 -0.5921385 -0.47009668 0.4209236 0.38971713
0.11440532 -0.40586823 0.45299622 0.50531745 -0.54166806 0.5675747 0.39244047 -0.2736751
00000000: 12af 5abe 60c2 f1be 8e18 f6bd a372 86be
00000010: 7fb5 e53e 3814 00be a99c ec3d b12d 633e
00000020: cbdd f4be e4eb 2abe 7669 fb3e 0eb1 c7be
00000030: 800b e83e b4af ecbe 9c48 3bbe 92f7 a93e
00000040: fe80 b8be e765 6cbe 453b 93be 0679 043e
00000050: 5ef8 f0be 3a8d 07bf f5ab 6a3e 64fe 1a3f
00000060: 1d04 2cbe 1847 aebd 4a4b d0bd 9b01 afbe
00000070: 57e7 70bd c212 c83e 4b4b a43e 8136 93be
00000080: 158c 4f3e 7b25 e43e 228c e23e 9620 463e
00000090: e9b5 41bd 46c6 0d3f 98ce 173f b0d4 5ebd
000000a0: 8c6a d33e 9c2a 62be 336f 5ebe 8511 0f3f
000000b0: 6e71 5dbe bd39 913e 7119 323f e0ff bc3e
000000c0: a051 d03e 8c3c 7a3e 4035 d93e 2966 7f3e
000000d0: ea0e 4cbe 5134 30bf 5e41 d03d ecf3 503e
000000e0: 290a 00bf 2043 59bc 3d1c 2e3e 4842 e1be
000000f0: 736d fb3c c141 b43e f6d4 6abe 0b7b 00bf
00000100: 6a84 b73e d19b d13e 54a7 0c3f d08f e6be
00000110: 377a 1d3f f462 e1be 18b2 033f 063a aa3d
00000120: 6f57 23bb d8b9 9bbe cb77 0fbe a3ee 8b3e
00000130: 76e6 c3be 0b5a a4be badf e9be 7ffb fcbe
00000140: 8085 11bf 5bf1 093f e642 5ebe 70fe a93e
00000150: 6496 17bf 83b0 f0be 4c83 d73e 0189 c73e
00000160: 564d ea3d f6cd cfbe 1fef e73e 7c5c 013f
00000170: c2aa 0abf 934c 113f f5ed c83e 251f 8cbe

conv1.bias f4 [32]
-0.60151565 0.24667211 -0.036003616 0.3956478 0.23829949 0.17337371 -0.6383363 0.1392426
0.2848971 -0.05380065 0.52374804 -0.15024763 0.3945521 0.67997134 0.16683312 0.48831198
-0.036016304 0.18025899 0.34681547 0.5364789 0.5235192 0.51355237 0.6106087 0.06442222
0.43074173 -0.40465492 0.10073372 0.49371004 0.06565855 0.42146775 0.647054 0.38161284
00000000: eefc 19bf 9d97 7c3e 8778 13bd 5992 ca3e
00000010: c804 743e e188 313e 026a 23bf 9d95 0e3e
00000020: 08de 913e 125e 5cbd 5a14 063f 84da 19be
00000030: bc02 ca3e 9a12 2e3f 4dd6 2a3e 0704 fa3e
00000040: d585 13bd d095 383e cc91 b13e ae56 093f
00000050: 5b05 063f 2b78 033f da50 1c3f ccef 833d
00000060: 2e8a dc3e ee2e cfbe 7b4d ce3d 90c7 fc3e
00000070: fd77 863d 9fca d73e 55a5 253f c262 c33e

rnn.weight_ih_l0 f4 [64, 640]
-0.1216961 0.08898872 -0.022538066 -0.121398136 0.05632311 0.09942293 0.07685526 0.01825662
0.0058760643 -0.0065277666 -0.07559939 -0.05028361 -0.0065814853 0.037820086 0.10110398 0.03507127
0.108054906 -0.023129359 0.0358658 0.09071502 -0.076586336 -0.09224577 -0.095755756 0.08364089
0.07317357 -0.031180337 0.06583916 -0.08341856 -0.06482048 0.030137017 0.10179335 -0.0090480745
-0.012282297 -0.08491285 0.05876288 -0.07211141 -0.036621973 0.04419063 -0.0007314086 0.05203733
-0.06288706 -0.046320736 0.07345399 0.020088509 -0.09155756 0.09920438 0.04352224 -0.054881364
-0.031064793 0.1202292 -0.07302384 -0.06337698 -0.024385974 0.06213434 -0.105208084 -0.06681353
-0.1176714 -0.021053359 -0.03834386 0.057098046 0.08837582 0.094595194 -0.06768732 0.04152222
-0.08603783 -0.01939702 0.03671828 0.041552156 0.011215538 -0.024809793 0.054324493 -0.012327403
-0.0832853 -0.0620867 -0.10196331 -0.08353445 -0.047743797 0.03690633 -0.0971192 0.099964514
0.0033866763 0.0339728 0.02040276 0.06245038 0.058555365 -0.10701446 -0.10838196 0.10717602
-0.10524018 0.040429413 -0.121208996 -0.09346862 -0.031377047 0.016461357 0.011803776 0.100664645
-0.012203142 0.07294978 -0.008182675 0.035266936 -0.07763645 0.11135842 0.05563964 0.11022012
-0.07805981 0.06476073 -0.025017604 0.11992493 0.078494936 -0.013038188 -0.007044509 -0.059102505
0.07314785 0.008215904 -0.04341887 0.05572304 -0.047884032 0.071803555 0.07553382 0.057700247
-0.024609968 -0.044115856 0.040681288 -0.016219124 0.012712881 0.074682966 0.042714044 -0.076497644
0.07236059 0.0588513 -0.08049479 0.020274267 -0.05530815 -0.0049705803 0.11491735 -0.022481248
-0.044003844 0.12253919 0.090833634 -0.106430784 0.05938986 0.095279515 0.050316364 0.09745225
-0.020761132 -0.001116097 0.07775581 -0.06999883 -0.015441 -0.12119964 -0.028728455 0.019566849
0.117340505 -0.019766584 0.08703108 -0.017406419 -0.11369455 0.061185896 -0.039228424 0.0053560883
0.045529485 -0.0308958 0.12300454 -0.02552548 -0.030559584 -0.095184445 -0.011067063 -0.10724272
0.09399855 -0.03353086 -0.04697624 0.11887555 0.031102017 0.0798748 -0.11979996 0.005845949
-0.10302946 0.1212516 -0.00016318262 0.053427637 0.017286792 -0.06713346 0.049525574 0.08517063
0.061701015 0.004032865 -0.051375017 0.046049207 -0.0835187 -0.09585743 0.053483024 -0.027986407
-0.11547226 0.062837675 -0.006504476 -0.12183817 0.07458274 0.039954618 0.10600518 -0.10490453
-0.11055027 0.043359607 -0.0020181835 -9.7960234e-05 -0.1114634 0.11555886 -0.10719024 0.12115167
-0.08990955 0.046318322 -0.058824137 -0.09389219 -0.026687711 0.047417387 0.07715599 -0.040557623
-0.07725415 0.026128307 0.014001727 -0.05549334 0.052600324 0.11624956 -0.028568238 0.08189489
-0.0082421005 0.05016963 0.026950374 0.039849296 -0.04058686 -0.034268126 0.019009903 0.113356605
0.046879396 -0.06307012 -0.0057626963 0.039294496 -0.006628394 0.042512625 0.07218854 0.07213488
0.10901655 -0.06502493 -0.1015646 -0.08359569 0.07802999 0.03792405 -0.103914976 0.025986552
0.07790698 -0.036110207 0.006571755 0.046323925 0.09645936 0.08120008 0.080198035 0.10293357
00000000: ce3b f9bd b83f b63d c0a1 b8bc 969f f8bd
00000010: 10b3 663d 409e cb3d 4a66 9d3d e88e 953c
00000020: 008c c03b e0e6 d5bb dad3 9abd 30f6 4dbd
00000030: 80a9 d7bb 3ce9 1a3d 9a0f cf3d e4a6 0f3d
00000040: e44b dd3d c879 bdbc 04e8 123d ccc8 b93d
00000050: 4cd9 9cbd 5aeb bcbd 981b c4bd ea4b ab3d
00000060: 06dc 953d e86d ffbc aed6 863d 5ad7 aabd
00000070: 9ac0 84bd e8e1 f63c 0879 d03d 603e 14bc
00000080: b03b 49bc cae6 adbd 58b1 703d 26af 93bd
00000090: ec00 16bd 3c01 353d 00bc 3fba 1825 553d
000000a0: eeca 80bd d0ba 3dbd 0c6f 963d a890 a43c
000000b0: 8882 bbbd aa2b cb3d 6044 323d 48cb 60bd
000000c0: 987b febc ba3a f63d 868d 95bd cacb 81bd
000000d0: 18c5 c7bc 9480 7e3d 5677 d7bd 88d5 88bd
000000e0: b4fd f0bd 1878 acbc 740e 1dbd a4df 693d
000000f0: 62fe b43d 20bb c13d a69f 8abd 3413 2a3d
00000100: 9a34 b0bd 80e6 9ebc e865 163d 9832 2a3d
00000110: 60c1 373c e83d cbbc 5c83 5e3d e0f8 49bc
00000120: 7c91 aabd a04e 7ebd 24d2 d0bd 1c14 abbd
00000130: 008f 43bd 182b 173d 6ee6 c6bd 32ba cc3d
00000140: 00f3 5d3b 1027 0b3d b023 a73c f8cb 7f3d
00000150: c0d7 6f3d 662a dbbd 5cf7 ddbd 1a7f db3d
00000160: 2a88 d7bd 5099 253d 6c3c f8bd 7a6c bfbd
00000170: 3885 00bd f8d9 863c a064 413c 4429 ce3d
00000180: b0ef 47bc b266 953d a010 06bc 1074 103d
00000190: dcff 9ebd e20f e43d 64e6 633d 16bb e13d
000001a0: d2dd 9fbd 46a1 843d b8f1 ccbc 349b f53d
000001b0: f4c1 a03d 209e 55bc a0d5 e6bb 7815 72bd
000001c0: 8ace 953d 009c 063c fcd7 31bd d83d 643d
000001d0: 0c22 44bd be0d 933d 7ab1 9a3d 1857 6c3d
000001e0: d89a c9bc d4b2 34bd 6ca1 263d f8dd 84bc
000001f0: b049 503c 62f3 983d ecf4 2e3d ccaa 9cbd
00000200: ca31 943d 100e 713d 74da a4bd 3816 a63c
00000210: cc8a 62bd 40e0 a2bb ca59 eb3d 982a b8bc
00000220: 603d 34bd d4f5 fa3d fc06 ba3d 62f8 d9bd
00000230: c842 733d e821 c33d 8818 4e3d 0c95 c73d
00000240: 4013 aabc 004a 92ba 703e 9f3d 8c5b 8fbd
00000250: 40fc 7cbc 8437 f8bd f057 ebbc a84a a03c
00000260: 3850 f03d 88ed a1bc 5a3d b23d e897 8ebc
00000270: b0d8 e8bd 109e 7a3d fcad 20bd 2082 af3b
00000280: 207d 3a3d 3019 fdbc cee9 fb3d d01a d1bc
00000290: 1858 fabc 10f0 c2bd a052 35bc 12a2 dbbd
000002a0: 5082 c03d a857 09bd 286a 40bd 0675 f33d
000002b0: a8c9 fe3c 6695 a33d ae59 f5bd 608f bf3b
000002c0: 1c01 d3bd c252 f83d 001c 2bb9 f0d6 5a3d
000002d0: 089d 8d3c 447d 89bd 54db 4a3d f06d ae3d
000002e0: 34ba 7c3d 2026 843b 9c6e 52bd 189e 3c3d
000002f0: da0b abbd e650 c4bd 0411 5b3d c043 e5bc
00000300: b87c ecbd 0ab1 803d 8023 d5bb 4a86 f9bd
00000310: d6be 983d 74a7 233d 3e19 d93d 30d8 d6bd
00000320: 2e68 e2bd d899 313d 8043 04bb 0070 cdb8
00000330: ec46 e4bd 20aa ec3d 8e86 dbbd 5e1e f83d
00000340: 8022 b8bd 48b8 3d3d 94f1 70bd 8c4a c0bd
00000350: 30a0 dabc bc38 423d f603 9e3d c01f 26bd
00000360: 6c37 9ebd 080b d63c 8067 653c fc4c 63bd
00000370: 7073 573d 4014 ee3d f007 eabc 82b8 a73d
00000380: e009 07bc ac7e 4d3d 08c7 dc3c 0439 233d
00000390: 683e 26bd bc5c 0cbd a8ba 9b3c 8227 e83d
000003a0: 9c04 403d e82a 81bd 00d5 bcbb 44f3 203d
000003b0: 0033 d9bb b821 2e3d 96d7 933d 74bb 933d
000003c0: 1244 df3d ca2b 85bd 1a01 d0bd 3834 abbd
000003d0: 30ce 9f3d 4056 1b3d 60d1 d4bd c0e1 d43c
000003e0: b28d 9f3d 4ce8 13bd e057 d73b 28be 3d3d
000003f0: 7c8c c53d 3a4c a63d de3e a43d d6ce d23d

rnn.weight_hh_l0 f4 [64, 64]
-0.024087325 0.0024127811 0.04957281 0.04102628 0.10072546 -0.07223995 -0.03574848 -0.07853283
0.12468657 -0.12295775 0.021873146 -0.050722748 0.027258933 -0.10872592 0.09909581 0.06267688
0.060393855 -0.11688192 -0.007826671 -0.028023064 -0.005713433 0.115613595 0.1213198 0.06988557
0.05176513 -0.01614742 0.029753923 -0.070970714 -0.055827975 0.043900713 0.074450135 0.04997745
0.00608927 -0.0679179 -0.092601284 0.099965796 -0.052613556 0.066914365 0.100910515 0.080715925
0.1123988 0.0686243 -0.014643818 -0.109452516 -0.022653729 0.11837436 -0.06577529 -0.036975414
-0.05936016 -0.05541168 0.0695637 0.043656617 0.06913045 0.056173235 0.09413837 0.052908853
-0.0300875 0.07056257 -0.07386923 -0.009347767 -0.08615239 0.032820612 0.057557642 0.03513442
-0.11545965 -0.06730713 0.08888717 0.091382265 0.023920551 0.0994408 0.08670528 -0.12206434
-0.057647437 -0.008121088 -0.022945598 0.10531324 -0.03869523 -0.065704286 0.03344135 0.10122967
-0.0707466 -0.06675182 0.010861009 0.0989223 0.021297112 0.06276262 -0.04237309 -0.11577551
0.05663979 -0.11691305 -0.0837969 -0.044809848 -0.06991124 -0.018874794 -0.06115888 -0.04146774
0.0808211 -0.004263237 0.10248943 0.08952269 -0.05255741 0.083340555 0.010018498 -0.1130932
0.11367689 -0.036346793 0.057461396 0.054854825 -0.065734714 0.015633747 0.019954726 0.03569247
-0.106345415 0.049664482 -0.06560865 0.08465783 -0.03154798 -0.0185989 -0.08156875 0.10884991
0.005397424 -0.029486716 0.0501799 0.029325873 -0.004515335 -0.08417447 0.075862005 0.010319293
-0.018258065 0.08600935 -0.012437016 -0.07165837 0.05275847 -0.11692722 0.08601138 0.113125876
0.11566365 -0.007878616 -0.10931757 -0.029935613 -0.01832445 0.065811485 0.11802602 0.10752645
0.091122344 0.107604906 -0.08816004 -0.09550743 -0.02523768 0.076048315 0.04294914 -0.100628644
0.07334854 0.03691508 0.034592032 0.11491273 -0.04920277 -0.0039765984 0.08173281 0.0014983267
0.08819443 -0.050336927 0.07797648 0.015900508 0.048147902 -0.073631406 0.07224499 0.06045474
0.11017349 0.008011788 -0.0042027533 -0.113101855 0.043994337 -0.10324836 0.1174037 0.024681792
-0.04670182 -0.07273802 -0.11832778 -0.09137739 0.10115723 -0.122397244 -0.028267577 -0.050991327
-0.12326445 0.116285354 0.074132174 0.06727263 0.10618836 0.0649205 0.0693011 0.08569673
-0.05317551 0.01059252 -0.033507794 -0.11973427 0.063101694 -0.054275468 -0.032793045 -0.0065369755
-0.0758231 0.02260986 -0.030014187 0.021979436 -0.002922535 -0.110067725 -0.1034248 -0.10001002
-0.0070918947 -0.04138057 0.065516606 -0.07337178 0.021004513 0.063039795 -0.10077426 0.065217435
0.09111877 0.09420018 0.10921255 0.031893447 -0.032306477 -0.08186087 -0.00426057 0.052240536
0.07043928 -0.03912103 0.12123264 -0.01231353 -0.11003679 -0.05301094 -0.020414084 0.02036868
0.05722812 -0.033985034 -0.04847105 0.0031846613 -0.09997143 -0.11427353 0.0019792616 -0.044264674
-0.040476575 -0.01791671 -0.036043838 0.028196305 -0.027227953 -0.10792868 0.028329 -0.124958485
0.010218695 0.046345875 -0.091444895 -0.098250076 0.039730012 -0.012440667 -0.06884687 -0.12437835
00000000: c852 c5bc c01f 1e3b dc0c 4b3d 2c0b 283d
00000010: 2649 ce3d 8af2 93bd 006d 12bd d2d5 a0bd
00000020: ac5b ff3d 46d1 fbbd 502f b33c a8c2 4fbd
00000030: 204e df3c b2ab debd bef2 ca3d bc5c 803d
00000040: 8c5f 773d ca5f efbd 703b 00bc a090 e5bc
00000050: c037 bbbb d2c6 ec3d 8476 f83d 2a20 8f3d
00000060: ac07 543d 9847 84bc 80be f33c 1859 91bd
00000070: e0ab 64bd 3cd1 333d 5079 983d 28b5 4c3d
00000080: 8088 c73b 8a18 8bbd bea5 bdbd deba cc3d
00000090: 5081 57bd 660a 893d 2caa ce3d 644e a53d
000000a0: 5831 e63d e68a 8c3d a0ec 6fbc a428 e0bd
000000b0: 5094 b9bc 426e f23d 32b5 86bd 8873 17bd
000000c0: a423 73bd 5cf7 62bd 6a77 8e3d 48d1 323d
000000d0: 4494 8d3d e815 663d 9ecb c03d f4b6 583d
000000e0: 107a f6bc 1c83 903d c048 97bd 6027 19bc
000000f0: aa70 b0bd e86e 063d 90c1 6b3d 1ce9 0f3d
00000100: 1c76 ecbd 52d8 89bd 7a0a b63d a026 bb3d
00000110: 08f5 c33c 9ea7 cb3d 8a92 b13d defc f9bd
00000120: b81f 6cbd 500e 05bc 68f8 bbbc 78ae d73d
00000130: e47e 1ebd f88f 86bd ccf9 083d 8051 cf3d
00000140: 98e3 90bd 2eb5 88bd 60f2 313c c697 ca3d
00000150: 4877 ae3c b089 803d 688f 2dbd b61b edbd
00000160: 20ff 673d 1c70 efbd b69d abbd 888a 37bd
00000170: a02d 8fbd 509f 9abc bc81 7abd 14da 29bd
00000180: 8885 a53d a0b2 8bbb fae5 d13d ac57 b73d
00000190: 7046 57bd 74ae aa3d a024 243c 689d e7bd
000001a0: 6ecf e83d 60e0 14bd a45c 6b3d 74af 603d
000001b0: ec9f 86bd 5812 803c 1878 a33c 4432 123d
000001c0: a0cb d9bd fc6c 4b3d d45d 86bd 1661 ad3d
000001d0: 7438 01bd b85c 98bc 840d a7bd b4ec de3d
000001e0: e0dc b03b 208e f1bc 7089 4d3d d03c f03c
000001f0: 60f5 93bb aa63 acbd 8a5d 9b3d 4012 293c
00000200: f091 95bc ac25 b03d a0c4 4bbc a0c1 92bd
00000210: 4419 583d 8a77 efbd bc26 b03d 8aae e73d
00000220: 10e1 ec3d 5015 01bc e4e1 dfbd 883b f5bc
00000230: 281d 96bc 2cc8 863d a0b7 f13d d436 dc3d
00000240: 5a9e ba3d f65f dc3d 408d b4bd 6699 c3bd
00000250: 40bf cebc 38bf 9b3d 70eb 2f3d 6416 cebd
00000260: c237 963d 4434 173d 60b0 0d3d 5e57 eb3d
00000270: d888 49bd 204e 82bb 8863 a73d 8063 c43a
00000280: 489f b43d 182e 4ebd 22b2 9f3d c841 823c
00000290: bc36 453d 10cc 96bd 2ef5 933d 649f 773d
000002a0: a4a2 e13d e043 033c 40b7 89bb f2a1 e7bd
000002b0: 6833 343d e073 d3bd 5a71 f03d 7831 ca3c
000002c0: 684a 3fbd acf7 94bd d655 f2bd 1224 bbbd
000002d0: 862b cf3d 68ab fabd 6891 e7bc 48dc 50bd
000002e0: 1272 fcbd 0427 ee3d 9cd2 973d 3cc6 893d
000002f0: 4879 d93d 0af5 843d bced 8d3d c481 af3d
00000300: 90ce 59bd 408c 2d3c 783f 09bd 3e37 f5bd
00000310: 763b 813d f44f 5ebd 0052 06bd 2034 d6bb
00000320: 2449 9bbd 5038 b93c 50e0 f5bc 380e b43c
00000330: 0088 3fbb 306b e1bd 62d0 d3bd 0ed2 ccbd
00000340: 2063 e8bb ac7e 29bd 922d 863d f243 96bd
00000350: a811 ac3c 021b 813d bc62 cebd b890 853d
00000360: 7a9c ba3d 06ec c03d d4aa df3d b4a2 023d
00000370: cc53 04bd aca6 a7bd 409c 8bbb 2cfa 553d
00000380: 7842 903d 603d 20bd d248 f83d b0be 49bc
00000390: f85a e1bd 0022 59bd 703b a7bc 38dc a63c
000003a0: 0868 6a3d e433 0bbd 9489 46bd c0b5 503b
000003b0: d2bd ccbd 3e08 eabd 80b6 013b e04e 35bd
000003c0: c4ca 25bd 10c6 92bc b4a2 13bd f0fb e63c
000003d0: 280d dfbc b609 ddbd 3812 e83c 3cea ffbd
000003e0: 506c 273c 2cd5 3d3d 7647 bbbd 5637 c9bd
000003f0: f0bb 223d f0d3 4bbc 96ff 8cbd 14ba febd

rnn.bias_ih_l0 f4 [64]
0.0022541583 -0.025476635 0.07071721 -0.06112273 0.11997555 -0.021183828 0.12457603 0.03606586
0.078905895 0.017652847 -0.102138355 0.029517509 0.025965586 -0.050291255 0.061988547 -0.08229309
-0.049549326 -0.005031807 -0.1369281 -0.0023990031 0.09792221 0.11321361 0.11697092 -0.055349
0.110504925 0.007967825 -0.06609575 -0.122928604 0.11099181 -0.0608733 0.04577726 -0.008117199
-0.06911135 -0.0795936 -0.12475395 0.07372241 -0.05057282 0.027899519 0.10674699 -0.0749367
0.043417662 0.0048369765 0.032475747 0.12113723 -0.042612165 0.03544205 -0.04414446 -0.036157623
0.04660231 -0.017070701 -0.04138795 -0.061289936 0.012006956 0.12246174 0.08072196 0.026752219
-0.065400645 0.042133212 -0.043152697 -0.024541521 -0.096120134 -0.015066285 0.06019756 0.043837003
00000000: 80ba 133b 60b4 d0bc 2fd4 903d d45b 7abd
00000010: beb5 f53d b589 adbc b821 ff3d ccb9 133d
00000020: 6a99 a13d b49c 903c ea2d d1bd b4ce f13c
00000030: c8b5 d43c 34fe 4dbd b4e7 7d3d 4889 a8bd
00000040: 3cf4 4abd dbe1 a4bb e136 0cbe 9838 1dbb
00000050: 718b c83d 8adc e73d 738e ef3d a2b5 62bd
00000060: 6850 e23d 7b8b 023c 355d 87bd fec1 fbbd
00000070: ad4f e33d 4856 79bd f080 3b3d 00fe 04bc
00000080: 408a 8dbd f801 a3bd 007f ffbd c6fb 963d
00000090: 7225 4fbd 888d e43c 2a9e da3d 6a78 99bd
000000a0: b8d6 313d 807f 9e3b 4a05 053d cc16 f83d
000000b0: 188a 2ebd af2b 113d d2d0 34bd 041a 14bd
000000c0: 10e2 3e3d dbd7 8bbc 6986 29bd 280b 7bbd
000000d0: d3b8 443c 39cd fa3d 8e51 a53d 7827 db3c
000000e0: c6f0 85bd e093 2c3d e2c0 30bd 4d0b c9bc
000000f0: a2da c4bd 94d8 76bc b791 763d 6e8e 333d

rnn.bias_hh_l0 f4 [64]
-0.0940658 -0.0983063 -0.015499351 -0.011801957 0.0003646165 -0.07430681 0.10596509 -0.10248989
-0.083130285 -0.029055856 -0.09341468 0.02097772 0.07593356 0.11603141 -0.10440895 -0.027338982
0.0129180895 0.113365784 -0.00050338294 -0.11365103 0.056600153 -0.0049527287 0.11495132 0.071281835
0.04088117 0.08392982 -0.08564047 0.11578542 0.070219286 0.04050438 -0.03363888 0.07333796
-0.043479208 -0.023398846 0.06812227 -0.028805554 0.02067098 -0.055556655 -0.049007893 -0.08315036
-0.12335293 0.054689035 0.097013414 -0.047170877 -0.09219086 0.016074086 -0.04100638 0.072904736
0.10110961 0.038866185 0.043532904 0.12465285 0.078084506 0.05796883 -0.078852996 0.004250765
0.057474308 0.070737556 -0.01838021 -0.054088347 0.056007326 -0.04053792 0.10367845 -0.08454669
00000000: 92a5 c0bd d054 c9bd fdf0 7dbc ff5c 41bc
00000010: 002a bf39 2b2e 98bd 3a04 d93d 38e6 d1bd
00000020: 3640 aabd 8c06 eebc 3250 bfbd 78d9 ab3c
00000030: 0e83 9b3d e0a1 ed3d 5cd4 d5bd 00f6 dfbc
00000040: 65a6 533c 522c e83d 75f5 03ba dfc1 e8bd
00000050: 90d5 673d 804a a2bb 996b eb3d 36fc 913d
00000060: 0473 273d 66e3 ab3d 4564 afbd e820 ed3d
00000070: 21cf 8f3d ece7 253d ecc8 09bd 3632 963d
00000080: 4117 32bd f0ae bfbc b083 8b3d a0f9 ebbc
00000090: 3056 a93c 608f 63bd 80bc 48bd bc4a aabd
000000a0: 76a0 fcbd 9c01 603d f8ae c63d 4036 41bd
000000b0: 90ce bcbd cdad 833c 4ef6 27bd 144f 953d
000000c0: 8e12 cf3d 2632 1f3d 8f4f 323d fe49 ff3d
000000d0: c5ea 9f3d b970 6d3d ae7d a1bd 004a 8b3b
000000e0: 2e6a 6b3d dade 903d 1892 96bc be8b 5dbd
000000f0: f067 653d 170b 26bd 5e55 d43d d126 adbd

fc1.weight f4 [128, 64]
0.037398495 0.09980696 -0.07316961 0.0077913413 0.06474038 -0.10612905 0.058355868 0.0647605
0.062279925 -0.07657239 0.029596705 -0.113252096 0.10007935 -0.09429373 0.06866982 -0.09535624
0.089112744 0.09667092 0.08455828 -0.10119617 0.08227373 -0.03431124 -0.009646374 -0.08478872
0.07415288 0.06971768 0.08936811 0.04221112 0.008014852 -0.0019939088 0.04221994 -0.10367528
-0.037173036 -0.08157038 -0.016182898 -0.11763165 -0.09013398 -0.045590453 0.08327493 0.09700181
0.09574167 0.09135899 -0.0004083864 -0.034628473 0.0035267544 -0.09870393 0.09237423 -0.0584615
0.08601535 -0.07208168 0.03830653 0.0252327 -0.068750426 0.014001095 -0.029383076 0.023799663
0.07573236 -0.078213386 -0.021661468 0.017012725 0.011148629 -0.10661382 0.044106074 -0.05127058
-0.11917073 -0.027428115 0.119105555 -0.1135236 0.056910727 0.05201815 0.017173741 -0.054483045
0.11749958 -0.097721525 0.0135061145 -0.06058017 -0.06913469 0.006904688 -0.10875917 0.033656985
0.1090918 -0.104835786 -0.047314133 0.09050072 -0.096007325 0.04449297 0.07267017 -0.11233715
0.025896925 0.040847447 -0.10649638 -0.09556002 -0.07131938 0.017998133 0.029946348 -0.10391425
0.06388853 0.032360464 -0.05549943 0.00034475746 -0.01886314 0.01713631 -0.020351354 0.044500086
-0.042179186 -0.030090299 0.04277784 0.06535936 0.116446696 0.009389445 -0.03551218 0.11695247
0.10656772 0.066586964 0.07299211 0.10620151 0.11031966 -0.07950467 -0.014211327 -0.0015623535
0.01588775 0.048094224 0.009618329 -0.07857797 0.10431122 0.04370686 -0.053008523 0.03128213
-0.05968835 -0.114914864 -0.08375064 0.08316942 0.08042093 -0.104172334 -0.06972553 0.06377872
0.010956071 -0.004478006 -0.03153432 0.09636996 -0.0029489733 -0.09740306 0.055036493 0.09105375
-0.011381753 0.063170664 -0.23237228 0.04951662 -0.0072022453 -0.030472916 0.0057197344 -0.012287217
-0.0056100003 -0.068357326 0.05314797 0.012465717 0.1770198 -0.05676378 0.04063859 0.13229738
-0.08483682 0.08194352 -0.020479467 0.13239266 0.07615266 0.08798612 -0.12851466 0.060323644
0.07309779 -0.088959865 0.07981608 -0.07868985 0.05846281 -0.025548385 0.022386966 0.021035308
-0.10175175 -0.061236933 -0.047610473 -0.0895339 -0.07624486 0.019696021 -0.017362079 -0.031072715
-0.0667884 -0.116183564 0.35975128 -0.12177253 -0.027323013 -0.0970405 0.016791472 0.08692104
0.04054569 0.09362645 -0.092643 0.034996174 0.10609447 -0.01883189 0.009748923 -0.12003625
0.07207107 -0.08889538 -0.10227773 0.04950266 0.054428466 -0.026448632 0.12884253 -0.07305581
-0.13996199 0.058299426 -0.40849072 -0.13030364 -0.06442796 -0.024771223 -0.030516066 -0.079532795
0.0039433017 -0.05063832 -0.04560458 0.032450024 0.18134966 -0.07777468 0.046760395 -0.050944723
0.10301114 0.015996156 0.05367928 0.10596832 -0.11326555 -0.07836098 0.04824507 -0.019580986
-0.097291656 -0.09172837 -0.009574304 0.027014676 -0.044936974 -0.101541035 0.0702491 0.09793959
-0.11750986 -0.04118249 0.023822287 0.07576512 -0.07073942 0.03809363 -0.12127339 -0.03341504
-0.0674391 -0.049895417 0.55604446 -0.11987599 -0.07484276 0.07598153 0.1079979 0.07891007
00000000: 2a2f 193d 9767 cc3d f3d9 95bd 824e ff3b
00000010: 9b96 843d 305a d9bd 9006 6f3d 27a1 843d
00000020: 3c19 7f3d fcd1 9cbd ca74 f23c b7f0 e7bd
00000030: 67f6 cc3d 121d c1bd c3a2 8c3d 224a c3bd
00000040: be80 b63d 67fb c53d e42c ad3d f03f cfbd
00000050: 217f a83d f189 0cbd d30b 1ebc b5a5 adbd
00000060: 77dd 973d 25c8 8e3d a106 b73d 91e5 2c3d
00000070: ba50 033c 3dac 02bb d1ee 2c3d b553 d4bd
00000080: c142 18bd 5f0e a7bd ff91 84bc dde8 f0bd
00000090: 2a98 b8bd 0ebd 3abd 0c8c aa3d e3a8 c63d
000000a0: 3514 c43d 6c1a bb3d b21c d6b9 96d6 0dbd
000000b0: 1f21 673b 4925 cabd b32e bd3d 5375 6fbd
000000c0: d128 b03d 8f9f 93bd 4fe7 1c3d cfb4 ce3c
000000d0: 06cd 8cbd d964 653c c7b4 f0bc 83f7 c23c
000000e0: 9119 9b3d 572e a0bd 6473 b1bc 455e 8b3c
000000f0: bda8 363c 5958 dabd 92a8 343d 1a01 52bd
00000100: c90f f4bd edb0 e0bc 9ded f33d 107f e8bd
00000110: 391b 693d fc10 553d f2af 8c3c 9d29 5fbd
00000120: 9fa3 f03d 3922 c8bd c048 5d3c ea22 78bd
00000130: 7d96 8dbd b940 e23b 21bd debd e8db 093d
00000140: 866b df3d 25b4 d6bd 77cc 41bd 7158 b93d
00000150: 7d9f c4bd 433e 363d 19d4 943d 0511 e6bd
00000160: ca25 d43c a74f 273d c61a dabd f9b4 c3bd
00000170: e50f 92bd d270 933c 0b52 f53c ffd0 d4bd
00000180: fdd7 823d 688c 043d 5f53 63bd 90c0 b439
00000190: df86 9abc 7261 8c3c e2b7 a6bc b945 363d
000001a0: 15c4 2cbd ee7f f6bc d137 2f3d 21db 853d
000001b0: 9b7b ee3d 30d6 193c 3875 11bd c784 ef3d
000001c0: 2d40 da3d bf5e 883d e37c 953d 2d80 d93d
000001d0: 46ef e13d 58d3 a2bd a0d6 68bc e2c7 ccba
000001e0: 0727 823c 73fe 443d 3296 1d3c 7ded a0bd
000001f0: 1fa1 d53d f705 333d 771f 59bd b121 003d
00000200: c57b 74bd 7c58 ebbd 7585 abbd bb54 aa3d
00000210: bbb3 a43d 4e58 d5bd 42cc 8ebd 6b9e 823d
00000220: 1881 333c 3dbc 92bb 222a 01bd 9d5d c53d
00000230: 9043 41bb 417b c7bd f26d 613d 637a ba3d
00000240: 887a 3abc 9f5f 813d 00f3 6dbe f0d1 4a3d
00000250: d000 ecbb 56a2 f9bc 9c6c bb3b 5350 49bc
00000260: 18d4 b7bb edfe 8bbd b0b1 593d 023d 4c3c
00000270: ae44 353e 2381 68bd a674 263d f778 073e
00000280: edbe adbd 01d2 a73d 8ec4 a7bc f191 073e
00000290: edf5 9b3d 1132 b43d 5999 03be ed15 773d
000002a0: 4bb4 953d 9730 b6bd 9d76 a33d 2528 a1bd
000002b0: b376 6f3d d94a d1bc df64 b73c 3d52 ac3c
000002c0: 3963 d0bd 94d3 7abd 3303 43bd 8d5d b7bd
000002d0: 4426 9cbd 8d59 a13c eb3a 8ebc 358c febc
000002e0: 5bc8 88bd a6f1 edbd 5231 b83e e063 f9bd
000002f0: 83d4 dfbc 2bbd c6bd 458e 893c a903 b23d
00000300: 3d13 263d 39bf bf3d 9dbb bdbd 2658 0f3d
00000310: 0f48 d93d 5645 9abc f2b9 1f3c 91d5 f5bd
00000320: ff99 933d c80e b6bd fd76 d1bd 4dc3 4a3d
00000330: 62f0 5e3d cdaa d8bc 4cef 033e 499e 95bd
00000340: 3252 0fbe 61cb 6e3d b225 d1be 516e 05be
00000350: cef2 83bd 05ed cabc d4fc f9bc 17e2 a2bd
00000360: d036 813b 216a 4fbd decb 3abd 51ea 043d
00000370: bab3 393e 5548 9fbd d487 3f3d 6aab 50bd
00000380: 81f7 d23d 5f0a 833c cede 5b3d eb05 d93d
00000390: c5f7 e7bd b97b a0bd 9f9c 453d 4e68 a0bc
000003a0: d940 c7bd 15dc bbbd 8bdd 1cbc e24d dd3c
000003b0: d50f 38bd bff4 cfbd c3de 8f3d 8d94 c83d
000003c0: 02a9 f0bd f8ae 28bd f526 c33c be2a 9b3d
000003d0: d4df 90bd 1108 1c3d 2f5e f8bd 35de 08bd
000003e0: 831d 8abd 235f 4cbd ee58 0e3f 8b81 f5bd
000003f0: 2947 99bd 349c 9b3d 012e dd3d 9a9b a13d

fc1.bias f4 [128]
-0.12100988 0.01725005 -0.08297353 -0.080343924 0.08139572 0.10563167 0.07859025 0.049842626
-0.011898539 -0.09719743 0.06730127 0.013595953 0.09069651 -0.056156717 -0.11454138 0.11374985
0.14421247 -0.07659757 0.058835294 -0.05664779 -0.0689719 -0.029507587 -0.07068307 0.11416992
-0.06449994 0.045384984 0.09735127 -0.05275317 0.028053194 0.003898639 0.0021658724 0.09686726
0.057307146 -0.09893568 0.058654267 -0.027814075 -0.08092131 -0.07809221 -0.022773668 0.13058884
0.014673673 0.0065135956 -0.07176032 -0.07815445 0.034477867 0.056433592 0.0392316 -0.060051873
-0.069947 0.061026856 -0.044064015 -0.010030248 0.03483662 -0.00087161385 -0.12096728 0.1155151
0.017529892 0.09162828 0.05579558 0.064778425 -0.014208257 -0.03556654 -0.06977841 0.10415848
-0.10234586 -0.104335934 -0.13194299 -0.030281065 -0.11538923 -0.063871145 0.14178936 0.033968646
-0.029007465 -0.08896756 0.09717558 -0.04069817 0.05337736 -0.02557464 0.012580826 -0.119881205
-0.030569378 0.0016318262 -0.09834236 -0.06497703 -0.06776417 0.026996126 -0.093743995 -0.0850098
-0.027010625 0.07331722 0.10109005 0.088905364 -0.07343135 0.05032319 0.06874154 -0.085745744
-0.09048681 -0.056387767 -0.04935499 -0.041510582 -0.01731687 0.07744199 -0.11072026 -0.041962575
-0.091301255 -0.0450684 -0.044313464 -0.0052129757 0.022457883 -0.06754472 0.12507713 -0.051530328
0.0319995 -0.038911387 -0.010053573 -0.02833888 -0.010920563 -0.042487122 0.06573464 0.05200441
0.09584731 0.0734021 0.08236946 -0.018454783 -0.06395611 -0.10071618 0.00916174 -0.10020291
00000000: 07d4 f7bd fa4f 8d3c 07ee a9bd 5b8b a4bd
00000010: cdb2 a63d 6b55 d83d edf3 a03d c827 4c3d
00000020: 17f2 42bc 720f c7bd 40d5 893d 8fc1 5e3c
00000030: 18bf b93d 9604 66bd ac94 eabd aef5 e83d
00000040: 6fac 133e 30df 9cbd 47fd 703d 8307 68bd
00000050: 2441 8dbd e5b9 f1bc 49c2 90bd ebd1 e93d
00000060: 8b18 84bd 9be5 393d 1a60 c73d b513 58bd
00000070: d0cf e53c 4f80 7f3b 4ff1 0d3b 5862 c63d
00000080: e6ba 6a3d ca9e cabd 753f 703d 58da e3bc
00000090: 12ba a5bd cfee 9fbd d88f babc 15b9 053e
000000a0: d869 703c 0070 d53b 13f7 92bd 710f a0bd
000000b0: aa38 0d3d e926 673d 50b1 203d f4f8 75bd
000000c0: 5f40 8fbd 4cf7 793d 787c 34bd e955 24bc
000000d0: d8b0 0e3d 047d 64ba b1bd f7bd 2e93 ec3d
000000e0: d99a 8f3c 9ca7 bb3d e889 643d 8daa 843d
000000f0: c0c9 68bc 38ae 11bd fce7 8ebd 0b51 d53d
00000100: b59a d1bd 14ae d5bd 101c 07be ff0f f8bc
00000110: 3051 ecbd e0ce 82bd 3b31 113e b522 0b3d
00000120: 10a1 edbc a034 b6bd fe03 c73d 20b3 26bd
00000130: 38a2 5a3d e881 d1bc cf1f 4e3c 4784 f5bd
00000140: a26c fabc 00e3 d53a b867 c9bd ad12 85bd
00000150: f1c7 8abd fb26 dd3c dafc bfbd 9e19 aebd
00000160: 6345 ddbc 5727 963d 4d08 cf3d 0414 b63d
00000170: 2d63 96bd b01f 4e3d 5dc8 8c3d 779b afbd
00000180: 2651 b9bd dcf6 66bd 7528 4abd 0007 2abd
00000190: 1cdc 8dbc e899 9e3d 4ec1 e2bd f3e0 2bbd
000001a0: 27fc babd a599 38bd 0982 35bd 9cd1 aabb
000001b0: 98f9 b73c e354 8abd 3814 003e 7711 53bd
000001c0: e811 033d 8c61 1fbd beb7 24bc f026 e8bc
000001d0: 29ec 32bc fa06 2ebd e29f 863d 9402 553d
000001e0: 984b c43d d753 963d 52b1 a83d 7c2e 97bc
000001f0: 6cfb 82bd 4944 cebd 1f1b 163c 2f37 cdbd

fc2.weight f4 [10, 128]
0.07040792 -0.07326866 0.065698706 0.027708312 -0.0922986 -0.07891346 -0.110101245 0.09413958
0.009540161 0.0611311 0.061391182 0.11714718 0.0037046853 0.20031118 -0.051201478 -0.030587716
-0.35760787 -0.06652365 -0.0035383787 0.003614127 0.06500961 -0.12082151 0.013828463 -0.011683799
0.047264513 0.0050265617 -0.029227616 -0.0654845 -0.04995648 0.029653605 0.071630076 -0.1534223
0.101159886 -0.07121571 0.13419083 0.06447624 -0.016177133 0.049452975 0.050413415 -0.057279255
-0.0024318406 0.022649063 0.08755877 0.17068292 -0.008132856 -0.010654254 0.097367965 -0.055250924
0.33207008 -0.048118196 0.006187747 0.023169944 0.08700307 0.10890572 0.017407365 -0.017651755
0.12822181 0.00862116 0.0037565294 0.009963655 0.030561185 -0.0050718356 -0.05369691 0.07937733
-0.034004267 -0.01599672 -0.02387801 0.10745841 0.04085917 0.11055923 -0.014680064 0.01358078
0.0071045044 -0.03797154 0.17194557 0.12635578 0.11718618 0.020263951 -0.02246514 0.15705232
-0.036131952 0.025842845 -0.06940116 -0.3032634 0.033201218 -0.11621509 0.11284086 0.0355623
-0.036036912 -0.040875264 -0.013244686 -0.056762375 -0.0040056193 0.029916277 0.050845053 0.002108152
0.016806288 0.062382948 0.06500151 0.10324796 -0.07684859 0.053203452 0.14203002 -0.046233013
0.24381262 0.042213187 0.04190629 0.078539364 -0.008580793 0.111851454 -0.297477 0.07172059
0.009375926 -0.07606087 -0.09490797 0.059491713 -0.0046446137 0.20412743 0.21722098 -0.13131534
0.11619045 -0.22654663 0.04557801 0.0019580128 0.102076486 -0.04604472 -0.0073819663 -0.02229391
0.06670035 0.04164884 0.10497432 0.14767545 0.13433194 -0.0602827 0.16963837 -0.04573796
0.05485555 -0.06701405 0.11575828 0.04242298 0.06801418 -0.12944013 -0.030160462 0.07166787
0.34222358 0.021782514 -0.012539197 0.028813118 -0.007969368 0.0920009 -0.05910596 0.10899311
0.096994966 -0.069884345 0.03363585 -0.050684795 0.04311945 0.09677226 -0.075920604 0.062789895
0.1063137 -0.07232264 0.010554799 0.041013233 0.053929687 -0.017565642 -0.019922994 0.09448806
0.032938287 -0.0132243745 0.081834085 -0.16223167 -0.021479772 -0.05926284 -0.05651721 -0.0040606484
-0.2545292 0.09980182 0.06812022 -0.06326158 -0.029302828 0.093669534 -0.02429835 0.002615982
-0.04735883 0.06508969 -0.06819509 -0.013331329 -0.033823784 0.03245219 0.030358883 -0.04728198
-0.05536847 0.091502704 -0.03299368 -0.024032552 0.026003981 0.11188565 0.12286295 -0.034756478
0.044985585 0.059104465 -0.07426436 0.0722549 0.05155138 -0.06950456 -0.048728768 -0.05317229
0.015933406 0.0021428932 -0.04620104 0.3154853 0.073580146 0.16640969 -0.01124373 -0.053113993
0.13021371 -0.02810781 -0.036465723 -0.0066255685 0.11054821 -0.054537944 -0.03351212 -0.055723645
-0.07495272 0.005772757 -0.063346736 0.094782874 0.097808056 -0.01481841 -0.0017543802 0.00059844647
-0.18956096 0.12710677 -0.0031030963 0.056775667 -0.05446381 0.06706351 0.29182884 0.0742907
-0.066865064 0.031126974 0.16105682 -0.03156374 0.009633734 -0.090936236 -0.1398724 0.25150934
0.0936603 0.21020712 -0.056712102 0.010998933 0.04258766 -0.06956293 0.05083679 -0.0069936872
00000000: 0732 903d e10d 96bd 0b8d 863d 8bfc e23c
00000010: 0c07 bdbd 619d a1bd c37c e1bd 41cc c03d
00000020: 564e 1c3c 9b64 7a3d 5275 7b3d dcea ef3d
00000030: 4eca 723b 601e 4d3e a4b8 51bd 1793 fabc
00000040: 6118 b7be 8d3d 88bd 25e4 67bb fdda 6c3b
00000050: c223 853d 4571 f7bd c790 623c 686d 3fbc
00000060: 6f98 413d dbb5 a43b c16e efbc bd1c 86bd
00000070: 2a9f 4cbd 1eec f23c cab2 923d bc1a 1dbe
00000080: ea2c cf3d 8bd9 91bd 5269 093e 1e0c 843d
00000090: e885 84bc 348f 4a3d 4c7e 4e3d a79d 6abd
000000a0: 845f 1fbb 878a b93c 0352 b33d 81c7 2e3e
000000b0: ac3f 05bc 2e8f 2ebc db68 c73d cb4e 62bd
000000c0: 1705 aa3e 9617 45bd 96c2 ca3b e5ce bd3c
000000d0: aa2e b23d f609 df3d e499 8e3c 6a9a 90bc
000000e0: 944c 033e c43f 0d3c 1b30 763b 993e 233c
000000f0: 735b fa3c a431 a6bb 4bf1 5bbd 9590 a23d
00000100: 0f48 0bbd 8e0b 83bc d19b c3bc 2813 dc3d
00000110: f25b 273d e16c e23d a784 70bc eb81 5e3c
00000120: e7cc e83b 0c88 1bbd 8012 303e 6963 013e
00000130: 4fff ef3d 9600 a63c d008 b8bc 53d2 203e
00000140: 19ff 13bd 60b4 d33c 3222 8ebd 5745 9bbe
00000150: 00fe 073d 2d02 eebd 1c19 e73d c6a9 113d
00000160: 719b 13bd d26c 27bd 3d00 59bc aa7f 68bd
00000170: 9241 83bb fb12 f53c e742 503d ec28 0a3b
00000180: 57ad 893c 4385 7f3d 831f 853d ab73 d33d
00000190: cb62 9dbd ddeb 593d 5170 113e d45e 3dbd
000001a0: 04aa 793e bce7 2c3d eea5 2b3d 3fd9 a03d
000001b0: 7496 0cbc 6012 e53d e84e 98be 3fe2 923d
000001c0: 7c9d 193c cdc5 9bbd 1c5f c2bd 95ad 733d
000001d0: d831 98bb c806 513e 2d6f 5e3e 8777 06be
000001e0: 42f5 ed3d d7fb 67be 02b0 3a3d 0152 003b
000001f0: 7a0d d13d 6399 3cbd 6ce4 f1bb b8a1 b6bc
00000200: 319a 883d f997 2a3d c7fc d63d 3c38 173e
00000210: 508e 093e feea 76bd aeb5 2d3e ba57 3bbd
00000220: 37b0 603d aa3e 89bd ad12 ed3d b8c3 2d3d
00000230: 054b 8b3d f48b 04be 1313 f7bc 9bc6 923d
00000240: ee37 af3e 3e71 b23c 3471 4dbc 7d09 ec3c
00000250: f491 02bc f86a bc3d 1719 72bd c837 df3d
00000260: 4ca5 c63d 861f 8fbd bfc5 093d dc9a 4fbd
00000270: 059e 303d 8930 c63d 437c 9bbd fd97 803d
00000280: ffba d93d e41d 94bd 09ee 2c3c 7efd 273d
00000290: 60e5 5c3d d2e5 8fbc 8c35 a3bc f582 c13d
000002a0: 4cea 063d 0cab 58bc a198 a73d 0f20 26be
000002b0: 59f6 afbc 97bd 72bd 977e 67bd 300f 85bb
000002c0: a751 82be e664 cc3d 9d82 8b3d 4a8f 81bd
000002d0: 7c0c f0bc d0d5 bf3d 550d c7bc e570 2b3b
000002e0: 55fb 41bd be4d 853d dea9 8bbd a66b 5abc
000002f0: cf8a 0abd 96ec 043d 31b3 f83c c0aa 41bd
00000300: 0cca 62bd c565 bb3d 6224 07bd eadf c4bc
00000310: 4d06 d53c 4e24 e53d 929f fb3d cf5c 0ebd
00000320: ce42 383d 8617 723d ea17 98bd 61fa 933d
00000330: 8a27 533d 6858 8ebd d197 47bd 30cb 59bd
00000340: c686 823c c86f 0c3b 4d3d 3dbd 4a87 a13e
00000350: 30b1 963d 4d67 2a3e 9f37 38bc 0f8e 59bd
00000360: be56 053e 5a42 e6bc 155d 15bd 4c1b d9bb
00000370: 1a67 e23d 2e63 5fbd 0144 09bd 7a3e 64bd
00000380: d080 99bd 6529 bd3b efbb 81bd 861d c23d
00000390: 974f c83d ebc8 72bc 3bf3 e5ba 10e1 1c3a
000003a0: 451c 42be 4728 023e 515d 4bbb 9a8d 683d
000003b0: 7215 5fbd 9858 893d 976a 953e b925 983d
000003c0: 8df0 88bd fffd fe3c 14ec 243e fb48 01bd
000003d0: cfd6 1d3c c73c babd b63a 0fbe d5c5 803e
000003e0: f9d0 bf3d 8940 573e f34a 68bd de34 343c
000003f0: 6670 2e3d 0277 8ebd 3d3a 503d 4d2b e5bb

fc2.bias f4 [10]
0.0972181 0.012316983 -0.06735224 -0.075530976 -0.078723006 -0.03888048 0.028261831 -0.0020564492
-0.021258183 0.0074538933
00000000: 491a c73d 2ccd 493c f9ef 89bd fcaf 9abd
00000010: 8739 a1bd 2341 1fbd 5b85 e73c 7ec5 06bb
00000020: a425 aebc ca3f f43b
