CNN_RNNv2dev.pth (torch, 222907 bytes, 10 tensors)

conv1.weight f4 [32, 1, 3, 1]
0	0x3e97bfd9	0.29638556
1	0x3f2de385	0.6792529
2	0xbf2b3d21	-0.6689015
3	0xbe5de0d7	-0.21667801
4	0x3e3634a3	0.17793517
5	0x3efd59f3	0.49482688
6	0x3df08f0d	0.11746035
7	0xbf06273f	-0.52403635
8	0xbeb701ee	-0.3574366
9	0x3e443bde	0.19163463
10	0xbe20a5a2	-0.15688184
11	0xbf155865	-0.58338004
12	0xbe83dc15	-0.25753847
13	0x3d819b14	0.06328407
14	0x3e6fca6e	0.23417065
15	0xbee6a232	-0.4504562
16	0xbedaf04d	-0.4276146
17	0xbed3942e	-0.4132399
18	0xbd34a1e5	-0.044099707
19	0x3ed1c01c	0.4096688
20	0x3e88e861	0.2673979
21	0xbd66801a	-0.05627451
22	0xbe21f9bf	-0.15817927
23	0x3e9bece1	0.30454162
24	0xbd98b22a	-0.07455857
25	0x3e56cfbe	0.20977685
26	0xbee524a7	-0.44754526
27	0xbee0fb9b	-0.4394196
28	0xbe70c3a3	-0.2351213
29	0xbedaff98	-0.42773128
30	0xbefa2833	-0.48858795
31	0xbdb8677b	-0.09004112
32	0x3f11efc5	0.57006484
33	0x3b81f3d9	0.0039658365
34	0x3d5e5a64	0.054285422
35	0x3edbd861	0.42938522
36	0x3c8ed19d	0.017433936
37	0xbebf4fe9	-0.37365654
38	0xbec0b7eb	-0.37640318
39	0x3f0a5dad	0.5404919
40	0x3e56d82b	0.20980899
41	0xbebf7f76	-0.37401932
42	0xbdb61f0f	-0.08892643
43	0xbe1b0559	-0.15138759
44	0x3e77948b	0.24177758
45	0x3e48250f	0.19545387
46	0x3f253bc9	0.6454435
47	0x3e9ad42e	0.30240005
48	0xbe358e1c	-0.17729992
49	0x3d8b672b	0.06806787
50	0x3f0852f0	0.5325155
51	0x3e8527bc	0.26006877
52	0x3da04b14	0.0782682
53	0x3f0f1746	0.5589489
54	0x3ed4dffc	0.41577137
55	0x3eaa3455	0.3324305
56	0xbeb6636e	-0.35622734
57	0x3ebc5b39	0.36788347
58	0xbe973f12	-0.29540306
59	0xbdd341f8	-0.10315317
60	0x3e7ab862	0.24484399
61	0x3de35636	0.11100428
62	0xbd70aee7	-0.05876055
63	0x3d7ac6b5	0.061224658
64	0x3e5a83d2	0.21339348
65	0x3f15943a	0.584293
66	0x3d8bcf49	0.06826646
67	0xbeaff0f8	-0.34363532
68	0xbeb62947	-0.35578367
69	0xbe401de1	-0.18761398
70	0xbec53cc7	-0.38522932
71	0x3ddf7a89	0.109120436
72	0x3ed2e55e	0.41190618
73	0x3f227c32	0.63470757
74	0x3f055f09	0.5209814
75	0x3ce91596	0.028452676
76	0x3e9aee28	0.30259824
77	0x3f1d6e1d	0.61496145
78	0x3e11ed40	0.1425066
79	0x3ebda1e4	0.37037575
80	0xbf117de2	-0.56832707
81	0x3d744938	0.05964014
82	0x3f2722f8	0.65287733
83	0x3f272aca	0.65299666
84	0x3f07a637	0.52988
85	0xbe32217c	-0.17395586
86	0x3e8a07b6	0.26959008
87	0xbe94018c	-0.2890743
88	0x3f1324f0	0.5747824
89	0xbe78036c	-0.24220055
90	0xbec781e1	-0.38966277
91	0x3ef29fa0	0.4738741
92	0xbce74ed0	-0.028235823
93	0xbea925a2	-0.33036524
94	0xbf0c129e	-0.5471591
95	0xbef411d8	-0.47669864

conv1.bias f4 [32]
0	0x3f04ab70	0.5182409
1	0x3db624ec	0.08893761
2	0x3e0964d0	0.13417363
3	0x3ee4805d	0.44629183
4	0xbe7dbc98	-0.24778974
5	0xbe1186d6	-0.14211592
6	0x3f079560	0.52962303
7	0x3ce4314b	0.027855536
8	0x3c72e88e	0.014825953
9	0xbf1bc6cb	-0.6085021
10	0x3ee38107	0.44434378
11	0x3e2a007e	0.1660175
12	0x3e00ede7	0.12590753
13	0x3ee6c8df	0.45075127
14	0x3f065527	0.5247368
15	0x3f1acee3	0.60471934
16	0x3e899ef0	0.26879072
17	0xbdf139a5	-0.11778573
18	0x3e2b1a36	0.16709217
19	0x3efa70b8	0.48914123
20	0x3edc8c0f	0.43075606
21	0xbde911f7	-0.1138038
22	0xbeb334dc	-0.35001266
23	0xbea88960	-0.3291731
24	0x3e3e861a	0.18605843
25	0x3f820dbd	1.0160443
26	0x3eeee1e6	0.46656722
27	0x3cddcfa5	0.027076552
28	0x3d659d7e	0.0560584
29	0x3e8d00a5	0.27539554
30	0xbd9c78bb	-0.07640215
31	0xbeeab074	-0.45837748

rnn.weight_ih_l0 f4 [64, 640]
0	0x3eb3efbc	0.3514384
1	0x3d9cb551	0.07651771
2	0xbc65e996	-0.014032742
3	0x3c68b4fd	0.014203307
4	0x3cefea72	0.029286597
5	0x3de31b6a	0.11089213
6	0x3d50dc06	0.05099108
7	0x3dc0c7fb	0.09413143
8	0xbb3f77e0	-0.0029215738
9	0x3e0d1a5f	0.13779591
10	0x3daef542	0.08542873
11	0xbc582ff2	-0.013195025
12	0x3d611dfa	0.05496023
13	0x3dad8e1d	0.084743716
14	0xbdc401d0	-0.09570658
15	0xbde18447	-0.11011558
16	0x3d27dd27	0.04098239
17	0xbc8f5376	-0.017495852
18	0x3c95c438	0.018282041
19	0xbbc2e1c9	-0.005947326
20	0x3daac61d	0.08338568
21	0xbd1e39ff	-0.038629528
22	0xbd67489a	-0.056465723
23	0x3dd41562	0.10355641
24	0x3dd6b688	0.10484034
25	0xbdc4eef6	-0.09615891
26	0xbc0bd46f	-0.008534535
27	0xbbe92f47	-0.0071162316
28	0xbd0dc0a5	-0.03460755
29	0xbca74034	-0.020416357
30	0x3e05d153	0.13068132
31	0xbcb11c8a	-0.021620054
32	0xbd410794	-0.047126368
33	0xbda27bca	-0.07933767
34	0x3d345a12	0.04403121
35	0xbbca496c	-0.0061733034
36	0xbd91c316	-0.07117288
37	0xbd9e21bd	-0.07721279
38	0x3dccb74b	0.09995898
39	0xbba91a36	-0.0051605953
40	0x3d28ac26	0.0411798
41	0xbadc61f9	-0.0016813866
42	0xbce3a540	-0.027788758
43	0xbdb60e65	-0.08889464
44	0x3cddda1d	0.027081544
45	0xbd9fa9f5	-0.077960886
46	0xbe016de2	-0.12639573
47	0xbdbfce5d	-0.093655325
48	0xbe0beba7	-0.13664113
49	0xbd7783b9	-0.060428355
50	0x3c81ae21	0.015830101
51	0xbd9e9e8d	-0.07745085
52	0xbca8bfd0	-0.020599276
53	0xbdce282d	-0.10066257
54	0xbe079820	-0.13241625
55	0x3d8648ca	0.06556852
56	0xbde02acf	-0.10945665
57	0xbd738c77	-0.05946013
58	0xbdf9338b	-0.12168034
59	0xbe0f543b	-0.13996975
60	0xbdcf7ac9	-0.10130841
61	0x3d91d502	0.07120706
62	0x3d837202	0.0641823
63	0xbcdc6abb	-0.026906362
64	0x3d95f601	0.07322312
65	0xbdeebcff	-0.11657142
66	0xbdd432a8	-0.103612244
67	0x3db0d202	0.08633806
68	0x3cec2d8e	0.028830316
69	0xbc2f9edb	-0.010719026
70	0xbddea00d	-0.10870371
71	0xbd03f2b3	-0.032213878
72	0xbd85687a	-0.06514068
73	0xbda4a763	-0.08039739
74	0xbe284b31	-0.16434933
75	0x3c699a76	0.014258018
76	0x3d7c43cd	0.061588097
77	0x3c0337ce	0.00800891
78	0x3cbff245	0.023430953
79	0xbe0746cf	-0.13210605
80	0xbe031654	-0.12801486
81	0xbe1722af	-0.14759324
82	0xbdb04952	-0.08607735
83	0xb95a86c0	-0.00020840298
84	0xbdb53497	-0.08847921
85	0xbe18dcc8	-0.14927971
86	0x3cfc2430	0.030778974
87	0xbce3aa6f	-0.02779123
88	0x3c294930	0.010332391
89	0xbde8b667	-0.113629155
90	0xbbc5bc10	-0.0060343817
91	0xbdbc03d3	-0.09180417
92	0x3d857f04	0.06518367
93	0x3b99b0a1	0.0046902453
94	0x3e29e0c2	0.16589645
95	0xbd8c48ef	-0.068498485
96	0xbd62ba93	-0.055353712
97	0x3e1dc8ea	0.15408674
98	0xbcc1e198	-0.023667142
99	0xbc12618f	-0.008934393
100	0x3d6459a8	0.055749565
101	0x3d732099	0.05935726
102	0xbe108abc	-0.14115423
103	0xbb882318	-0.004154574
104	0xbdae909d	-0.085236765
105	0x3db3f997	0.0878784
106	0x3db049a5	0.086077966
107	0xbda6a6ed	-0.08137307
108	0xbdb94e82	-0.09048177
109	0xbd7190df	-0.05897605
110	0x3cdb2871	0.026752682
111	0x3db32663	0.08747556
112	0xbd0e50fd	-0.034745205
113	0x3c9807c7	0.018558396
114	0xbe279b18	-0.16367757
115	0xbdee4422	-0.11634089
116	0x3d046ef2	0.03233237
117	0xbda2e7fc	-0.07954404
118	0xbe04dbcd	-0.12974472
119	0x3db16cd5	0.08663336
120	0xbe255a04	-0.1614762
121	0xbbb85280	-0.005625069
122	0x3bb52dc0	0.0055291355
123	0x3e164fbf	0.14678858
124	0x3c5c0ee1	0.013431282
125	0x3d3e7195	0.04649504
126	0x3d80c8bf	0.06288289
127	0xbd899ddf	-0.06719565
128	0xbd5a4d62	-0.053296454
129	0x3d6cff6a	0.05786077
130	0x3e236b97	0.15959011
131	0x3e2b7c5c	0.16746658
132	0xbd216427	-0.039402153
133	0xbda3cf44	-0.07998517
134	0x3de925a5	0.11384133
135	0x3ccce20e	0.025010135
136	0xbd13d229	-0.036089096
137	0xbe181d95	-0.14855035
138	0xbcf4e009	-0.029891985
139	0x3c78e853	0.015192109
140	0x3d572aea	0.05253116
141	0xbd7417f1	-0.059593145
142	0xbda484f7	-0.080331735
143	0xbc378245	-0.011200492
144	0x3d772626	0.060339116
145	0x3ce9bd9f	0.028532801
146	0xbe26d864	-0.16293484
147	0x3cacccda	0.021093775
148	0x3d84702d	0.06466708
149	0x3dc25afc	0.0949001
150	0x3dd70953	0.10499825
151	0xbd4af154	-0.049546555
152	0x3d121a25	0.035669465
153	0xbcdf0b77	-0.027227147
154	0xbd6343e6	-0.055484675
155	0x3d849b1f	0.064748995
156	0xbcc37e51	-0.023863943
157	0xbd7c40f6	-0.06158539
158	0xbb8de181	-0.0043298607
159	0xbc5fe064	-0.013664339
160	0x3da6c4ff	0.08143043
161	0xbc280e9f	-0.010257392
162	0xbdc2b7ce	-0.09507714
163	0xbda54d10	-0.08071339
164	0xbcf61e1c	-0.030043654
165	0xbd637aa6	-0.05553689
166	0x3d6116b0	0.054953277
167	0x3ccea144	0.025223382
168	0xbd7d5b95	-0.061854918
169	0x3d3088e6	0.043099307
170	0xbb596a1a	-0.0033174814
171	0xbdcb5140	-0.099276066
172	0x3d6231d8	0.055223316
173	0xbd9738bc	-0.07383868
174	0x3c704f31	0.014667318
175	0x3d8bbc85	0.068230666
176	0x3df502cc	0.11963424
177	0x3bfb1d59	0.0076634106
178	0xbdd001ed	-0.10156617
179	0x3d900705	0.07032589
180	0xbe20fa19	-0.15720405
181	0x3d954c71	0.07289971
182	0x3db58d79	0.088648744
183	0x3c28370a	0.010267029
184	0xbdc902e8	-0.098150074
185	0x3c8507e2	0.01623911
186	0x3bd6e1f9	0.0065576998
187	0x3dab9503	0.08378031
188	0x3d80363e	0.06260346
189	0xbdf528e6	-0.119706914
190	0xbd4a0117	-0.049317446
191	0xbe10b02e	-0.14129707
192	0x3db78c70	0.08962333
193	0xbd981796	-0.07426374
194	0xbde43271	-0.111424334
195	0xbe0c54bb	-0.13704197
196	0x3ce1de31	0.02757177
197	0xbd24b56f	-0.04021209
198	0xbddf0d98	-0.10891265
199	0x3b1ec93f	0.0024228839
200	0xbe1a29a1	-0.15054943
201	0x3d61b191	0.05510098
202	0xbdb5de5b	-0.088803016
203	0xbcfd136e	-0.030893054
204	0x3c59d35c	0.013295021
205	0x3dbf277c	0.09333703
206	0xbe1e5435	-0.1546181
207	0xbe098846	-0.1343089
208	0x3c65ef74	0.014034141
209	0xbd0b2f75	-0.033980805
210	0xbc39d77b	-0.011342878
211	0xbda8fbab	-0.08251127
212	0x3d84c20a	0.064823225
213	0xbdeb1cde	-0.11480115
214	0x3d82f7fc	0.063949555
215	0xbd030d7e	-0.03199529
216	0xbd9fa660	-0.077954054
217	0xbdbe8a3e	-0.09303711
218	0x3dd6beca	0.10485609
219	0xbc5addc1	-0.013358534
220	0xba935870	-0.0011241566
221	0xbd184a85	-0.037180442
222	0xbd244b7f	-0.04011106
223	0xbd8abe1c	-0.06774542
224	0x3dcf094b	0.10109194
225	0xbd231a11	-0.03981978
226	0xbcb63276	-0.022240859
227	0x3e016cea	0.12639204
228	0x3c72a3b5	0.014809539
229	0xbd96b42d	-0.073585846
230	0x3e7fb3da	0.24970952
231	0x3d1b6e31	0.037946884
232	0x3de5635b	0.11200591
233	0xbdc5b247	-0.09653144
234	0x3dc86d72	0.097865
235	0xbdfef09a	-0.12448235
236	0xbe1c75ea	-0.15279356
237	0xbcc01483	-0.02344728
238	0x3d2ec511	0.042668406
239	0x3dbe932d	0.09305415
240	0x3d6db67e	0.058035366
241	0x3db0e6ba	0.086377576
242	0xbd8e4785	-0.06947235
243	0xbdc0f72f	-0.094221465
244	0x3d95381c	0.07286093
245	0x3d92d873	0.07170191
246	0x3d014429	0.031559143
247	0xbdd1616f	-0.10223662
248	0x3cb1a620	0.02168566
249	0xbd9d1e19	-0.07671756
250	0xbca73246	-0.020409714
251	0x3cf7274a	0.030170102
252	0xbc810629	-0.015750008
253	0xbdafb3e7	-0.085792355
254	0xbdb88915	-0.09010521
255	0xbe056ad1	-0.13029028

rnn.weight_hh_l0 f4 [64, 64]
0	0xbc690a70	-0.01422368
1	0xbce8aa38	-0.02840148
2	0xbd8169e2	-0.06319024
3	0xbd9a42d6	-0.07532279
4	0x3dc1aa12	0.094562665
5	0x3d5e6214	0.054292753
6	0x3d835fe2	0.064147726
7	0xbd4e2280	-0.05032587
8	0x3d72e2a4	0.059298173
9	0xbd09985c	-0.033592567
10	0xbde12c12	-0.10994734
11	0x3d9054b6	0.07047407
12	0x3d8d7464	0.069069654
13	0xbdba97d0	-0.09110987
14	0x3db36956	0.087603256
15	0x3db74f58	0.089506805
16	0x3cad89f0	0.021183938
17	0x3d752088	0.059845477
18	0xbd3b3938	-0.045708865
19	0xba4c4800	-0.0007792711
20	0x3de930c6	0.11386256
21	0xbd164ea4	-0.03669609
22	0x3dfd317e	0.123629555
23	0xbdc1a24c	-0.09454784
24	0xbdfc4d5c	-0.12319443
25	0x3db215a8	0.08695537
26	0xbdaf4d1a	-0.08559628
27	0x3dafec8e	0.08590041
28	0x3d683534	0.056691363
29	0x3cff1438	0.03113757
30	0xbdd4d772	-0.103926554
31	0x3d42aca0	0.04752791
32	0xbdc010fc	-0.093782395
33	0xbc1e29b0	-0.009653494
34	0x3bad4d00	0.00528872
35	0xbde2d862	-0.11076428
36	0xbcc178e0	-0.023617208
37	0x3da7cc58	0.08193272
38	0xbd4eae7c	-0.05045937
39	0x3daa1304	0.08304408
40	0x3ddb8d72	0.10720338
41	0xbdcb865e	-0.09937738
42	0x3d523eb0	0.051329315
43	0x3daf1d7e	0.08550547
44	0xbdef4cbe	-0.11684559
45	0xbd894dc6	-0.06704287
46	0x3d144308	0.03619674
47	0x3ccd4c70	0.025060862
48	0x3d629e74	0.055326894
49	0x3caae680	0.020861864
50	0xbd92fd96	-0.07177274
51	0xbcd32dd0	-0.025778681
52	0x3d944c0a	0.07241066
53	0xbd920b02	-0.07131006
54	0xbc8ee018	-0.01744084
55	0x3d71a080	0.058990955
56	0xbcfe3878	-0.031032786
57	0xbdaa8b4e	-0.083273515
58	0xbdececee	-0.11568628
59	0xbdfe7724	-0.12425068
60	0xbdee6f34	-0.11642304
61	0x3b8a0360	0.004211828
62	0xbd0bd244	-0.03413607
63	0xbd998e0a	-0.07497795
64	0xbcb3ac78	-0.021932825
65	0x3d7d9f24	0.061919346
66	0x3d9f524e	0.0777937
67	0x3d6cde24	0.057829037
68	0xbcbe9b08	-0.023267284
69	0x3c4d1870	0.012518033
70	0x3de99b04	0.1140652
71	0xbdda110e	-0.10647784
72	0xbdebfefc	-0.11523244
73	0xbbd236a0	-0.006415203
74	0x3d64c3e8	0.055850893
75	0x3cacb2a0	0.021081269
76	0x3dbefeac	0.093259186
77	0x3cfab3d0	0.03060332
78	0x3d42faf4	0.04760261
79	0xbdf11394	-0.11771312
80	0xbde43b2e	-0.111441
81	0xbde8b2ee	-0.11362253
82	0xbd05a0e4	-0.03262414
83	0x3dd1935c	0.10233185
84	0x3dc5e2e2	0.09662415
85	0x3df7c2b8	0.120976865
86	0x3ddad8a0	0.10685849
87	0xbdb271d6	-0.08713119
88	0x3d96d468	0.07364732
89	0x3dbbce82	0.091702476
90	0xbd9ab676	-0.07554333
91	0xbc92adb0	-0.017905086
92	0x3d8e8210	0.06958401
93	0x3d9456c4	0.07243112
94	0xbcbaef48	-0.022819176
95	0x3c8014e0	0.015634954
96	0x3ceaa938	0.028645143
97	0x3df595c4	0.11991456
98	0xbdc6932e	-0.09696041
99	0x3d08d1a8	0.03340307
100	0xbc3783b0	-0.01120083
101	0x3aaac480	0.0013028532
102	0xbc12a490	-0.008950368
103	0x3d87d94c	0.06633243
104	0x3de40bd2	0.11135067
105	0xbd3f57c8	-0.046714574
106	0xbd8ec904	-0.069719344
107	0xbcd05788	-0.025432363
108	0xbdaf2646	-0.08552222
109	0x3c92d0b0	0.017921776
110	0x3cda63b8	0.026658878
111	0xbd82567a	-0.0636415
112	0xbc309420	-0.010777503
113	0x3cff03e8	0.031129792
114	0xbdf84f90	-0.1212455
115	0x3d8d9016	0.06912248
116	0xbd195494	-0.037434176
117	0x3d7327f4	0.059364274
118	0x3dc041ea	0.09387572
119	0x3cfc0a88	0.03076674
120	0x3df8d22c	0.12149462
121	0x3d125258	0.03572306
122	0x3d318308	0.04333785
123	0xbd54c9e8	-0.051950365
124	0x3df1809a	0.11792107
125	0xbdc2108c	-0.09475812
126	0xbd750f04	-0.059828773
127	0xbd834704	-0.064100295
128	0xbdf40496	-0.11914937
129	0xbd3708c4	-0.044686094
130	0xbd83a2a8	-0.064275086
131	0x3d9d8f0e	0.07693301
132	0x3d161dd4	0.03664954
133	0xbde69716	-0.11259286
134	0xbc8bb988	-0.017056242
135	0x3d20a3e0	0.039218783
136	0xbd673084	-0.056442752
137	0x3d5c8ef0	0.053847253
138	0xbdbd98f4	-0.09257689
139	0xbd8f087a	-0.06984039
140	0x3d1cc0f0	0.038269937
141	0x3dd17ed2	0.10229267
142	0xbd037b5c	-0.032100067
143	0x3d9a0366	0.075201795
144	0xbd7d97b0	-0.06191224
145	0xbb8729c0	-0.00412485
146	0x3d94b97e	0.07261942
147	0xbaef1d80	-0.0018243045
148	0x3ce76550	0.028246552
149	0xbd829418	-0.06375903
150	0x3d294b10	0.04133135
151	0xbd9e448e	-0.077279195
152	0xbdfd7b10	-0.12376988
153	0xbd25f254	-0.040514305
154	0x3dbc30ae	0.091889724
155	0x3dd11bae	0.102103576
156	0xbdc3bac2	-0.095571056
157	0x3dd0d002	0.10195924
158	0x3db99dd2	0.09063305
159	0xbd80b3ce	-0.06284295
160	0x3dde8264	0.10864714
161	0x3dd8661e	0.10566352
162	0x3cc86a20	0.024464667
163	0x3dfc0160	0.1230495
164	0x3ce2fa38	0.027707204
165	0x3d7c8ca4	0.061657563
166	0xbdcd6b3a	-0.100302175
167	0xbda53dd6	-0.08068435
168	0xbbebcc40	-0.0071959794
169	0xbdaade7a	-0.08343215
170	0x3bce84e0	0.006302461
171	0x3cee27e8	0.029071763
172	0x3b48a600	0.0030616522
173	0x3d417720	0.047232747
174	0xbc1d21f0	-0.009590611
175	0x3d8e1ac0	0.06938696
176	0xbbbdeca0	-0.00579603
177	0x3db8e604	0.09028247
178	0xbd6589f4	-0.056039765
179	0x3dc8053e	0.09766625
180	0x3ca54568	0.020174697
181	0x3d2abfb4	0.04168673
182	0xbdc2a7fe	-0.09504698
183	0x3d500e40	0.05079484
184	0xbddcce7a	-0.1078157
185	0x3df47f28	0.11938316
186	0xbdff13be	-0.124549374
187	0x3de81e5a	0.11333914
188	0xbd477a58	-0.04870066
189	0xbb7fbc00	-0.003902197
190	0x3dde57a6	0.10856561
191	0x3c6e1c00	0.014533043
192	0x3a8d0b00	0.0010760725
193	0xbbe30420	-0.006927982
194	0x3dade022	0.084900156
195	0x3d2ff67c	0.042959675
196	0xbdf25954	-0.11833444
197	0x3da5377e	0.08067225
198	0xbddd7dd4	-0.108150154
199	0x3d93a5d4	0.072093636
200	0x3ce8d3b0	0.028421253
201	0xbde292c6	-0.11063151
202	0x3d1ebcc8	0.038754255
203	0x3be5bb80	0.007010877
204	0x3da594f4	0.08085051
205	0x3d2f0aa0	0.042734742
206	0xbcaacf60	-0.020850837
207	0x3db3e3be	0.08783673
208	0xbdeee7c8	-0.116653025
209	0x3dc372de	0.095433936
210	0xbc58c4d0	-0.0132305175
211	0x3de2f4e2	0.11081864
212	0xbc824eb8	-0.015906677
213	0x3d0974d8	0.033558697
214	0x3d20594c	0.03914766
215	0x3d0feab4	0.03513594
216	0xbd4948c8	-0.049141675
217	0xbd8d84e8	-0.069101155
218	0x3dba463a	0.09095426
219	0x3db8c046	0.09021048
220	0xbda25662	-0.079266325
221	0xbc219350	-0.009861782
222	0x3ded7404	0.11594394
223	0x3d184e24	0.037183896
224	0x3a35b900	0.0006932169
225	0x3da5b9a2	0.08092047
226	0x3c87e5a8	0.016589
227	0xbd0a3604	-0.03374292
228	0x3d034480	0.03204775
229	0xbc20eca0	-0.009822041
230	0x3da8e3e4	0.08246592
231	0x3d52dec4	0.051481977
232	0x3dc56dcc	0.09640083
233	0x3d535a24	0.051599637
234	0xbd6407fc	-0.055671677
235	0x3c670100	0.0140993595
236	0x3de91f7c	0.11382958
237	0xbddb0aa8	-0.10695392
238	0xbd71cb10	-0.059031546
239	0x3ce34fe8	0.027748063
240	0xbd0b548c	-0.034016177
241	0x3dc99b48	0.09844071
242	0x3d4f0444	0.050541177
243	0xbdb0ca24	-0.08632305
244	0x3d07edc0	0.03318572
245	0xbd94e4d2	-0.072702065
246	0xbda5548e	-0.08072768
247	0xbdb3fb4c	-0.087881655
248	0xbdfac41c	-0.12244436
249	0xbd244d5c	-0.04011284
250	0x3db4b7ec	0.08824143
251	0xbd4b1b30	-0.049586475
252	0x3dbd2b7e	0.09236811
253	0x3c3c8a80	0.01150763
254	0xbd1c4c0c	-0.03815846
255	0x3d0f5ee0	0.03500259

rnn.bias_ih_l0 f4 [64]
0	0x3d335923	0.04378618
1	0xbd62e1d9	-0.055391166
2	0x3d8bfdf1	0.06835545
3	0x3dcefe1e	0.10107063
4	0x3df4805a	0.119385436
5	0x3d875e76	0.06609814
6	0x3dbfbecb	0.09362563
7	0x3d18d65d	0.037313808
8	0x3deade32	0.11468162
9	0x3c8cd0ef	0.017189471
10	0xbe0beae9	-0.1366383
11	0x3d9c5c2a	0.076347664
12	0x3a1bbfa3	0.0005941337
13	0x3d29f2df	0.041491386
14	0xbdbb0c61	-0.091332205
15	0x3d9e0994	0.07716671
16	0xbd43232e	-0.04764097
17	0x3deb7508	0.11496931
18	0x3d8a9e40	0.06768465
19	0xbddd8b2e	-0.10817562
20	0xbd9e58ef	-0.077318065
21	0xbd4591d5	-0.04823478
22	0xba4f3b13	-0.0007905226
23	0x3d9aba34	0.07555047
24	0x3d82c1ae	0.06384598
25	0xbd902948	-0.07039124
26	0xbd1b0733	-0.037848663
27	0xbd1ce7b3	-0.038306903
28	0x3c9159a0	0.017742932
29	0x3dcd6754	0.10029474
30	0xbd30461d	-0.043035615
31	0x3d93ce58	0.07217091
32	0xbdc138f1	-0.09434689
33	0xbdc391da	-0.09549303
34	0xbcdcd706	-0.026958
35	0xbd8123a6	-0.063056275
36	0xbd5c7a92	-0.05382783
37	0x3db5a18f	0.088687055
38	0xbd962644	-0.07331517
39	0xbc998f0f	-0.018744973
40	0x3dca86ce	0.09888993
41	0xbd13acc1	-0.036053423
42	0xbda80446	-0.0820394
43	0xbca70b28	-0.020391062
44	0x3c7735ff	0.015088557
45	0xbbba8dc9	-0.0056931716
46	0xbdc9c29a	-0.098515704
47	0x3de843da	0.11341067
48	0xbde48b9f	-0.11159443
49	0xbdaba68a	-0.08381374
50	0x3e009c0d	0.12559529
51	0x3cd83771	0.026393624
52	0x3d1e0c68	0.03858605
53	0xbd804132	-0.06262435
54	0xbd81de84	-0.063412696
55	0xbc7e43c0	-0.015519083
56	0xbd92a068	-0.07159501
57	0xbd7d417c	-0.06183003
58	0xbdcd363c	-0.1002011
59	0xbd3b2c45	-0.045696516
60	0x3c6482e2	0.0139472205
61	0x3d9c2f6f	0.07626235
62	0xbd9ad6d8	-0.075605094
63	0xbdf07222	-0.11740519

rnn.bias_hh_l0 f4 [64]
0	0xbd0c77b9	-0.034293864
1	0xbdab4afe	-0.08363913
2	0xbd950d41	-0.072779186
3	0x3db47a98	0.088124454
4	0x3d9459ee	0.07243715
5	0xbd6c9f7e	-0.05776929
6	0xbde579d7	-0.1120488
7	0xbda8e832	-0.08247413
8	0xbdd4f645	-0.10398535
9	0x3d0f0043	0.03491236
10	0xbad5637b	-0.0016280258
11	0x3cd572e8	0.026055768
12	0x3d7e660e	0.062109046
13	0x3e40936c	0.18806237
14	0x3dc9b6cb	0.09849318
15	0xbd016386	-0.031589054
16	0xbd775556	-0.060384117
17	0x3cb12ce0	0.021627843
18	0x3d936ad8	0.07198113
19	0x3d5e9680	0.054342747
20	0xbde4dbdd	-0.11174748
21	0x3a9658e9	0.0011470589
22	0x3de44cef	0.111474864
23	0xbc601290	-0.013676301
24	0xbc286f0d	-0.010280383
25	0xbdccca40	-0.099995136
26	0x3ced4643	0.028964167
27	0xbd8a2dee	-0.06747042
28	0xbdaa0f9a	-0.08303757
29	0xbc414370	-0.0117958635
30	0xbdd11d7c	-0.10210702
31	0xbd16b58d	-0.036794234
32	0xbd505c98	-0.050869554
33	0x3dd81830	0.105514884
34	0xbca8d7c3	-0.020610696
35	0x3d670950	0.056405365
36	0x3d52e62a	0.051489033
37	0x3cde1f8c	0.027114652
38	0x3cd0dbb8	0.025495395
39	0x3cd132a9	0.025536852
40	0xbde9b64a	-0.11411722
41	0x3d23bd1b	0.039975267
42	0xbd39db50	-0.04537517
43	0x3da5c6a9	0.08094532
44	0x3db586f2	0.088636294
45	0xbdd5796e	-0.104235515
46	0xbd70ab00	-0.05875683
47	0x3dcd461a	0.100231364
48	0x3db72c09	0.08943946
49	0xbd635eb4	-0.055510238
50	0xbdbaea3f	-0.0912671
51	0xbd6b645d	-0.05746876
52	0x3ca71a78	0.020398363
53	0x3de94200	0.113895416
54	0xbd420a20	-0.047372937
55	0x3d2a93b4	0.041644767
56	0xbdae5966	-0.08513145
57	0xbd674a34	-0.05646725
58	0xbd4dec72	-0.05027432
59	0x3bbe9f4b	0.005817329
60	0x3c486242	0.012230458
61	0x3d8cb9e1	0.06871391
62	0x3e1342dc	0.14380974
63	0xbce25c78	-0.027631983

fc1.weight f4 [128, 64]
0	0x3b1382db	0.0022508416
1	0xbd5de255	-0.054170925
2	0x3d88f468	0.06687242
3	0x3dad11a6	0.08450632
4	0xbc96ab30	-0.018392175
5	0x3d53816b	0.051637094
6	0x3da8639c	0.08222124
7	0x3cdaf7b9	0.026729451
8	0x3d4d3fbf	0.05010962
9	0x3d099fd5	0.033599693
10	0x3cda3f38	0.026641473
11	0xbdaddd2e	-0.08489452
12	0xbdafe25c	-0.085880965
13	0xbcab6e98	-0.020926759
14	0x3ce61670	0.02808687
15	0x3d42ec63	0.047588717
16	0x3dbcc368	0.09216958
17	0xbd6bbdd1	-0.05755407
18	0x3dbd82a8	0.09253436
19	0xbd91ec4e	-0.0712515
20	0xbd23278e	-0.039832644
21	0xbc097e9c	-0.008392002
22	0xbac1f27b	-0.0014796996
23	0xbdcd56bc	-0.10026309
24	0xbe013cd3	-0.12620859
25	0xbd395431	-0.045246307
26	0xbde6e73a	-0.11274572
27	0xbd8adf76	-0.06780903
28	0xbd9430e0	-0.07235885
29	0x3da59aa6	0.080861375
30	0xbc9678b7	-0.018368108
31	0x3d878d82	0.06618787
32	0x3d808610	0.062755704
33	0xbd915448	-0.070961535
34	0x3dea605d	0.11444161
35	0x3d9f0ca4	0.07766083
36	0xbd86d3f9	-0.06583399
37	0x3ca070f8	0.019585118
38	0x3dab8f9a	0.08376999
39	0x3c8e2c70	0.017355174
40	0x3ce32f78	0.027732596
41	0xbc13af6c	-0.009013992
42	0x3da0a0f8	0.07843202
43	0x3d008f3f	0.03138661
44	0xbd8e9546	-0.069620654
45	0x3d54792f	0.051873382
46	0x3b3e3ab7	0.0029026696
47	0xbdcf1736	-0.10111849
48	0xbd5e2a39	-0.054239485
49	0x3c9f9eef	0.019484965
50	0xbd8cce86	-0.06875329
51	0xbc349b2a	-0.011023322
52	0x3d80d3d9	0.06290407
53	0xbd7556b9	-0.05989716
54	0xbc914257	-0.017731829
55	0xbdf36088	-0.11883646
56	0xbdcaed38	-0.09908527
57	0xbde2aa7e	-0.11067675
58	0xbcdbdbe9	-0.02683826
59	0x3c80edf8	0.015738472
60	0x3ddfd87a	0.109299615
61	0x3d483ddf	0.04888713
62	0xbd44ff23	-0.04809488
63	0xbdc40132	-0.095705405
64	0xbcd2bd7d	-0.02572512
65	0xbde2e22e	-0.110782966
66	0xbddc5c04	-0.10759738
67	0xbd20f761	-0.03929842
68	0xbdcf0856	-0.10109012
69	0xbd91d0bc	-0.07119891
70	0xbd2a02e7	-0.041506674
71	0xbd906996	-0.07051389
72	0xbd2047cc	-0.03913097
73	0x3d19eac4	0.037577406
74	0x3dc44bc3	0.09584763
75	0x39e2c5c0	0.00043253414
76	0xbd0038e9	-0.031304274
77	0x3da2fd90	0.079585195
78	0xbc555d43	-0.013022724
79	0x3d54c361	0.05194414
80	0x3d88c376	0.06677906
81	0xbda070b2	-0.07833995
82	0x3d77b2ef	0.06047338
83	0xbcdf027d	-0.027222866
84	0xbccc8346	-0.02496494
85	0xbdc65136	-0.096834585
86	0x3db7f19a	0.08981629
87	0xbd902976	-0.07039158
88	0x3dde5c66	0.10857467
89	0xbe0010d4	-0.1250642
90	0x3dd2852a	0.10279305
91	0x3cd8870b	0.026431581
92	0xbd9e0580	-0.07715893
93	0x3d0cd294	0.03438051
94	0x3d9a15c9	0.075236864
95	0x3c334a7a	0.01094305
96	0xbc1135d4	-0.008862931
97	0xbd2ef6fd	-0.042716015
98	0xbd81dd01	-0.06340981
99	0x3ccaa4be	0.024736758
100	0xbce946a3	-0.028476065
101	0xbdb6c4c2	-0.08924247
102	0xbc23ed24	-0.010005269
103	0x3dc3ad42	0.09554531
104	0xbdc44193	-0.0958282
105	0xbd49b2c9	-0.04924277
106	0x3dc4eb28	0.09615165
107	0x3d2e85d5	0.0426081
108	0xbdc98d86	-0.098414466
109	0xbda7dcac	-0.08196387
110	0x3bfabe1f	0.0076520587
111	0x3d8ed4d6	0.06974189
112	0xbd25cc28	-0.0404779
113	0x3db8bcdc	0.09020397
114	0xbdae2d7a	-0.08504768
115	0xbd257509	-0.040394817
116	0x3bcce921	0.006253377
117	0xbd35f47f	-0.044422623
118	0xbd9ff6c0	-0.07810736
119	0x3d000913	0.031258654
120	0xbdde10aa	-0.10843022
121	0xbd2bc691	-0.041937415
122	0xbc54de83	-0.012992504
123	0xbcd8409b	-0.026397994
124	0xbd017ac0	-0.031611204
125	0x3dda878b	0.10670384
126	0x3db1f7c4	0.08689836
127	0xbdee5940	-0.11638117
128	0x3dbdadc4	0.09261659
129	0x3bebda30	0.007197641
130	0x3dbbb894	0.09166065
131	0xbd7a2b6e	-0.061076574
132	0x3d87d623	0.0663264
133	0xbc612384	-0.013741378
134	0xbd0ca2b3	-0.03433485
135	0xbda157c2	-0.078780666
136	0x3e37e2f7	0.17957674
137	0x3de03631	0.10947836
138	0x3d2c0bb0	0.042003334
139	0xbd0d7380	-0.034533978
140	0xbca44142	-0.020050649
141	0x3eddc6e0	0.43315792
142	0xbdd1dd64	-0.10247305
143	0x3d92f6e5	0.07175998
144	0x3dce8fcf	0.10086023
145	0x3a01fa94	0.00049582985
146	0xbd839a22	-0.06425883
147	0x3cf61585	0.030039558
148	0xbceb612d	-0.02873286
149	0xbb83b014	-0.004018793
150	0x3da998fa	0.08281131
151	0x3d8e537e	0.069495186
152	0x3da1cd10	0.07900441
153	0xbc24d123	-0.010059628
154	0xbd637b84	-0.055537716
155	0x3d8ad3e3	0.067786954
156	0xbd9dc6ee	-0.077039585
157	0xbd8b5bbe	-0.06804608
158	0xbde72576	-0.11286442
159	0xbdba8ae9	-0.09108526
160	0x3d9b98aa	0.07597478
161	0xbdc6ba22	-0.09703471
162	0xbe054b33	-0.13016967
163	0xbc75d309	-0.015003928
164	0x3de6b167	0.112643056
165	0x3dc56f08	0.09640318
166	0xbbd48e4f	-0.006486691
167	0x3db3665a	0.087597564
168	0x3ddf59ff	0.10905837
169	0xbd22acf4	-0.039715722
170	0x3dd71690	0.1050235
171	0xbdea761e	-0.1144831
172	0x3d903656	0.07041614
173	0xbdfab2d4	-0.1224114
174	0x3d9d118c	0.076693624
175	0x3b904948	0.004403267
176	0x3d176ab0	0.03696698
177	0xbd09206d	-0.03347819
178	0x3dc8fb9e	0.09813617
179	0xbd3a2020	-0.045440793
180	0x3b5d82e3	0.0033799938
181	0x3c556cc5	0.013026421
182	0x3dca8c28	0.09890014
183	0x3d140afe	0.036143295
184	0x3dc5926c	0.096470684
185	0xbd318a84	-0.04334499
186	0xbbd34b61	-0.006448195
187	0x3cfa6fff	0.030570982
188	0xbdcc8d8a	-0.09987934
189	0x3c5293c9	0.012852618
190	0xbbc47309	-0.0059951586
191	0x3d0b8016	0.0340577
192	0x3c52fdd0	0.012877896
193	0x3ded7538	0.11594623
194	0xbdd6495a	-0.104632095
195	0x3df3d61e	0.11906074
196	0xbd81d002	-0.063385025
197	0xbdc63df8	-0.09679788
198	0xbd05e62c	-0.032690212
199	0x3da163fc	0.07880399
200	0x3db8567c	0.090008706
201	0x3cea9988	0.028637663
202	0xbd237d50	-0.03991443
203	0x3cf1b120	0.029503405
204	0x3d290e24	0.04127325
205	0x3d253204	0.0403309
206	0xbc6f1290	-0.014591828
207	0xbdb7de8c	-0.08977994
208	0xbd9f944c	-0.07791957
209	0x3dcd2cde	0.10018323
210	0xbcdd1268	-0.026986316
211	0xbd912936	-0.070879385
212	0x3d1843a0	0.037173867
213	0xbdfd3518	-0.123636425
214	0x3dba663e	0.091015324
215	0x3d184ad4	0.037180737
216	0x3c2be930	0.010492608
217	0x3d956886	0.07295327
218	0xbdd16784	-0.10224822
219	0x3d3c6bc4	0.04600121
220	0xbd24612c	-0.040131733
221	0x3d5845e4	0.052801028
222	0x3dfdbf8a	0.12390049
223	0xbd11197c	-0.035424694
224	0xbc674e30	-0.014117762
225	0xbd63d7a0	-0.055625558
226	0x3cd91088	0.02649714
227	0x3c807708	0.015681759
228	0xbb76b200	-0.0037642717
229	0xbda1495e	-0.07875322
230	0xbc167020	-0.009182006
231	0xbdfec76a	-0.12440379
232	0xbd4372fc	-0.04771708
233	0xbc2d2000	-0.010566711
234	0x3dad28f0	0.08455074
235	0x3c5431b0	0.0129513
236	0xbc002a30	-0.007822558
237	0xbdb7a742	-0.08967449
238	0x3dbba15c	0.09161636
239	0x3dec123c	0.115269154
240	0x3d020804	0.031745926
241	0xbdf4655a	-0.11933394
242	0xbb70f700	-0.0036768317
243	0xbd6e0c78	-0.05811736
244	0xbdf26d9a	-0.11837311
245	0xbde19b26	-0.1101592
246	0xbd497504	-0.04918386
247	0x3da40db6	0.08010428
248	0xbc691f10	-0.014228597
249	0x3da7f756	0.082014725
250	0xbd3190a4	-0.04335083
251	0xbdfda862	-0.12385632
252	0x3da15d9a	0.07879181
253	0x3dc434de	0.09580396
254	0xbdc4e680	-0.09614277
255	0xbd9303e6	-0.07178478

fc1.bias f4 [128]
0	0x3d09dcb3	0.03365774
1	0xbde43af4	-0.11144057
2	0xbc4b6869	-0.01241503
3	0xbd8e34d2	-0.069436684
4	0x3cd2b766	0.025722217
5	0xbdd934f3	-0.106058024
6	0xbdacd5b2	-0.08439197
7	0xbd7494c4	-0.059712186
8	0x3d0b9d0f	0.03408533
9	0xbcb7660d	-0.022387529
10	0xbd9b3377	-0.075781755
11	0x3dfabf1c	0.122434825
12	0xbd648fc2	-0.05580116
13	0xbe00d3b3	-0.12580757
14	0xbdd5f986	-0.104479834
15	0xbdbaa76a	-0.09113963
16	0x3df7b97b	0.120959245
17	0x3d5a1b9d	0.05324899
18	0x3c906caf	0.01762995
19	0x3d5467d3	0.051856827
20	0xbd87ad50	-0.066248536
21	0x3e046083	0.12927441
22	0x3d0de094	0.034638003
23	0xbdab4d94	-0.08364406
24	0x3d315e48	0.043302804
25	0xbc38a380	-0.01126945
26	0xbdf84b30	-0.12123716
27	0x3da5066f	0.08057868
28	0x3d36b624	0.044607297
29	0x3d251960	0.040307403
30	0xbc9bb825	-0.019008705
31	0x3d8cacb2	0.068688765
32	0x3d6ef298	0.058336824
33	0x3d154b18	0.036448568
34	0x3e071dab	0.13194911
35	0x3de7d60c	0.11320123
36	0xbd8abb39	-0.06773991
37	0x3d823f36	0.06359713
38	0xbd71eaf1	-0.05906195
39	0xbd8270cd	-0.06369171
40	0xbcc45000	-0.023963928
41	0x3d856330	0.06513059
42	0xbc975b93	-0.018476283
43	0x3d22048d	0.03955512
44	0xbdd8647d	-0.105660416
45	0xbd6aa0c0	-0.05728221
46	0x3d1cc561	0.038274173
47	0x3d86de11	0.065853246
48	0xbc9c0f07	-0.019050134
49	0xbdeb0132	-0.11474837
50	0xbd88a642	-0.06672336
51	0x3ca0c778	0.019626364
52	0xbb346c40	-0.0027530342
53	0xbdb8d570	-0.09025085
54	0x3d8c1904	0.06840709
55	0xbcc48db0	-0.023993343
56	0x3d601989	0.054711852
57	0xbdadb009	-0.08480842
58	0xbd17f5cd	-0.03709965
59	0xbdbec668	-0.09315187
60	0xbd3ee5b8	-0.046605796
61	0x3dd308f9	0.10304446
62	0xbc5ef6c6	-0.01360864
63	0xbddc21f2	-0.10748662
64	0xbccf2ee2	-0.02529091
65	0xbb17661f	-0.002310164
66	0xbde52e5a	-0.111904815
67	0x3c2081fe	0.009796618
68	0x3df5daca	0.12004621
69	0x3d8db433	0.06919136
70	0xbb87aaca	-0.0041402327
71	0xbdc7ecb1	-0.09761942
72	0x3da6e906	0.081499144
73	0xbd93f2d8	-0.07224053
74	0xbc1547e3	-0.009111377
75	0xbe0d4000	-0.13793945
76	0xbd03c714	-0.032172278
77	0xbddc30d0	-0.10751498
78	0x3cb70d70	0.022345275
79	0xbd33eb2e	-0.043925457
80	0x3ca53040	0.020164609
81	0xbc5d391d	-0.013502386
82	0x3de747b9	0.11292977
83	0xbd6c61fd	-0.057710636
84	0x3dcfbece	0.10143815
85	0x3d9f77f5	0.07786552
86	0x3dade8d8	0.08491677
87	0xbd192af9	-0.037394498
88	0xbd875995	-0.06608883
89	0xbd2d7749	-0.042350087
90	0xbdc7df8c	-0.09759435
91	0xbcc0bb78	-0.023526892
92	0x3da1a467	0.078926854
93	0xbdbdc4f3	-0.09266081
94	0x3dd114de	0.10209058
95	0x3bfe6509	0.007763509
96	0xbdabf776	-0.08396809
97	0xbc653304	-0.013989214
98	0x3dab3671	0.08359993
99	0xbd1087cb	-0.035285752
100	0xbdf2c074	-0.11853114
101	0xbe0c167c	-0.13680452
102	0xbca93622	-0.020655695
103	0x3cd2029c	0.02563601
104	0xbe0312ba	-0.12800112
105	0x3d89536a	0.06705363
106	0x3dc27e45	0.0949674
107	0xbdf7538b	-0.120764814
108	0xbc6a8b92	-0.014315503
109	0xbd82b6e8	-0.06382543
110	0xbdbff27b	-0.09372421
111	0x3de74b18	0.1129362
112	0x3da8023c	0.08203551
113	0xbcf9fda5	-0.030516455
114	0x3d912858	0.07087773
115	0xbe0a8c8a	-0.13530174
116	0x3dcf6c36	0.101280615
117	0xbdf6261f	-0.1201899
118	0x3d4d71b4	0.050157264
119	0xbd6c663e	-0.057714693
120	0x3cdcd0ff	0.026955126
121	0x3d518109	0.05114845
122	0xbd2300c7	-0.039795663
123	0xbd36c67b	-0.04462288
124	0x3d95e0e0	0.07318282
125	0x3db8455c	0.08997604
126	0xbb96758b	-0.004591649
127	0xbda85a8c	-0.082203954

fc2.weight f4 [10, 128]
0	0x3cb0da92	0.021588597
1	0xbd532a3a	-0.051553942
2	0x3ccc1123	0.024910515
3	0x3d8c0859	0.0683753
4	0x3c9d2b94	0.019185819
5	0xbd9d53bf	-0.07681989
6	0xbc9f7e96	-0.01946954
7	0xbd903cdc	-0.07042858
8	0xbd8d0198	-0.068850696
9	0x3da6b350	0.0813967
10	0xbcfc413c	-0.030792825
11	0x3def07fd	0.116714455
12	0x3e6165e3	0.22011523
13	0x3cdbe18c	0.026840948
14	0xbd604549	-0.054753575
15	0x3db56ea2	0.08858992
16	0x3cc1b723	0.023646897
17	0x3c05b723	0.008161339
18	0x3cc4503c	0.02396404
19	0xbc974f96	-0.018470567
20	0x3d818742	0.063246265
21	0x3dd06635	0.101757444
22	0x3cb9784c	0.02264037
23	0x3cd6fafc	0.026242726
24	0xbd3869f6	-0.045022927
25	0x3d915efb	0.07098194
26	0xbd2f70d7	-0.04283222
27	0x3d4ed0b3	0.050492
28	0x3e11ff9a	0.1425766
29	0x3da5d026	0.08096342
30	0x3e32a09c	0.1744408
31	0xbd8f14c4	-0.069863826
32	0x3bdb947a	0.0067010494
33	0xbcec405e	-0.028839286
34	0x3c4c7c18	0.012480758
35	0x3ce25644	0.027629025
36	0x3d98e401	0.07465363
37	0xbd02bc3a	-0.031917788
38	0x3d9642a2	0.07336928
39	0x3cb51b54	0.022107758
40	0x3d4256bd	0.047446
41	0x3cbe9369	0.02326365
42	0xbd1a67c8	-0.03769663
43	0x3c439828	0.011938132
44	0x3d8e5c04	0.06951144
45	0x3e2b5bf2	0.16734293
46	0x3ce054aa	0.027384121
47	0x3db4d2ff	0.08829307
48	0xbcf64f6b	-0.030067166
49	0x3d90ec69	0.07076342
50	0x3ddd1c2c	0.10796389
51	0xbba39176	-0.0049917055
52	0xbd40223a	-0.04690764
53	0xbd98238e	-0.074286565
54	0x3dce68a9	0.10078556
55	0x3e123532	0.14278105
56	0x3d5912a1	0.05299628
57	0x3ce5cc18	0.028051421
58	0x3b62ba9f	0.0034596098
59	0x3d63f5f6	0.05565449
60	0x3e1c03d6	0.15235838
61	0x3e339a33	0.17539291
62	0x3dedc932	0.116106406
63	0x3d41af11	0.047286097
64	0xbe35546c	-0.17707986
65	0x3e035919	0.12826957
66	0x3d4f2ad5	0.050577957
67	0x3d8fb1b0	0.07016313
68	0xbd8d923d	-0.06912658
69	0xbd17f2a3	-0.03709663
70	0x3dc53794	0.09629741
71	0xbdb06191	-0.08612359
72	0xbd885db7	-0.066585
73	0xbd7afa8e	-0.061274104
74	0xba5be12b	-0.00083877397
75	0x3cd1a236	0.025590044
76	0xbc8c1bba	-0.017103065
77	0xbd9eeeed	-0.07760415
78	0xbcfc76f3	-0.030818438
79	0x3daf755a	0.08567305
80	0xbe01f09b	-0.1268944
81	0xbc5e8b54	-0.013583023
82	0xbd972b9d	-0.073813654
83	0xbd394fad	-0.045242
84	0x3ce09441	0.027414443
85	0xbd9683a2	-0.07349326
86	0x3c7ca5c6	0.015420383
87	0x3bb826a5	0.005619841
88	0xbe8d9206	-0.2765047
89	0x3d32b806	0.04363253
90	0x3d0b00f0	0.03393644
91	0xbd6a1c01	-0.057155613
92	0xbd3c83d3	-0.046024155
93	0xbca76c5a	-0.020437408
94	0xbcc1601c	-0.023605399
95	0xbea8acfe	-0.32944483
96	0x3d3dc962	0.04633463
97	0xbc363332	-0.011120604
98	0xbdb27552	-0.08713783
99	0xbd8c8715	-0.06861702
100	0x3dc5093e	0.096209034
101	0xbc04aaf6	-0.008097401
102	0x3d25f569	0.040517244
103	0x3b77e86c	0.0037827743
104	0x3d259863	0.04042853
105	0xbd2d0523	-0.042241227
106	0xbb74b41c	-0.00373388
107	0x3bcdebf3	0.006284231
108	0xbbab5271	-0.0052283336
109	0x3dfb5150	0.122713685
110	0xbd0fb802	-0.035087593
111	0xbd71df8a	-0.059051074
112	0x3e114a1a	0.14188424
113	0xbd154eea	-0.03645221
114	0x3d3d3f0c	0.046202704
115	0xbd40d973	-0.047082376
116	0xbd72b721	-0.059256677
117	0x3c8ee2b5	0.017442087
118	0xbd890a52	-0.066914216
119	0x3dd440b8	0.103639066
120	0xbd9b5bc6	-0.07585864
121	0xbdb6786c	-0.089096874
122	0x3db51f3c	0.08843848
123	0x3cc0c6ad	0.023532236
124	0x3c63f6d9	0.013913834
125	0x3c95f3cc	0.018304728
126	0x3d879361	0.06619907
127	0xbd0d82d3	-0.03454859
128	0xbd9cbd7a	-0.07653327
129	0xbc8b03d5	-0.0169696
130	0x3d622c2e	0.055217914
131	0x3d394bed	0.045238424
132	0xba0f35bd	-0.0005463025
133	0x3e31257e	0.17299458
134	0xbd052c75	-0.0325131
135	0x3da220d2	0.07916416
136	0xbd90e694	-0.07075229
137	0x3d7406bd	0.05957674
138	0x3de694c7	0.11258846
139	0xbda903dd	-0.0825269
140	0xbe09c8a9	-0.13455452
141	0x3c9844c7	0.018587483
142	0x3e0c1e52	0.13683441
143	0x3d010eea	0.031508364
144	0x3ddab781	0.10679532
145	0xbc5b7d96	-0.013396641
146	0xbd2dd2d0	-0.042437375
147	0x3dd2d8f7	0.10295289
148	0xbb06c280	-0.0020562708
149	0xbbf3958a	-0.007433598
150	0xbd814d16	-0.06313531
151	0x3cbcebd5	0.023061672
152	0xbd56795f	-0.052361842
153	0x3c60733b	0.013699348
154	0x3de3f1de	0.11130117
155	0xbc96d825	-0.018413613
156	0x3c84f4d4	0.016230024
157	0xbbc26dec	-0.005933514
158	0xbc9850b4	-0.01859317
159	0x3d69c423	0.057071816
160	0xbd1bcc23	-0.038036477
161	0xbd85f52d	-0.06540904
162	0x3d5d5bdf	0.054042693
163	0xbcb9da28	-0.022687033
164	0xbd888cc9	-0.06667478
165	0xbd957e87	-0.07299524
166	0x3d9cb11d	0.07650969
167	0x3ade1a6d	0.0016945131
168	0xbca8cb46	-0.02060474
169	0x3dfcbd98	0.1234085
170	0x3d9ec24b	0.07751902
171	0xbd437663	-0.047720324
172	0x3d92186d	0.07133565
173	0xbe4ba476	-0.19886956
174	0xbca66d07	-0.02031566
175	0x3d2fcc94	0.04291971
176	0xbd1d1f4e	-0.038359933
177	0x3d149d6a	0.036282934
178	0xbd3e900f	-0.046524104
179	0xbb51b9c7	-0.00320016
180	0x3c94edc8	0.01817979
181	0x3e0b086a	0.13577428
182	0x3d84a5b6	0.06476919
183	0xbd8025bc	-0.06257197
184	0x3d58f1d8	0.052965015
185	0xbc23a0e1	-0.009987087
186	0x3de376b2	0.11106624
187	0xbd0411a3	-0.032243382
188	0x3c7f4cf4	0.015582312
189	0xbdfc8d55	-0.123316444
190	0x3cafe75a	0.021472622
191	0xbd7763b6	-0.060397826
192	0x3e644a45	0.22293957
193	0xba3354fe	-0.0006840973
194	0xbd6b1dd8	-0.057401508
195	0x3d8780f5	0.066163935
196	0xbd6ab77e	-0.057303898
197	0x3cdfab4f	0.027303366
198	0x3db044fc	0.08606908
199	0x3dc4c969	0.096087284
200	0xbd51c95d	-0.051217426
201	0xbbc398b7	-0.0059691328
202	0xbca0f603	-0.019648558
203	0xbc99137e	-0.018686052
204	0x3d32733e	0.043566935
205	0xbd1be9c3	-0.03806473
206	0x3ca51f43	0.020156508
207	0x3ddfebc3	0.1093364
208	0x3e51f5cf	0.20503925
209	0x3ca58b7d	0.020208115
210	0x3d519b18	0.0511733
211	0x3ac7bf9d	0.00152396
212	0xbcea142d	-0.028574074
213	0x3d8690b5	0.065705694
214	0x3d7d55ca	0.061849393
215	0xbd4f24a5	-0.050572056
216	0x3ea0549c	0.31314552
217	0x3ceb7f91	0.028747352
218	0xbcdef7cf	-0.027217774
219	0xbd7ee556	-0.06223043
220	0xbd7f8675	-0.062384088
221	0xbc6f7011	-0.014614121
222	0xbc814cb6	-0.015783649
223	0x3e96b8de	0.29437917
224	0x3c6de40e	0.0145197045
225	0x3db4c81f	0.088272326
226	0xbd526cc5	-0.051373262
227	0xbd99fa23	-0.07518413
228	0x3d9515ff	0.07279586
229	0xbd4ba3ae	-0.049716644
230	0x3bf8eff9	0.0075969663
231	0x3dc1c59e	0.094615206
232	0xbd93b94b	-0.07213076
233	0xbd80642e	-0.06269108
234	0xbd515165	-0.051103014
235	0xbd2fa5dc	-0.042882785
236	0x3c4ccb23	0.012499603
237	0xbd817919	-0.06321926
238	0xbca08a57	-0.019597216
239	0x3d5cb974	0.0538878
240	0x3c3b64fa	0.011437649
241	0xbd3bb63f	-0.0458281
242	0x3cc9a082	0.024612669
243	0xbd227054	-0.039657906
244	0xbd04843e	-0.03235268
245	0xbd701c94	-0.058621004
246	0x3d5bde8a	0.053679027
247	0x3cf3437e	0.029695269
248	0x3e37229e	0.17884299
249	0x3e152d5c	0.14568084
250	0xbe1083d2	-0.14112785
251	0x3bac9e33	0.0052678823
252	0xbdb4bf6c	-0.08825573
253	0xbd8b0261	-0.06787563
254	0xbd3dfa4e	-0.046381287
255	0x3da8b0ae	0.08236824

fc2.bias f4 [10]
0	0x3d3422d4	0.043978527
1	0x3b93e96f	0.0045139114
2	0xbd9aa0a6	-0.075501725
3	0xbde9aede	-0.114103064
4	0xbc91ebcc	-0.017812632
5	0xbd9beb71	-0.07613266
6	0x3cbfedb3	0.023428774
7	0xbd1d66c8	-0.038428098
8	0xbbc08959	-0.005875748
9	0xbdae2541	-0.08503199
