CNN_RNNv1.pth (torch, 222874 bytes, 10 tensors)

conv1.weight f4 [32, 1, 3, 1]
0	0x3eca8408	0.39553857
1	0xbee3dab5	-0.44502798
2	0xbea203e9	-0.31643608
3	0x3da6159e	0.08109592
4	0x3ec37352	0.3817392
5	0xbd91285d	-0.07087777
6	0x3ea3bdb4	0.3198067
7	0xbe83c38a	-0.25735122
8	0xbc2f8a4b	-0.010714124
9	0x3d84dcee	0.064874515
10	0xbe8428d7	-0.25812408
11	0xbee1626c	-0.44020402
12	0xbe2ae7eb	-0.16690032
13	0xbe43f32a	-0.19135728
14	0x3d6e20e8	0.05813685
15	0xbe9e5c81	-0.3092995
16	0x3f0748bd	0.52845365
17	0xbf08b955	-0.53407794
18	0x3e5d8f0f	0.21636604
19	0x3e6833f5	0.2267607
20	0x3ec86fb7	0.39147732
21	0xbed070be	-0.40711015
22	0x3e668ad8	0.22513902
23	0xbeead5d6	-0.4586627
24	0x3d9c439b	0.07630082
25	0xbe8838e1	-0.26605895
26	0x3e81d8d7	0.25360748
27	0x3f00a677	0.50254005
28	0x3e10d826	0.14144954
29	0x3da34ad1	0.079732545
30	0x3e41fe8e	0.18944761
31	0x3e717075	0.23578055
32	0x3ecacefc	0.39611042
33	0xbe89455b	-0.26810727
34	0x3e32e72d	0.17470999
35	0xbf0e0f90	-0.55492496
36	0x3f00c19d	0.5029543
37	0xbe1413cb	-0.14460675
38	0x3df3a107	0.11895948
39	0x3e1bd768	0.1521889
40	0xbe58e17d	-0.21179767
41	0x3e6e17c7	0.23251258
42	0xbd7006a1	-0.05860007
43	0xbe99b19c	-0.30018318
44	0xbe4daf13	-0.20086317
45	0xbeb65ba9	-0.35616806
46	0x3b9b0c68	0.0047317035
47	0x3e9e1681	0.30876544
48	0x3e0ab5ac	0.13545865
49	0x3eb86dea	0.36021358
50	0x3dcaf1b2	0.09909381
51	0xbe36c196	-0.17847285
52	0x3ec48e62	0.3838988
53	0xbe01d6af	-0.12679552
54	0xbeaba3dc	-0.33523452
55	0x3dd2896b	0.10280117
56	0x3e499586	0.19685945
57	0xbeebd443	-0.4606038
58	0x3e85bd9f	0.26121232
59	0x3ea7e2c3	0.32790193
60	0xbef86a74	-0.48518717
61	0x3d4aeb03	0.04954053
62	0x3f1129fa	0.56704676
63	0xbf0cb9d0	-0.5497103
64	0xbede01e7	-0.43360826
65	0xbeb9f748	-0.36321473
66	0x3ebcd212	0.3687902
67	0xbed45e64	-0.41478264
68	0xbec5feeb	-0.3867105
69	0x3e94bb19	0.29048994
70	0xbe76c099	-0.24096908
71	0xbe15cbae	-0.14628479
72	0x3db8dde1	0.09026695
73	0xbf0b6fd5	-0.5446752
74	0x3eee856b	0.46586165
75	0x3eebd76b	0.46062788
76	0xbec77693	-0.38957652
77	0xbe5a1263	-0.21296076
78	0x3e95f840	0.29290962
79	0xbeb946d9	-0.36186865
80	0xbed83905	-0.42231002
81	0xbe1466ce	-0.14492342
82	0x3f094b4a	0.53630507
83	0xbedbc09a	-0.4292038
84	0x3e2b0a5c	0.1670317
85	0x3f098322	0.5371572
86	0xbea1671e	-0.31523985
87	0xbed6fe0c	-0.41990697
88	0xbef3b0ca	-0.47595817
89	0x3d84b863	0.064804815
90	0xbe8c27a8	-0.27374005
91	0xbf10232b	-0.5630366
92	0x3f10e6a2	0.5660192
93	0x3ec6677c	0.38750827
94	0x3efac1bf	0.48975942
95	0x3eef958f	0.46793792

conv1.bias f4 [32]
0	0xbe77cc18	-0.2419895
1	0x3e066462	0.1312423
2	0x3eb1d3c2	0.3473187
3	0x3b87173a	0.004122642
4	0xbe868de7	-0.26280138
5	0x3e21be55	0.15795262
6	0x3ece0a0e	0.40242046
7	0xbe3cf585	-0.18453033
8	0x3e2148c5	0.15750416
9	0xbf11ce0d	-0.56955034
10	0xbe771ed1	-0.2413285
11	0xbf0319be	-0.51211154
12	0xbf0f36e6	-0.55943143
13	0xbf0a6234	-0.54056096
14	0x3de65d58	0.11248273
15	0x3e244d53	0.16045122
16	0x3f125844	0.5716593
17	0x3eda53e3	0.42642125
18	0xbe2a17e9	-0.16610684
19	0x3ea8618e	0.32886928
20	0xbed0ac6c	-0.40756547
21	0x3deeccb6	0.11660139
22	0x3f02ea03	0.51138324
23	0x3e36aaf5	0.17838652
24	0xbd6b9d20	-0.057522893
25	0xbeab5ef7	-0.3347089
26	0xbe49027e	-0.19629857
27	0xbf059916	-0.52186716
28	0xbe6b941f	-0.23005722
29	0xbd9cd546	-0.07657866
30	0x3e2f3b9a	0.1711258
31	0x3dc86620	0.09785104

rnn.weight_ih_l0 f4 [64, 640]
0	0x3d33ff66	0.04394474
1	0xbb1564ec	-0.002279575
2	0xbc344980	-0.011003852
3	0xbd9fa488	-0.07795054
4	0xbdd01551	-0.10160316
5	0x3cc7b8d5	0.024380127
6	0x3dc42724	0.09577778
7	0xbe06e807	-0.13174449
8	0xbda1627c	-0.078801125
9	0xbd0ef12e	-0.034897976
10	0xbd13fb18	-0.036128134
11	0x3c00f86f	0.007871731
12	0x3dad32d0	0.08456957
13	0xbcdd6c51	-0.027029188
14	0xbd93736d	-0.0719975
15	0xbd912ec9	-0.07089002
16	0x3c8f7779	0.017513024
17	0xbce9c6cf	-0.028537182
18	0x3ce419a1	0.027844252
19	0xbde9765b	-0.11399528
20	0x3b8f042e	0.004364512
21	0x3dbc7c5f	0.092034094
22	0x3d0bfbd5	0.034175713
23	0xbd689613	-0.056783747
24	0xbe042a70	-0.12906814
25	0xbd2fbce9	-0.04290477
26	0x3cec1bf0	0.028821915
27	0xbdef43b3	-0.116828345
28	0xbc13a4c8	-0.009011455
29	0xbda6db4a	-0.08147295
30	0x3dccab05	0.09993557
31	0xbd2aa143	-0.041657697
32	0x3cf9dae9	0.030499892
33	0x3d48c1f3	0.04901309
34	0xbd81a06d	-0.06329427
35	0x3da50937	0.08058398
36	0xbdcbcbb5	-0.099509634
37	0x3d912a7b	0.07088181
38	0xbc8bb0a1	-0.017051997
39	0xbcc05e63	-0.023482507
40	0x3d34d93e	0.04415249
41	0x3ce9707a	0.028496016
42	0xbdca476b	-0.09876903
43	0x3c28b0cf	0.010296061
44	0x3ccfb5e6	0.02535529
45	0x3daf24e8	0.08551961
46	0xbdf1121b	-0.117710315
47	0x3dce0d8e	0.10061179
48	0x3dab12fc	0.0835323
49	0x3d989966	0.074511334
50	0x3c9babdb	0.019002846
51	0x3d574d9c	0.05256425
52	0x3d4cf286	0.050035976
53	0xbd2f8918	-0.042855352
54	0xbca537b0	-0.020168155
55	0x3dd3c7ee	0.10340868
56	0x3d958a71	0.07301796
57	0x3d028541	0.031865362
58	0x3bd1119d	0.0063802735
59	0xbd2f6aa6	-0.042826317
60	0xbd76ea87	-0.060282256
61	0xbd4df670	-0.05028385
62	0xbe0092f5	-0.1255606
63	0xbdda2433	-0.10651436
64	0xbb9cc701	-0.0047844653
65	0xbd5a75bb	-0.053334933
66	0xbd5f276e	-0.054480962
67	0xbda62c0e	-0.081138715
68	0x3dde1de1	0.10845543
69	0x3d8f7fb0	0.07006776
70	0x3cd251a7	0.0256737
71	0x3d3627b4	0.044471458
72	0xbd9453ce	-0.07242547
73	0x3c6c7a77	0.014433495
74	0x3bbebe73	0.005821043
75	0x3dcc44c1	0.09974051
76	0xbced708a	-0.028984327
77	0xbdd8f78a	-0.10594089
78	0x3cbff9f2	0.023434613
79	0xbd984d62	-0.074366346
80	0xbb793616	-0.0038026622
81	0x3d615de0	0.055021167
82	0x3d41866b	0.04724733
83	0xbdb8ca74	-0.0902299
84	0x3dcea627	0.10090285
85	0xbd8edeac	-0.06976065
86	0xbcebc107	-0.028778566
87	0x3db3ab0b	0.08772858
88	0xbd48fd7a	-0.04906986
89	0x3c50465b	0.012712087
90	0x3dbd462b	0.09241899
91	0xbc8c22bb	-0.017106405
92	0x3d78680e	0.06064611
93	0xbd966c93	-0.07344928
94	0x3c325c7e	0.01088631
95	0x3d36dc30	0.04464358
96	0xbd7d89ca	-0.061898984
97	0x3d496651	0.049169842
98	0x3db7d736	0.08976595
99	0x3dd7c389	0.10535342
100	0x3d0f0bef	0.03492349
101	0x3d461c83	0.048367035
102	0x3ddc787d	0.10765169
103	0x3d51e4cb	0.051243585
104	0x3da92916	0.0825979
105	0xbdb7497a	-0.089495614
106	0xbddf6089	-0.109070845
107	0x3da6ae0b	0.08138665
108	0x3dda16e8	0.106489
109	0xbdfb3a5a	-0.12266989
110	0xbcde0fb3	-0.027107095
111	0x3ce830c7	0.028343571
112	0x3dc8fc4f	0.09813749
113	0xbb688f44	-0.0035485784
114	0xbdefcecf	-0.117093675
115	0x3dbae820	0.091263056
116	0xbdd3cb78	-0.10341543
117	0x3d093d60	0.033505797
118	0x3dc84901	0.097795494
119	0x3a05b779	0.0005100887
120	0x3df44a9a	0.119282916
121	0x3dadd3e7	0.08487683
122	0x3d5d25d6	0.05399116
123	0x3d9c8b0e	0.0764371
124	0xbcf0beb7	-0.029387815
125	0xbd2c07bc	-0.041999564
126	0x3d3480a9	0.044068012
127	0xbdfc7cd0	-0.123284936
128	0x3dc2f564	0.09519461
129	0xbe0347cd	-0.12820359
130	0x3d02f5cd	0.031972695
131	0x3d2eb11d	0.042649377
132	0x3cfc1f4e	0.030776646
133	0xbc038627	-0.00802759
134	0xbd4f60a9	-0.05062929
135	0xbd644d90	-0.055738032
136	0xbdd0a4df	-0.10187697
137	0x3d255bb5	0.04037066
138	0x3d6defb3	0.058089923
139	0xbcee9c16	-0.029127162
140	0xbc44fd95	-0.012023349
141	0xbd8c8bb3	-0.06862583
142	0x3c91b35c	0.01778572
143	0x3daf3e3c	0.08556792
144	0xbd4ea2b9	-0.050448153
145	0xbbb7c865	-0.0056086057
146	0x3d937384	0.07199767
147	0x3dbaf3cd	0.091285326
148	0x3daadff0	0.08343494
149	0xbdaac4cf	-0.083383195
150	0x3cbad9b6	0.02280889
151	0xbdaf341a	-0.085548595
152	0xbc125e49	-0.008933612
153	0xbdca8410	-0.0988847
154	0xbd819605	-0.06327442
155	0xbdacb159	-0.08432264
156	0x3d846384	0.064642936
157	0x3da9b141	0.082857616
158	0xbd46e1bb	-0.048555117
159	0x3d465a33	0.048425864
160	0x3dd053e9	0.101722546
161	0xbdda5b2b	-0.1066192
162	0x3dad0467	0.08448105
163	0xbd1fc6eb	-0.039008062
164	0x3dc5baa4	0.096547395
165	0xbdc43823	-0.0958102
166	0xbe02a643	-0.12758736
167	0xbd511199	-0.051042173
168	0xbdcc24c6	-0.099679515
169	0xbd48c754	-0.04901822
170	0x3d333c8d	0.043758918
171	0xbd796119	-0.060883615
172	0xbdcce10e	-0.10003863
173	0x3d3bff7f	0.045897957
174	0x3dc05d39	0.09392781
175	0x3dd927ad	0.10603271
176	0x3da4b522	0.08042361
177	0xbdd9d8ba	-0.106370404
178	0x3de0adc7	0.109706454
179	0x3a42b956	0.000742813
180	0xbddcf26a	-0.10788424
181	0xbba46b57	-0.0050176787
182	0x3d318868	0.043342978
183	0xbd70392f	-0.058648285
184	0x3dcf0f1b	0.10110303
185	0xbc9225ed	-0.01784035
186	0x3d2609e1	0.040536765
187	0x3d554856	0.052070938
188	0xbdf4051c	-0.11915037
189	0xbe0337b7	-0.12814222
190	0x3ce3aead	0.027793253
191	0x3db05fc1	0.086120136
192	0x3bd14dbe	0.0063874414
193	0x3dc0480e	0.09388743
194	0xbd8071a4	-0.06271675
195	0xbd50c4ed	-0.050969053
196	0xbba50bcd	-0.005036807
197	0x3d337a09	0.043817554
198	0x3db89dc6	0.09014468
199	0x3d222deb	0.039594572
200	0x3d341364	0.043963805
201	0xbd5bed86	-0.053693317
202	0xbb687b1d	-0.0035473772
203	0x3d494f7d	0.04914807
204	0xbdf0eca2	-0.11763884
205	0xbdc87bbe	-0.09789227
206	0x3dba96e0	0.09110808
207	0x3d384a2c	0.04499261
208	0x3c166f70	0.009181842
209	0xbdc4ab32	-0.096029654
210	0x3d62d6b9	0.055380557
211	0xbda65f52	-0.0812365
212	0x3d22a919	0.039712045
213	0x3d011a57	0.03151926
214	0xbd50f3e8	-0.051013857
215	0x3d9bbe4e	0.07604657
216	0xbd99d766	-0.07511787
217	0x3dd425b5	0.103587545
218	0x3da7430d	0.08167086
219	0xbd1e0a4c	-0.03858404
220	0xbdc53b14	-0.09630409
221	0xbc3cc3e0	-0.01152131
222	0x3d23000e	0.039794974
223	0xbd69c87b	-0.05707596
224	0x3d3dc934	0.04633446
225	0xbd61c2dd	-0.055117477
226	0xbd4359cf	-0.04769307
227	0xbd11cbfb	-0.03559492
228	0xbd9b76a3	-0.075909875
229	0x3ce96678	0.028491244
230	0xbdd526af	-0.10407769
231	0x3df0b68c	0.11753568
232	0xbc35a5cd	-0.011086893
233	0xbd8ec52a	-0.069712
234	0xbde8cdfd	-0.11367414
235	0x3db023e1	0.08600593
236	0xbdba460a	-0.0909539
237	0x3cf382ae	0.029725399
238	0xbd15a309	-0.036532436
239	0x3dcd71b3	0.10031452
240	0x3cc772fb	0.02434682
241	0x3de73e5d	0.11291192
242	0xbd27bee6	-0.04095354
243	0xbd666424	-0.056247845
244	0xbda2477c	-0.07923791
245	0x3bc3a980	0.0059711337
246	0xbd847aca	-0.06468733
247	0xbd601513	-0.054707598
248	0xbdad498f	-0.08461296
249	0xbdd0a3e6	-0.10187511
250	0xbde2b8f1	-0.11070431
251	0xbdbdd11f	-0.09268402
252	0xbd9bf829	-0.07615692
253	0xbdd12c34	-0.10213509
254	0x3d87ad78	0.066248834
255	0x3dcb59ae	0.099292144

rnn.weight_hh_l0 f4 [64, 64]
0	0x3c7e2b90	0.015513316
1	0xbcc51270	-0.024056643
2	0x3d310f78	0.043227643
3	0x3d453bcc	0.04815273
4	0xbbd906a0	-0.006623104
5	0xbd4942f8	-0.049136132
6	0x3dcc6b00	0.09981346
7	0x3d57980c	0.052635238
8	0x3d49581c	0.049156293
9	0x3cabe6d8	0.020984098
10	0xbc0fe730	-0.008783147
11	0x3dd36902	0.10322763
12	0xbddfe55e	-0.1093242
13	0x3c810988	0.015751615
14	0xbdc39070	-0.09549034
15	0xbbec8360	-0.0072178096
16	0x3d987838	0.07444805
17	0xbd777ca4	-0.0604216
18	0xbd27f470	-0.0410046
19	0xbccf2c10	-0.025289565
20	0x3ddb01e4	0.1069372
21	0xbd46a484	-0.048496738
22	0x3d8417de	0.06449865
23	0xbd6de91c	-0.05808364
24	0x3dc359b4	0.09538594
25	0x3d9550fc	0.07290837
26	0xbdc7c6ee	-0.0975474
27	0x3ddadfa8	0.1068719
28	0xbdd58ed6	-0.104276344
29	0x3db7a8ea	0.08967765
30	0xbc75c800	-0.015001297
31	0xbdb1f822	-0.08689906
32	0x3dc362a2	0.09540297
33	0x3df0dcd6	0.11760871
34	0x3c28a3c0	0.010292947
35	0xbd93bdaa	-0.0721391
36	0xbd0c5e48	-0.0342696
37	0xbd06ef98	-0.03294334
38	0xbcaa0628	-0.020754889
39	0xbc5052e0	-0.012715071
40	0xbbd49c80	-0.006488383
41	0x3d737348	0.059436113
42	0xbb4e5980	-0.0031486452
43	0xbb280100	-0.0025635362
44	0x3dd7f536	0.10544817
45	0x3d9440a2	0.0723889
46	0x3ca36950	0.019947678
47	0xbd0e4bc4	-0.034740224
48	0x3dca04d6	0.09864204
49	0xbdb56f2e	-0.088590965
50	0xbcdd8bf0	-0.027044266
51	0x3db5532c	0.088537544
52	0xbdf134f0	-0.11777675
53	0x3d6bf548	0.057606965
54	0xbd67ff80	-0.05664015
55	0x3cdcb878	0.02694343
56	0xbb9e9f00	-0.0048407316
57	0x3dadc5a0	0.084849596
58	0xbd050164	-0.03247203
59	0xbd4540d8	-0.048157543
60	0x3d690298	0.05688724
61	0x3df6e842	0.120560184
62	0xbd971cea	-0.07378562
63	0xbd512804	-0.051063552
64	0x3dab323a	0.08359189
65	0xbca11878	-0.019664988
66	0x3cfab618	0.030604407
67	0xbb8ae900	-0.0042392015
68	0xbcb07b40	-0.021543145
69	0xbbefa020	-0.0073127896
70	0xbd29c604	-0.041448608
71	0x3dbc7046	0.09201102
72	0x3df10e64	0.11770323
73	0xbd42f85c	-0.047600135
74	0xbd0f5af0	-0.034998834
75	0xbce49bd8	-0.027906343
76	0xbd862f58	-0.06551999
77	0xbdf5c410	-0.120002866
78	0x3d065910	0.03279978
79	0xbc9cba78	-0.019131884
80	0x3d7ae860	0.061256766
81	0x3d5a0430	0.05322665
82	0x3db37dba	0.08764215
83	0xbcb9c878	-0.022678599
84	0x3c803128	0.01564844
85	0x3ba12520	0.0049177557
86	0x3df28ef4	0.118436724
87	0xbdc32c5a	-0.09529944
88	0xbddf252e	-0.10895763
89	0xbd8907c4	-0.06690934
90	0x3de8b824	0.11363247
91	0x3c55f640	0.013059199
92	0x3dd82874	0.10554591
93	0x3d9ce2d0	0.076604486
94	0xbc7046d0	-0.0146653205
95	0xbb9cb8e0	-0.004782781
96	0xbdc37a68	-0.095448315
97	0x3def5b0c	0.11687288
98	0xbde6be34	-0.11266747
99	0x3d4e5ea4	0.050383225
100	0xbd037b98	-0.03210029
101	0x3d45f1f4	0.048326448
102	0x3dd0e8fe	0.1020069
103	0x3d5d69c8	0.05405596
104	0x3d60da5c	0.054895744
105	0x3df3044e	0.118660554
106	0x3de52156	0.11187999
107	0x3d9b610e	0.07586871
108	0xbd9f5606	-0.077800795
109	0x3c0e7c80	0.008696675
110	0xbdab16d2	-0.08353962
111	0x3c10fe60	0.00884971
112	0xbc9f8fd0	-0.019477755
113	0x3daec35c	0.085333556
114	0xbd116688	-0.035498172
115	0xbdfa9734	-0.12235871
116	0x3c4bc1f0	0.012436375
117	0x3da75dee	0.081722125
118	0x3de73460	0.112892866
119	0x3dc3c39c	0.09558794
120	0x3dfe4608	0.12415701
121	0x3dd5656c	0.10419735
122	0x3daf60ee	0.0856341
123	0xbde2a396	-0.11066358
124	0xbd8d9d60	-0.069147825
125	0xbb889000	-0.0041675568
126	0xbd5cfc78	-0.05395171
127	0xbdc7d0dc	-0.09756634
128	0x3d8f0fb8	0.0698542
129	0xbdfb0dc2	-0.122584835
130	0xbc85be68	-0.016326144
131	0x3db70256	0.089359924
132	0x3c55a710	0.013040319
133	0xbd7aa4b0	-0.061192214
134	0xbdc826e8	-0.09773046
135	0x3c188ac0	0.009310424
136	0xbc883dd0	-0.016631037
137	0xbdc90946	-0.09816222
138	0xbdfe1552	-0.1240641
139	0xbdd92d82	-0.10604383
140	0xbd76e400	-0.06027603
141	0xbba3a0a0	-0.004993513
142	0x3d532110	0.051545203
143	0xbdb13cc0	-0.08654165
144	0xbdf90ea8	-0.121609986
145	0xbd13a224	-0.0360433
146	0x3dcf83ae	0.10132538
147	0xbdf19a2e	-0.117969856
148	0xbdd08954	-0.10182443
149	0x3c598df0	0.013278469
150	0xbdcb2458	-0.099190414
151	0xbd6c6d64	-0.05772151
152	0x3de2072a	0.11036523
153	0xbb9702e0	-0.004608497
154	0x3d18a16c	0.03726332
155	0xbc1da340	-0.009621441
156	0xbdd3ead2	-0.10347523
157	0xbdf47022	-0.1193545
158	0x3c438af0	0.011934981
159	0x3d6fe9cc	0.058572575
160	0x3dd80dac	0.10549483
161	0xbdebb3c2	-0.115088955
162	0xbd36eec0	-0.044661283
163	0x3df99a60	0.12187648
164	0x3ddad246	0.10684638
165	0x3d125da0	0.03573382
166	0x3b9c5680	0.004771054
167	0xbde4f996	-0.11180417
168	0x3df5c676	0.12000744
169	0x3d3ab454	0.04558213
170	0xbdd44fc6	-0.10366778
171	0x3d6efd54	0.05834706
172	0x3daaa4ca	0.08332212
173	0xbafeda00	-0.0019443631
174	0x3c4a9030	0.012363479
175	0xbd80ea78	-0.06294721
176	0xbdff38ea	-0.12462027
177	0xbd047544	-0.032338396
178	0xbc58c0d0	-0.013229564
179	0xbdcf1c1e	-0.10112785
180	0xbd0263ec	-0.031833574
181	0xbd298338	-0.041384906
182	0x3d65b1b4	0.056077674
183	0x3df908f2	0.12159909
184	0x3dbb0122	0.091310754
185	0xbd41c9f8	-0.047311753
186	0x3dc466a6	0.09589891
187	0xbc64b9a0	-0.013960272
188	0x3ddec428	0.108772576
189	0x3ddec504	0.108774215
190	0xbcb87568	-0.022516921
191	0xbdb219aa	-0.08696301
192	0xbd8e0388	-0.06934267
193	0xbd4f759c	-0.05064927
194	0xbd5aa9e8	-0.05338469
195	0xbd96f656	-0.073712036
196	0x3d738ed0	0.05946237
197	0xbb81eb40	-0.0039648116
198	0xbcc634e8	-0.02419515
199	0xbd1d0278	-0.038332433
200	0xbc19d560	-0.0093892515
201	0x3dbdfc1c	0.09276602
202	0x3d9cbf28	0.07653648
203	0xbd4f8f04	-0.0506735
204	0xbcc7e110	-0.02439931
205	0x3dea47a4	0.114394456
206	0xbd998bfe	-0.074974045
207	0xbbaa9080	-0.005205214
208	0xbc6213a0	-0.013798624
209	0x3c0cd330	0.008595273
210	0x3d679668	0.056539923
211	0xbd42c8e4	-0.047554865
212	0x3dcd684e	0.1002966
213	0x3dfc77b4	0.12327519
214	0xbcdf44e0	-0.027254522
215	0xbc0d4020	-0.008621246
216	0x3ded8a88	0.11598688
217	0xbcc17960	-0.023617446
218	0x3d00423c	0.031313166
219	0x3d8ce560	0.06879687
220	0xbc562b30	-0.01307182
221	0x3ddb866e	0.10719
222	0x3db98492	0.09058489
223	0x3cb543b0	0.022127002
224	0xbd953c84	-0.07286933
225	0x3d8960c2	0.06707908
226	0x3d2aa294	0.041658953
227	0x3dc3cd40	0.09560633
228	0x3cd01cd8	0.025404379
229	0x3de41ba2	0.11138083
230	0xbb95fb40	-0.0045770705
231	0xbcc4c8f0	-0.024021596
232	0xbd3a92c8	-0.045550138
233	0xbdbeda50	-0.093189836
234	0xbdd5a1d0	-0.10431254
235	0x3badc060	0.005302474
236	0xbdea7d9c	-0.11449739
237	0x3de97ac8	0.11400372
238	0xbddbc36e	-0.10730635
239	0x3db6db76	0.089285776
240	0x3d630460	0.055424094
241	0xbdf2b9be	-0.11851834
242	0xbde0020a	-0.10937889
243	0x3d5409a8	0.05176702
244	0x3d27535c	0.040850982
245	0x3da2759e	0.0793259
246	0xba151b00	-0.0005687922
247	0xbdcdb580	-0.10044384
248	0x3dc173b6	0.09445898
249	0x3dc5262c	0.09626421
250	0xbb0afcc0	-0.002120778
251	0xbdef9c1e	-0.11699699
252	0x3dbb71ce	0.09152566
253	0xbdba60e0	-0.09100509
254	0xbd5f0c7c	-0.054455265
255	0x3d9e1d00	0.07720375

rnn.bias_ih_l0 f4 [64]
0	0xbbfbd24f	-0.007684983
1	0x3d9ff4d4	0.07810369
2	0x3b225eee	0.002477582
3	0xbcb2b8f8	-0.021816716
4	0x3da39b40	0.07988596
5	0x3de01c2f	0.109428756
6	0xbd50dcc8	-0.050991803
7	0xbc7c0ffb	-0.015384669
8	0xbdd18b5c	-0.10231659
9	0xbdef10b6	-0.11673109
10	0x3dad5b82	0.08464719
11	0xbcaf3ee8	-0.0213923
12	0x3d4d93fc	0.050189957
13	0x3cf12350	0.029435784
14	0x3b6854c0	0.0035450906
15	0x3d585258	0.052812904
16	0x3d87a03c	0.06622359
17	0xbc54907a	-0.012973899
18	0x3d7d4744	0.061835542
19	0xbdf53448	-0.119728625
20	0x3d4731fe	0.04863166
21	0xbd85ce16	-0.065334484
22	0xbd087d88	-0.03332284
23	0xbc55d9f0	-0.013052449
24	0xbc88ffe0	-0.016723573
25	0xbdb57109	-0.0885945
26	0x3c2fdbf0	0.0107335895
27	0xbd800ad6	-0.06252067
28	0x3d4f3400	0.0505867
29	0xbaf350f2	-0.0018563552
30	0xbd251d2c	-0.040311024
31	0xbda9a230	-0.08282888
32	0xbd064f44	-0.032790437
33	0xbc28b0ca	-0.010296056
34	0xbdb45352	-0.088049546
35	0xbbef6abc	-0.007306425
36	0xbc813050	-0.015770108
37	0xbda5751c	-0.080789775
38	0xbdf3ff82	-0.119139686
39	0xbd305dc4	-0.043058172
40	0x3d869100	0.06570625
41	0x3dca4428	0.09876281
42	0x3dc78646	0.097424075
43	0x3b8413c0	0.0040306747
44	0x3df7566c	0.120770305
45	0x3d331e0c	0.043729827
46	0x3d80c519	0.062875934
47	0xbd90cdd8	-0.070705116
48	0xbbffc5cb	-0.007805561
49	0x3d562028	0.05227676
50	0x3b45dbc0	0.0030190796
51	0xbdff9299	-0.12479133
52	0xbdf978ce	-0.12181245
53	0xbdb7b00e	-0.08969127
54	0x3cddf830	0.027095884
55	0x3df54f3a	0.11978002
56	0xbca9069b	-0.020633033
57	0xbdf8e79c	-0.12153551
58	0x3dddafc4	0.1082454
59	0x3d5dd6f0	0.05416006
60	0x3d4bdc84	0.049770847
61	0xbdeceac4	-0.115682155
62	0xbdf481f6	-0.119388506
63	0x3dd8bb96	0.10582654

rnn.bias_hh_l0 f4 [64]
0	0xbda00f72	-0.07815446
1	0xbd4d8678	-0.050177068
2	0x3d7aa787	0.061194923
3	0xbdb8ef50	-0.0903002
4	0xbd3ddc64	-0.04635276
5	0xbdb2e665	-0.087353505
6	0xbd99d098	-0.07510489
7	0x3d556b17	0.052104082
8	0x3dc05dac	0.093928665
9	0xbc601eb0	-0.0136791915
10	0xbce06fd8	-0.027397081
11	0xbb86a980	-0.0041095614
12	0x3dfbe798	0.123000324
13	0x3cc59218	0.024117514
14	0xbd08de48	-0.03341511
15	0xbca0c320	-0.019624293
16	0x3c881238	0.01661025
17	0xbcb98e01	-0.02265072
18	0xbde273ba	-0.11057229
19	0xbdab339c	-0.08359453
20	0xbcd409a0	-0.025883496
21	0xbcffd338	-0.031228647
22	0x3dba0b97	0.09084242
23	0x3daeef66	0.085417554
24	0x3ddbfbca	0.10741384
25	0x3dbc3991	0.091906674
26	0xbd027458	-0.031849235
27	0xbda6d0fe	-0.08145331
28	0xbc1498a0	-0.009069592
29	0x3d6d4871	0.057930414
30	0x3d582e0c	0.05277829
31	0xbb8d5a20	-0.0043137223
32	0x3d2866e0	0.041113734
33	0x3d86893f	0.06569146
34	0x3d8bd21a	0.06827183
35	0xbdcaf006	-0.09909062
36	0xbdd627ee	-0.10456835
37	0x3dd092a8	0.101842225
38	0xbcbaa7e8	-0.022785142
39	0x3c337c92	0.010954993
40	0x3dbf8152	0.09350838
41	0xbd92bb42	-0.07164623
42	0xbdb68e2a	-0.089138344
43	0x3d9b5684	0.07584861
44	0xbd5f8a30	-0.054575145
45	0x3d12c7b8	0.035834998
46	0x3d4128d1	0.047158066
47	0x3ced0460	0.02893275
48	0xbd8b1963	-0.067919515
49	0x3d8c0ac6	0.06837992
50	0xbafdf580	-0.0019375533
51	0x3de6cf4d	0.11270008
52	0xbdc4af2e	-0.096037254
53	0x3d97a780	0.07404995
54	0x3d9a11c8	0.07522923
55	0x3dc7fc7e	0.09764956
56	0xbda1a0ea	-0.0789202
57	0x3cb44520	0.022005618
58	0xbdfa4812	-0.122207776
59	0x3caca270	0.02107355
60	0xbda819e6	-0.08208065
61	0xbdd8c908	-0.10585219
62	0x3d552684	0.052038684
63	0x3cceb9d8	0.025235102

fc1.weight f4 [128, 64]
0	0x3d63730c	0.05552964
1	0xbdb892e8	-0.09012395
2	0x3c24029d	0.010010389
3	0x3e01e10c	0.12683505
4	0x3d941194	0.07229915
5	0x3a933512	0.0011231026
6	0x3da67abe	0.0812888
7	0xbd1f126f	-0.03883594
8	0xbdbfee46	-0.09371619
9	0x3bae2134	0.0053140167
10	0x3bc3d9b5	0.0059768804
11	0xbb944374	-0.0045246426
12	0xbd6ab01a	-0.05729685
13	0x3d2de37e	0.04245328
14	0xbcaa2c7d	-0.020773167
15	0xbdd2f2a0	-0.10300183
16	0x3ddcbd44	0.10778287
17	0xbddcc735	-0.10780183
18	0xbd0a2faa	-0.033736862
19	0x3dc3ccfc	0.09560582
20	0xbdd4e566	-0.10395317
21	0x3dc26092	0.094910756
22	0x3d81e66e	0.06342779
23	0xbd8fd6ea	-0.070234135
24	0x3d79fdee	0.06103318
25	0xbc866e87	-0.016410125
26	0x3da04574	0.07825747
27	0xbd969174	-0.07351962
28	0x3d5f3f82	0.054503925
29	0x3dae4e5c	0.085110396
30	0x3d1ff362	0.039050467
31	0xbdb9d558	-0.09073895
32	0xbd40f1ba	-0.04710553
33	0x3c043e28	0.00807146
34	0xbdb73194	-0.08945003
35	0xbd53dfb6	-0.05172702
36	0xbdd04a54	-0.10170427
37	0x3d77bf8c	0.060485408
38	0xbbcfe4b5	-0.0063444027
39	0x3d9b466d	0.07581792
40	0xbab3a150	-0.0013704691
41	0x3dbea2ee	0.0930842
42	0xbdafeec8	-0.08590466
43	0xbe007685	-0.12545212
44	0xbdb78174	-0.08960238
45	0xbdde8762	-0.10865666
46	0xbd46ac7a	-0.04850433
47	0xbd362bca	-0.044475354
48	0x3d833a53	0.06407609
49	0x3db1934c	0.08670673
50	0xbd3404da	-0.04394994
51	0x3c66baa7	0.014082587
52	0x398d8b36	0.00026997336
53	0xbd48d60e	-0.049032263
54	0x3d6a9bd2	0.057277508
55	0xbb32d9d7	-0.0027290487
56	0xbce0f95c	-0.027462654
57	0xbc51af08	-0.012798078
58	0xbdb928be	-0.09040974
59	0xbd7ceefa	-0.061751343
60	0x3c7c6d68	0.015406944
61	0xbdc036e0	-0.093854666
62	0x3c295188	0.01033438
63	0x3d451f82	0.04812575
64	0xb98159e2	-0.00024671765
65	0xbdd518f3	-0.10405149
66	0x3da52917	0.08064478
67	0xbcdc293f	-0.026875136
68	0x3d4b82d0	0.0496853
69	0xbdd3047b	-0.10303589
70	0x3c8822ea	0.01661821
71	0x3c96bf6c	0.018401824
72	0xbdaeb97b	-0.08531471
73	0x3df0bf41	0.11755229
74	0xbdbe3645	-0.09287695
75	0x3be2b46f	0.006918482
76	0x3d4a121c	0.049333677
77	0x3d1d8888	0.038460284
78	0x3de3457d	0.11097238
79	0x3c9f39da	0.019436765
80	0x3c95dc8e	0.018293645
81	0xbcb8b707	-0.022548212
82	0x3c0540b9	0.008133107
83	0xbdce2a95	-0.10066716
84	0xbdc728c8	-0.09724575
85	0x3db9b2ed	0.090673305
86	0x3d293c75	0.041317422
87	0x3cdd298a	0.026997346
88	0x3ce19766	0.027538013
89	0xbd2a7b5c	-0.04162155
90	0xbd1ef0e8	-0.038803965
91	0xbdce80bf	-0.1008315
92	0x3dfa00cb	0.122071825
93	0x3ce29b07	0.027661813
94	0x3de6c213	0.112674855
95	0x3df8ff53	0.12158074
96	0x3d262aa0	0.040567994
97	0x3d4f77a8	0.050651222
98	0xbcbe6bbb	-0.02324473
99	0xbd374f59	-0.044753406
100	0x3c3af1a8	0.011410154
101	0xbd295cb3	-0.04134817
102	0xbb370768	-0.0027927998
103	0xbd7935aa	-0.060842194
104	0xbd5f14d0	-0.054463208
105	0xbde48247	-0.11157661
106	0x3df1cb9b	0.11806413
107	0x3d2bb040	0.041916132
108	0xbde3178b	-0.11088475
109	0x3cc8aac6	0.024495494
110	0x3d86d23f	0.0658307
111	0x3d713294	0.058886126
112	0xbca2dc89	-0.01988055
113	0xbdb3a181	-0.08771039
114	0xbcc1c802	-0.023654941
115	0xbd04ceb7	-0.0324237
116	0x3d89fc73	0.06737604
117	0xbdcfcd67	-0.10146599
118	0x3dae5ecf	0.08514177
119	0xbd155a44	-0.036463037
120	0x3d275d24	0.04086031
121	0xbbd03030	-0.0063534006
122	0x3dab1595	0.08353726
123	0xbd0d9b68	-0.034572035
124	0x3c4108b8	0.011781864
125	0x3d43a0bc	0.04776071
126	0xbd077814	-0.0330735
127	0xbd8c4355	-0.0684878
128	0xbd766ce4	-0.06016244
129	0xbd838a16	-0.06422822
130	0x3d3d4bb8	0.04621479
131	0x3d580d58	0.0527471
132	0x3df403cc	0.11914787
133	0x3dbff062	0.09372021
134	0xbdcd8342	-0.10034801
135	0xbd0f4ed8	-0.0349873
136	0x3d61e2ac	0.05514781
137	0xbdcf09ae	-0.10109268
138	0xbc947c50	-0.018125683
139	0x3d746aa4	0.059672013
140	0x3dc73d2a	0.09728463
141	0xbb9abd60	-0.0047222823
142	0x3d3edbe8	0.046596438
143	0xbc9f7628	-0.019465521
144	0xbd9cd2f8	-0.076574266
145	0x3cf38440	0.029726148
146	0x3d075d04	0.03304769
147	0x3c521760	0.012822956
148	0xbd34aec4	-0.044111982
149	0x3dc696a8	0.09696704
150	0x3df32d1a	0.11873837
151	0x3db4b6d0	0.08823931
152	0x3d1ca710	0.03824526
153	0x3d10d8d8	0.03536305
154	0x3dba7d46	0.09105925
155	0xbd931cb6	-0.071832106
156	0xbcef89e8	-0.029240564
157	0x3dd54e42	0.10415317
158	0xbd2ec690	-0.042669833
159	0xbdea4c5a	-0.11440344
160	0x3dfdb92c	0.12388834
161	0x3ddfb0b2	0.10922374
162	0xbc4b8f60	-0.01242432
163	0xbdf64b9e	-0.120261416
164	0x3deff4d0	0.11716616
165	0xbdaaba78	-0.08336347
166	0xbd74f5b4	-0.059804633
167	0x3c4f31c0	0.012646139
168	0x3d0ad698	0.03389606
169	0xbdd2ef84	-0.1029959
170	0x3c993328	0.018701151
171	0xbc461de0	-0.012092084
172	0x3dd87c1e	0.105705485
173	0x3d6e5204	0.058183685
174	0xbb3ff840	-0.0029292256
175	0xbdc02aa8	-0.09383136
176	0x3ca36b28	0.019948557
177	0xbd055368	-0.032550246
178	0x3d9acf5c	0.07559082
179	0x3c8e9df8	0.01740931
180	0xbdaa08f4	-0.08302489
181	0x3c92cdc8	0.01792039
182	0x3b95c980	0.00457114
183	0x3d9a1624	0.07523754
184	0x3b778c00	0.0037772655
185	0xbdfd14fc	-0.12357518
186	0xbde0fc2e	-0.109855995
187	0x3c68bd20	0.014205247
188	0xbcee4760	-0.029086769
189	0x3b996660	0.0046813935
190	0x3b186a00	0.002325654
191	0xbde1a158	-0.11017102
192	0xbcf2ca32	-0.02963743
193	0x3d2a17d7	0.04152664
194	0x3d857ddf	0.06518149
195	0xbd73e5a3	-0.05954517
196	0xbda95d20	-0.08269715
197	0x3c86290c	0.016376995
198	0xbdb1e7fe	-0.08686827
199	0xbd17f03b	-0.037094336
200	0x3d74b7be	0.059745543
201	0xbd7d773b	-0.061881285
202	0x3d836494	0.06415668
203	0xbd922504	-0.071359664
204	0x3ca12e1d	0.019675309
205	0xbd3096df	-0.043112632
206	0x3df73708	0.12071043
207	0xbd68a229	-0.056795273
208	0x3cb6bb44	0.022306092
209	0xbdbf9c30	-0.09355962
210	0x3c80065c	0.015628032
211	0xbdb7955e	-0.089640364
212	0x3cf137e3	0.029445594
213	0x3defca02	0.11708452
214	0xbddecbb8	-0.108787
215	0x3e01e6f4	0.12685758
216	0x3d818288	0.06323725
217	0x3ccab7ac	0.024745785
218	0x3dc99754	0.09843317
219	0xbdf2a842	-0.11848499
220	0xbcf61ae1	-0.030042114
221	0xbd8ddab2	-0.069264784
222	0xbd8ee2ca	-0.0697685
223	0x3d48e707	0.04904845
224	0xbdec68ce	-0.115434274
225	0x3da5f8ae	0.081040725
226	0x3cc2146c	0.023691379
227	0xbc378307	-0.011200673
228	0x3c9f8114	0.019470729
229	0xbd534551	-0.051579777
230	0xbd7376be	-0.059439413
231	0xbd1c9fbd	-0.038238276
232	0x3dd3e406	0.103462264
233	0xbd8123b7	-0.0630564
234	0xbe052f7f	-0.130064
235	0xbc75e859	-0.015009009
236	0x3ca64674	0.020297267
237	0x3b80d293	0.0039313524
238	0xbc6fa229	-0.014626064
239	0x3bdd664d	0.00675658
240	0xbdc2edf7	-0.095180444
241	0xbdaacdc2	-0.083400264
242	0x3db2ec0a	0.08736427
243	0x3d73d907	0.059533145
244	0xbd8089d3	-0.06276288
245	0xbdfc636e	-0.12323652
246	0x3d29aa8d	0.041422416
247	0x3d869b7e	0.065726265
248	0xbc95c294	-0.018281259
249	0xbd4cf671	-0.050039712
250	0x3d1d5ff9	0.038421605
251	0xbd3a642b	-0.045505684
252	0xbd8b422a	-0.06799729
253	0x3d946e72	0.07247628
254	0xbdb38520	-0.08765626
255	0xbd2e2bfd	-0.04252242

fc1.bias f4 [128]
0	0x3d53c0ae	0.051697426
1	0x3c3036b7	0.010755233
2	0xbd2b1290	-0.04176575
3	0xbd589691	-0.052877966
4	0x3def45a9	0.116832085
5	0xbde3779c	-0.11106798
6	0x3d2960fc	0.041352257
7	0x3ddfcec8	0.10928112
8	0x3dee516c	0.11636624
9	0x3ca9f278	0.0207455
10	0x3ddd79c3	0.1081424
11	0xbdad9cac	-0.084771484
12	0xbc7a3667	-0.01527176
13	0xbcff5d40	-0.031172395
14	0xbdfcb47f	-0.123391144
15	0x3d63a3b0	0.055576026
16	0x3cf11f9e	0.029434022
17	0xbdf36041	-0.11883593
18	0x3dc025a4	0.093821794
19	0x3d8d87a2	0.069106355
20	0xbd020dda	-0.03175149
21	0x3d1dcc82	0.038525112
22	0x3dd29bbe	0.10283612
23	0x3cfdba50	0.03097263
24	0xbdf69eb5	-0.1204199
25	0xbdb70b12	-0.08937658
26	0xbcee1633	-0.02906332
27	0x3caeaef1	0.021323653
28	0xbd7e9d8d	-0.06216197
29	0x3d8197c3	0.063277744
30	0xbb18d717	-0.0023321563
31	0xbde3ad78	-0.11117071
32	0x3df1bdff	0.11803817
33	0x3db7292c	0.089434
34	0x3d704e39	0.05866835
35	0xbc929500	-0.017893314
36	0xbdb6438e	-0.08899604
37	0x3d9a2f7a	0.07528587
38	0x3dbfc2e3	0.093633436
39	0xbc89e2f0	-0.016831845
40	0x3dbf5372	0.09342088
41	0xbd285268	-0.041094214
42	0xbcd1b71c	-0.025600009
43	0xbd0be342	-0.034152277
44	0xbd917727	-0.07102805
45	0xbaa6d980	-0.0012729615
46	0xbdf157ca	-0.117843226
47	0xbdd66186	-0.1046782
48	0xbd9e85f2	-0.07740392
49	0x3d98e02e	0.07464634
50	0xbb46b32c	-0.0030319197
51	0x3d291f38	0.04128954
52	0x3c8d42fd	0.017243857
53	0x3e0c6326	0.13709697
54	0xbd354424	-0.044254437
55	0xbdb0fde7	-0.08642178
56	0xbdd7ef54	-0.10543695
57	0xbdcd99e8	-0.10039121
58	0xbd92b75c	-0.07163879
59	0x3d05ce9e	0.03266775
60	0x3d867e84	0.065671
61	0xbcffcbf2	-0.031225178
62	0x3dd23b1c	0.102651805
63	0xbda2c26b	-0.079472385
64	0x3befbfcc	0.007316565
65	0xbc68ccf0	-0.014209017
66	0x3de17408	0.11008459
67	0xbddb3eca	-0.107053354
68	0x3dbe7956	0.09300487
69	0xbd456887	-0.04819539
70	0x3ddac4b6	0.10682051
71	0xbdc67374	-0.0968999
72	0xbd590f99	-0.05299339
73	0xbae62980	-0.0017559975
74	0x3d8fa6f4	0.07014266
75	0x3dcc474d	0.09974537
76	0xbcfee14e	-0.031113293
77	0x3debfb33	0.11522522
78	0xbdb799c8	-0.08964878
79	0x3db06d18	0.08614558
80	0x3dec3d21	0.11535097
81	0xbe071980	-0.13193321
82	0x3d32f8b7	0.043694224
83	0xbe03563b	-0.12825863
84	0xbc57d84a	-0.013174126
85	0x3cc30ab0	0.023808807
86	0xbd97c77a	-0.07411094
87	0xbd5f7bda	-0.054561473
88	0xbde21b5d	-0.110403754
89	0xbc8c14a8	-0.017099693
90	0xbd047bee	-0.03234475
91	0xbdc34bd4	-0.095359474
92	0x3dab01e6	0.083499715
93	0x3db304ed	0.08741174
94	0x3de6aafc	0.112630814
95	0x3d085ee3	0.033293616
96	0xbbbe9d46	-0.0058170883
97	0xbd816603	-0.06318285
98	0x3d215338	0.039386004
99	0xbd3d8010	-0.046264708
100	0xbdede93e	-0.11616753
101	0x3d33cdae	0.043897323
102	0xbd488dea	-0.048963465
103	0xbd84a5ce	-0.06476937
104	0x3dbeff7e	0.09326075
105	0xbdd13346	-0.10214858
106	0x3d0777af	0.033073124
107	0x3daf72cd	0.085668184
108	0xbd91d05f	-0.07119822
109	0x3cf6db87	0.030133976
110	0xbde310ce	-0.110871896
111	0x3cd48711	0.025943311
112	0xbdd655fa	-0.104656175
113	0x3d76f563	0.060292613
114	0x3dbdd58a	0.09269245
115	0x3d84321e	0.064548716
116	0xbd841213	-0.0644876
117	0xbd894e11	-0.06704343
118	0xbd15f78a	-0.036613025
119	0xbd665fef	-0.056243833
120	0x3d5a7b82	0.053340442
121	0x3df537ae	0.11973511
122	0x3df591ee	0.119907245
123	0x3d9ef8a9	0.07762272
124	0xbb9b4192	-0.004738041
125	0x3bf0efa4	0.007352786
126	0xbd66ea2d	-0.05637567
127	0x3dcfcc09	0.101463385

fc2.weight f4 [10, 128]
0	0xbce57726	-0.028010916
1	0x3d71c705	0.05902769
2	0x3c1a2144	0.009407345
3	0x3d6ad58d	0.057332564
4	0x3ca7de79	0.020491825
5	0xbd0cdebc	-0.034392104
6	0xbd1a5069	-0.03767434
7	0xbc45f3c7	-0.012082047
8	0xbd1a4bf0	-0.037670076
9	0xbda41875	-0.08012477
10	0x3cb91d33	0.022596931
11	0x3c802fb5	0.015647748
12	0xbcb91eb4	-0.022597648
13	0x399ca406	0.00029876846
14	0xbc9a4b00	-0.01883459
15	0x3d9111c7	0.07083469
16	0xbca4a8cd	-0.020100022
17	0xbba3634b	-0.004986202
18	0xbc9785a3	-0.01849634
19	0x3cc8b1fe	0.024498936
20	0xbc331adc	-0.010931697
21	0xba81bcd4	-0.0009898194
22	0xbd882aec	-0.06648812
23	0xbdb0b191	-0.08627618
24	0xbc761f53	-0.015022117
25	0xbbb56e89	-0.0055368585
26	0x3d133493	0.03593881
27	0x3d972a5e	0.07381128
28	0x3c8a01f2	0.01684663
29	0x3bfe750d	0.0077654184
30	0x3b3ad23d	0.002850666
31	0xbd8831d8	-0.06650132
32	0x3db13feb	0.086547695
33	0x3d95abf3	0.07308187
34	0xbd313918	-0.04326734
35	0x3d9600ea	0.07324393
36	0x3d9e6eec	0.077360004
37	0x3cea66b7	0.028613431
38	0x3d25295f	0.040322658
39	0xbd6afcbc	-0.057369933
40	0xbd959955	-0.073046364
41	0xbd7501ee	-0.059816293
42	0x3dbf7243	0.093479656
43	0x3cb16a88	0.021657243
44	0x3d53b30c	0.051684424
45	0x3d4060ed	0.046967436
46	0xbc3604f7	-0.011109582
47	0x3d2b304a	0.0417941
48	0xbcf08895	-0.029362002
49	0x3ca86020	0.020553648
50	0x3d42ac12	0.04752738
51	0xbc5da9d1	-0.013529257
52	0x3dbecc20	0.093162775
53	0x3c4abe41	0.012374462
54	0x3c3378d6	0.0109541025
55	0x38d02e57	9.926844e-05
56	0xbad20f1e	-0.0016026234
57	0xbd77f811	-0.06053931
58	0x3d72c774	0.059272245
59	0xbd375617	-0.044759836
60	0x3c34951b	0.011021878
61	0xbc905e74	-0.017623164
62	0xbd1e7fe1	-0.038696174
63	0x3cd193fd	0.025583262
64	0x3d184364	0.037173644
65	0xbdaf0f2b	-0.08547815
66	0xbd8b577f	-0.06803798
67	0xbd544daa	-0.05183188
68	0xbd9eea8f	-0.07759582
69	0x3d428956	0.047494255
70	0x3cc4662c	0.0239745
71	0x3d8ffe12	0.07030882
72	0x3d7696c4	0.060202375
73	0xbd9ad66b	-0.07560428
74	0xbc9b0228	-0.018921927
75	0x3bcead32	0.0063072676
76	0x3d88b003	0.066741966
77	0x3ca6eacc	0.020375632
78	0xbd8c9f1d	-0.06866286
79	0x3ca9a70e	0.02070954
80	0x3d1e7358	0.03868422
81	0x3c903adf	0.017606197
82	0xbc8aa594	-0.016924657
83	0x3d51d34d	0.051226903
84	0x3d7f4970	0.062325895
85	0xbc30e1dc	-0.010796037
86	0xbcb2308c	-0.021751665
87	0xbd5920a3	-0.05300964
88	0x3d908880	0.07057285
89	0xbd402845	-0.046913404
90	0x3c9ad5a8	0.018900707
91	0x3cbd3cc2	0.02310026
92	0x3cd21245	0.025643477
93	0xbbb40b31	-0.005494498
94	0xbd376e34	-0.044782832
95	0x3d5e1532	0.054219432
96	0x3d91951c	0.071085185
97	0x3d7ef578	0.062245816
98	0xbdac7d52	-0.084223405
99	0xbc365fbe	-0.011131225
100	0x3cc13e5a	0.023589302
101	0x3b92c62f	0.0044791917
102	0xbd12cda3	-0.03584064
103	0xbda64252	-0.08118118
104	0x3d95c03f	0.07312059
105	0x3cb7036a	0.022340495
106	0xbbe8921c	-0.0070974957
107	0x3c05c412	0.008164423
108	0xbd6fb727	-0.058524277
109	0x3c71fcf0	0.014769778
110	0xbd673a6a	-0.056452192
111	0x3d71f2b0	0.059069335
112	0x3d452558	0.048131317
113	0x3d994a1e	0.0748484
114	0xbd7a51f3	-0.06111331
115	0xbd5cd02d	-0.05390947
116	0x3dc3175d	0.095259406
117	0x3dbd5d4b	0.0924631
118	0xbc3f4154	-0.01167329
119	0xbc8b1419	-0.016977357
120	0xbc9c0b57	-0.019048376
121	0xbd24620e	-0.040132575
122	0x3d910cf3	0.07082548
123	0xbcf86632	-0.030322168
124	0x3cb596d0	0.02216664
125	0x3cf6eac9	0.030141251
126	0x3d8009e1	0.06251884
127	0x3d450250	0.04809791
128	0xbcd628b7	-0.026142461
129	0xbd33702f	-0.04380816
130	0x3d23d71f	0.040000077
131	0xbd875bf9	-0.06609339
132	0x3da1d8aa	0.079026535
133	0xbc177074	-0.0092431195
134	0x3ce638aa	0.028103191
135	0xbd16873e	-0.03675007
136	0xbd37736f	-0.04478782
137	0xbd5e3212	-0.05424697
138	0x3dc8aae4	0.0979822
139	0x3cc14050	0.023590237
140	0x3d9bc959	0.076067634
141	0xbd92769e	-0.07151531
142	0x3cab94b1	0.020944925
143	0x3daa8a2d	0.08327136
144	0x3ce68ee1	0.028144302
145	0xbbb76bae	-0.005597553
146	0x3dc0d942	0.09416439
147	0xbd008173	-0.031373452
148	0xbd1bde93	-0.03805406
149	0xbd2c772c	-0.04210584
150	0x3c97fd42	0.01855338
151	0xbd80e931	-0.06294478
152	0xbd9ca96a	-0.07649501
153	0x3d68c061	0.05682409
154	0x3d9d8072	0.076905146
155	0xbd7aa2fc	-0.06119059
156	0x3d3693d7	0.044574585
157	0x3ce570ce	0.028007891
158	0xbd024f98	-0.031814188
159	0x3daee5e0	0.08539939
160	0x3d7b9246	0.061418794
161	0xbd4622e4	-0.048373118
162	0xbcf9a26c	-0.030472957
163	0x3da0ef80	0.07858181
164	0xbd75acb7	-0.059979167
165	0xbcf920ca	-0.030411143
166	0xbbdd6777	-0.0067567187
167	0x3d838455	0.06421725
168	0x3d7f7590	0.062367976
169	0xbd9b0504	-0.07569316
170	0x3cb6a2c7	0.022294415
171	0x3d92cfa2	0.07168509
172	0x3dbc109d	0.09182856
173	0x3c181af5	0.009283771
174	0xbda16d77	-0.07882207
175	0x3d946dab	0.0724748
176	0xbd63b3dc	-0.05559145
177	0x3cd99097	0.026558204
178	0x3d174207	0.036928203
179	0x3cb713e5	0.022348354
180	0x3c33279f	0.010934739
181	0x3dc1bb75	0.09459583
182	0x3da42eb4	0.080167204
183	0xbd0925e0	-0.033483386
184	0x3d8b82a0	0.06812024
185	0xbd1c277f	-0.038123604
186	0x3d79d04c	0.060989663
187	0x3c9e244f	0.019304423
188	0x3dcc1d35	0.09966508
189	0xbd0b4929	-0.034005318
190	0x3d41c83b	0.047310095
191	0xbd54819f	-0.05188143
192	0xbd967269	-0.07346041
193	0x3d82f72a	0.06394799
194	0xbd40efc8	-0.047103673
195	0xbd632f62	-0.05546511
196	0x3c36c05e	0.011154262
197	0x3caed794	0.02134303
198	0xbd1c08f4	-0.038094476
199	0xbb839951	-0.0040160795
200	0x3c04cd83	0.008105638
201	0xbd1decc6	-0.038555883
202	0x3b92b749	0.0044774157
203	0xbc980a3f	-0.018559573
204	0x3db4eea7	0.08834582
205	0x3d875490	0.06607926
206	0x3d830b5e	0.063986525
207	0x3d620cfa	0.055188157
208	0x3d9633fb	0.07334133
209	0xbd8a922d	-0.06766162
210	0xbd3ea89d	-0.04654752
211	0xbd97e777	-0.07417195
212	0x3d508940	0.05091214
213	0x3d518dd0	0.051160634
214	0x3d73f7ee	0.059562616
215	0x3cd72e91	0.026267322
216	0xb927abb6	-0.00015990328
217	0x3cd62203	0.026139265
218	0x3c51f6c0	0.012815177
219	0x3cd05daf	0.025435297
220	0x3d9e6d90	0.07735741
221	0xbc30f533	-0.010800648
222	0x3cf54732	0.029941175
223	0xbd133db3	-0.035947513
224	0xbc68772e	-0.014188571
225	0xbd855fc9	-0.0651241
226	0xbd4cb6cf	-0.049979027
227	0x3cb8a6c9	0.022540467
228	0xbd8aae70	-0.067715526
229	0x3da42ea7	0.08016711
230	0x3db6a912	0.08918966
231	0x3cbf21d2	0.023331556
232	0xbd96a14a	-0.07354982
233	0xbdb05985	-0.086108245
234	0xbaacf7c9	-0.0013196404
235	0x397b36b5	0.00023957605
236	0xbda51de8	-0.08062345
237	0xbd8c5bff	-0.06853484
238	0xb9abbba8	-0.00032755476
239	0xbd962189	-0.07330615
240	0x3d93af00	0.07211113
241	0xbc9a8726	-0.018863272
242	0xbd178eac	-0.037001297
243	0xbba17618	-0.004927408
244	0x3c98f895	0.01867322
245	0x3d6a85b9	0.057256434
246	0xbcf0b90c	-0.029385112
247	0x3d6915dd	0.056905616
248	0xbd4d88b2	-0.05017919
249	0x3d9e6487	0.07734018
250	0x3dca9a4a	0.098927096
251	0xbcb982b6	-0.022645336
252	0xbd917636	-0.07102625
253	0x3d12a59d	0.035802472
254	0xbd88b04f	-0.06674253
255	0x3b0cfe8d	0.0021514029

fc2.bias f4 [10]
0	0x3af199ff	0.0018432735
1	0x3c95f88d	0.018306995
2	0x3c272762	0.010202261
3	0x3d671833	0.056419563
4	0xbdc0d1a7	-0.09414988
5	0xbdd668da	-0.104692176
6	0x3d508099	0.05090389
7	0xbd85340b	-0.06504067
8	0xbd8f18f2	-0.0698718
9	0xbc993ef2	-0.018706772
