CNN_RNNv2.pth (torch, 222874 bytes, 10 tensors)

conv1.weight f4 [32, 1, 3, 1]
000000 22 2b b5 be 6e 7c 17 3e a6 20 4b be c9 60 57 be
       -0.3538447 0.1479356 -0.19836673 -0.21033014
000010 4c 07 3e bd 75 c3 83 3d c8 ee df be 52 58 62 3e
       -0.046393678 0.06433765 -0.43736863 0.22104004
000020 84 33 69 be 86 04 0e 3f 4a b7 8d 3e 80 b8 b4 bc
       -0.22773558 0.5547565 0.276789 -0.022060633
000030 f1 bf 74 3c b7 e9 9e 3e 6d 8e 34 3e 46 1b 76 be
       0.0149383405 0.31037685 0.17632456 -0.24033841
000040 ea 2d 49 be d1 0b 0b bf fb 05 a6 be e6 d4 05 3f
       -0.19646421 -0.54314905 -0.32426438 0.5227798
000050 94 7b cb 3d a5 41 c7 3e a7 6e f9 3e 2e 9c 81 be
       0.0993568 0.3891727 0.48717234 -0.25314468
000060 b3 80 e1 be c4 4d 13 3f 5a c2 72 3e 34 c3 07 3f
       -0.44043502 0.57540536 0.23706952 0.5303223
000070 52 bc 94 be a0 28 29 3e ff 75 b9 3e a1 d2 b3 be
       -0.29049927 0.16519403 0.36222836 -0.35121635
000080 40 23 c9 3d 2b 21 df 3e 69 0e 31 be 92 67 23 3e
       0.098211765 0.43579993 -0.17290653 0.15957478
000090 d5 40 f9 3e a5 7d e1 bc 58 e7 8a 3e ee db 2e be
       0.48682275 -0.027525732 0.27129626 -0.17076084
0000a0 32 9a 2a 3e e7 02 20 3e b3 17 ff bb 9c f4 83 bd
       0.16660383 0.15626107 -0.0077848076 -0.0644314
0000b0 cd 77 0b 3f e8 42 8c 3d ed a1 15 bd 27 70 14 be
       0.54479676 0.06848699 -0.036531378 -0.14495908
0000c0 ca 09 8b be 59 ee 8d 3e dc f3 78 bd f4 ec dc 3e
       -0.27155906 0.27720907 -0.060779437 0.4314953
0000d0 da 4d 93 bd dd 48 ad 3c e5 67 0f bf b0 e8 75 3e
       -0.071925834 0.021152908 -0.56017905 0.24014544
0000e0 30 cc 9e 3e 10 38 12 bf 82 6b 10 3f ca 4d a7 be
       0.31015158 -0.57116795 0.56414044 -0.32676536
0000f0 b8 3d 04 3f e8 23 05 3f 60 86 a5 3e ab ed 7c 3e
       0.51656675 0.52007914 0.32329082 0.24700038
000100 77 ab df be ab 7d d3 3e 2b 88 bd 3e 06 d6 80 3e
       -0.43685505 0.41306815 0.3701795 0.25163287
000110 17 a6 bc 3e 45 f6 10 be ff ed 61 be 81 fb 6a 3e
       0.36845466 -0.14156444 -0.22063445 0.22947504
000120 dd 8b 11 bf 05 1b 97 be 09 a0 b5 3c f7 bc b6 3e
       -0.5685404 -0.29512802 0.022171037 0.35691044
000130 e5 9e 3d 3d 78 ff 14 bf e1 b7 8c bd d4 31 00 bf
       0.04629411 -0.58202314 -0.068710096 -0.5007603
000140 85 95 c6 be 04 b0 10 bf da d5 70 be 33 76 43 3e
       -0.3878595 -0.5651858 -0.23519078 0.19088058
000150 31 93 ec 3e 61 15 e3 3e 2d c9 d2 be f6 7a c7 be
       0.46206048 0.44352248 -0.4116911 -0.38961
000160 44 e5 ba 3e 88 59 04 3e 61 f5 f1 bd 9a cf b2 3e
       0.3650304 0.12924778 -0.118143804 0.34924012
000170 fd d6 fe 3e 46 03 83 3e 4e 20 84 3d 41 00 8e 3e
       0.49773398 0.25588435 0.06451474 0.2773457

conv1.bias f4 [32]
000000 7f f7 da be 9f c8 a2 3e 86 a9 00 3f ca 8c 9c 3e
       -0.4276695 0.31793687 0.5025867 0.30576164
000010 7f 56 db bd 07 96 15 be e4 ed bf 3e 4f 9d 0b 3f
       -0.10709857 -0.14608012 0.37486184 0.5453691
000020 5d f0 5a 3d 68 d8 bc 3e 28 63 0a bf 2f ea b0 be
       0.053451885 0.36883855 -0.5405755 -0.34553668
000030 21 a2 64 3e 61 f5 e0 be 75 19 bc be ed 25 02 bf
       0.22327472 -0.4393721 -0.36738172 -0.5083912
000040 bc 2b e9 3c 1f cd c3 3e d7 eb c1 be 0a 68 52 be
       0.028463237 0.38242432 -0.37875244 -0.205475
000050 11 bb 9f bd 97 76 c0 3e ca f4 03 bf 0e 18 10 bf
       -0.07799352 0.37590477 -0.51545393 -0.56286705
000060 09 79 50 3e 12 6c 0f 3f 12 7f 25 3e c1 ca 64 be
       0.20358671 0.5602428 0.16161755 -0.2234297
000070 0e ff c5 3e 9e 51 7e be 8d 91 c8 be ee be 03 bf
       0.38671154 -0.24835822 -0.39173546 -0.5146321

rnn.weight_ih_l0 f4 [64, 640]
000000 b8 27 eb bd 4a f6 85 bd e4 2e a4 3d 8e 09 ff bd
       -0.11482185 -0.065411165 0.08016756 -0.12452994
000010 41 75 8f bc b7 8b d3 bd 94 e6 4c bd c2 35 90 3d
       -0.017511966 -0.10329383 -0.050024584 0.070415035
000020 44 19 d9 bd 83 d1 3e 3d 73 14 f2 bd f1 2e eb bd
       -0.10600522 0.046586525 -0.11820307 -0.11483563
000030 59 06 df bd 89 83 18 bd 4d c1 9a bd 30 f0 98 3c
       -0.108898826 -0.037234817 -0.075564004 0.018669218
000040 34 78 b7 bd 4f 14 21 3d fb 71 36 3d d1 80 fb 3c
       -0.08958474 0.03932601 0.044542294 0.030701073
000050 ed 0e c2 bd 53 1d da 3d 1c cd c0 3d b7 7b ab 3d
       -0.09475503 0.106501244 0.094141215 0.08373206
000060 61 1f 2e bd 0c 2b c5 bc dc f5 d3 3d bc 0f 5e 3d
       -0.042510394 -0.024068378 0.10349628 0.054214224
000070 fb 42 65 bd ef 37 33 bc 85 93 fe 3c b9 6b da bb
       -0.05597208 -0.010938629 0.031076202 -0.0066656736
000080 d0 d9 0e bd 52 66 63 bc 54 df 2e 3d 47 e1 82 bc
       -0.03487569 -0.0138793755 0.04269345 -0.015976561
000090 32 f2 14 3d 2a 37 67 3d 71 98 fc 3d 5e 91 fc 3d
       0.036363788 0.056449093 0.123337634 0.12332414
0000a0 c4 2b 81 bc f3 c7 ca bd a7 91 74 bc e1 a2 d9 3d
       -0.01576794 -0.099014185 -0.014927304 0.1062677
0000b0 15 ef e9 bd 19 8f d4 bd cc 6e 89 bd 84 87 71 bd
       -0.114225544 -0.10378856 -0.06710586 -0.05896713
0000c0 44 a0 eb bd 98 54 13 bd a9 e3 9e 3d cd e3 8d bd
       -0.115051776 -0.035969347 0.077582665 -0.06928215
0000d0 92 7a d0 bc 1a c0 50 bd 7a 13 57 bc 6b 6f d6 bd
       -0.025449071 -0.050964452 -0.013127202 -0.1047047
0000e0 9b bf f4 bd 7c 62 b3 3d ef e3 9e bd 08 ac 34 3d
       -0.11950608 0.08759019 -0.07758319 0.044109374
0000f0 e2 58 c3 bd ec a9 df 3d 62 ce ea 3d f3 6b fe 3d
       -0.095384374 0.10921082 0.11465146 0.124229334
000100 7d 08 a8 bd a6 64 e3 bd 8a eb e2 bd 53 e3 b8 bd
       -0.08204744 -0.111031815 -0.11080082 -0.09027734
000110 11 1d a2 bd a7 9b 2f 3b 95 7a 80 bd 3a c4 8d bd
       -0.079157 0.0026795657 -0.06273381 -0.06922193
000120 f3 4f a9 3d 9b 0b e7 3c a1 6c cf 3d 08 b3 fe 3d
       0.08267202 0.028203776 0.10128141 0.12436491
000130 58 cf 11 3d fe ac a0 3c 6c 73 a5 3d 4d d9 50 bb
       0.03559813 0.01961374 0.080786556 -0.0031867803
000140 bd cd 3c 3c 85 6d 48 bd f4 a4 ae 3d b8 6f e4 bd
       0.011523661 -0.04893257 0.08527556 -0.11154121
000150 ed 99 bf 3d 27 71 b4 3d 75 67 51 bd b8 3b 89 3d
       0.09355531 0.088106446 -0.051124055 0.067008436
000160 2a 19 b4 bd d3 1c 4e bd 15 a6 79 bd 3d ca f3 bc
       -0.08793862 -0.050320458 -0.060949404 -0.02975952
000170 2b cb 99 bd 40 18 f6 bb 2a 65 f7 3d c4 b6 db 3c
       -0.07509454 -0.007510215 0.120798424 0.026820548
000180 d4 c3 c9 bd d9 c3 53 3d d5 23 e5 bd af d6 27 bd
       -0.098518044 0.051700447 -0.11188475 -0.040976223
000190 a3 87 00 3d d2 85 8e 3d 4b 69 bb 3d d5 2e ef 3b
       0.031379353 0.06959118 0.091509424 0.007299284
0001a0 78 d3 4f 3c 0d 04 e7 bd f0 ad 55 bd bb a1 9b 3d
       0.012684695 -0.112800695 -0.052167833 0.07599207
0001b0 ad a9 5a bd 86 a5 e8 3d ed 7d fb bd 87 4a e7 bd
       -0.05338447 0.11359696 -0.12279878 -0.11293512
0001c0 6a 65 b7 3d 90 39 db 3d 59 5d d9 3c 7e db 97 bd
       0.0895489 0.107043386 0.02653377 -0.07414912
0001d0 3d 09 83 3d ce fc 3f 3c 11 2e dc 3c 63 9e fb bc
       0.063982464 0.011717988 0.026877435 -0.030715173
0001e0 db 80 8f 3d e3 9c 97 bd c4 95 87 bc 29 41 c6 bd
       0.07006999 -0.07402971 -0.016550906 -0.09680397
0001f0 c1 0f 1f bb 67 cf f9 3d 0f 34 3c 3d 61 90 d9 bc
       -0.0024270865 0.12197762 0.045948084 -0.026558103
000200 c1 b9 a6 3b 01 f8 2c 3d ca 26 fd bd a7 05 af 3c
       0.0050880616 0.042228702 -0.12360914 0.021365
000210 a1 b9 15 3d bc 42 fb bc 41 24 be 3d c7 1f 87 3d
       0.036553983 -0.03067147 0.09284259 0.06597858
000220 03 c7 13 3d 9a 95 9b 3c 0e 60 a1 3d 85 6e 2b 3d
       0.036078464 0.018992234 0.07879649 0.041853447
000230 58 31 be bc 89 6b 60 3d 99 0b 0f bd 90 bc 9e bd
       -0.023216888 0.054790054 -0.03492317 -0.07750809
000240 cf b6 04 3e 10 c4 e1 bc 04 b5 da 3d a6 10 86 3c
       0.12960361 -0.02755931 0.10679057 0.01636536
000250 05 22 06 3e 9c 5d 36 bd b0 cf e2 3b b7 c4 90 3d
       0.13098915 -0.044522867 0.006921731 0.070687704
000260 f8 76 9e 3d dd 2c 2a 3c 3e 16 83 bd 3f 68 1d bd
       0.07737535 0.010386673 -0.06400727 -0.038429495
000270 76 a8 9c 3d 83 4c 99 3c 3d 9b b0 3d a1 d9 58 3d
       0.07649319 0.018713241 0.08623359 0.052941922
000280 ae cc 1c bd 07 b6 d4 3d 9d 72 ef 3d 86 5d 31 bd
       -0.038281135 0.103862815 0.116917826 -0.04330208
000290 a2 4f d4 3d 58 11 00 3d 72 ff f3 bb e0 0f e2 3d
       0.10366751 0.03126654 -0.007446223 0.11038184
0002a0 28 59 87 3b b6 76 5f bc 48 ab cc 3d a1 0a df bb
       0.0041305013 -0.013639143 0.09993607 -0.006806687
0002b0 41 4b 8d 3c 86 6e cc bc 31 7e bd bc 5f 69 03 be
       0.017247798 -0.024955045 -0.023131462 -0.12833165
0002c0 49 5a 87 3d 74 87 c7 3c c9 11 10 3d 9a 21 11 bc
       0.066090174 0.024356581 0.03517321 -0.008858109
0002d0 bc 22 f8 bd 65 2a fc bd 53 34 7b bc 33 64 00 3e
       -0.12116 -0.123127736 -0.015332299 0.12538223
0002e0 29 9a ac bc 1e da 49 3c 12 1d e0 bd 70 30 c0 bc
       -0.021069603 0.01232007 -0.10943045 -0.023460597
0002f0 21 31 91 3d 89 76 75 3d 02 05 02 3b d9 49 2b 3d
       0.07089449 0.059927497 0.001983941 0.041818473
000300 46 b9 bc bc 09 ce d0 3d b2 65 ea 3c 46 ea c1 bd
       -0.023037564 0.10195548 0.028612945 -0.09468512
000310 65 4d 20 3d 98 d5 b1 3d b5 cc 95 bd 8d f7 e2 bc
       0.03913631 0.08683318 -0.073144354 -0.027705932
000320 8d b9 2e 3d f0 c4 bd 3b e5 57 c9 bd 15 d0 fc 3d
       0.042657424 0.005791299 -0.09831218 0.12344376
000330 6e 54 bb 3c a8 ee 0e bc 5e 2d 8c 3a 1f 73 22 bc
       0.022867408 -0.008723892 0.0010694673 -0.009915142
000340 30 2f 04 3d 42 e8 f8 3d b4 bb a1 bd 69 9b bb 3d
       0.032271564 0.12153675 -0.0789713 0.091605015
000350 13 5e 1e 3c 29 c1 f7 bd f1 25 b7 39 9c a8 cb bd
       0.009665984 -0.12097389 0.00034932749 -0.09944269
000360 5b 7c 55 3d ab 9a c1 3d a0 ce 94 3d db 30 f8 3d
       0.052120548 0.09453329 0.07265973 0.121186934
000370 58 0a e6 bc c9 b3 10 bd 02 58 ab 3c b7 a4 16 3d
       -0.028081104 -0.035327706 0.020915989 0.036778178
000380 a3 ae 66 bb 9e 59 b9 bd 06 e1 96 3d 5e 24 cb bc
       -0.0035199306 -0.09050296 0.073671386 -0.024797615
000390 62 f0 20 3c e3 4e 39 bc e4 4a dc 3c c7 28 bf bd
       0.009822937 -0.011310312 0.02689118 -0.093339495
0003a0 e8 de 83 3d e9 fa 81 bd 6b cc a4 3d 57 d0 a2 bd
       0.06439 -0.063466854 0.08046802 -0.07949894
0003b0 dc fa c8 bd 0c dc 7f 3d 89 f8 be 3d 8d c0 27 bd
       -0.09813473 0.062465712 0.09324748 -0.040955115
0003c0 bf c6 fe 3c 1a 40 41 3d d5 9d b9 3d 76 af 36 3c
       0.031100629 0.047180273 0.09063307 0.011150232
0003d0 64 5c f6 bc 68 24 73 bd 0d d1 6c bd 1d 45 b4 bd
       -0.030073352 -0.05936089 -0.057816554 -0.08802245
0003e0 10 76 ba bd 79 de 4a 3d 11 df 93 ba f0 3a 9e bd
       -0.0910455 0.049528573 -0.0011281689 -0.07726085
0003f0 a4 a8 a0 bd b1 58 1f bd bc 8b 94 bd f0 bc f9 bd
       -0.07844666 -0.038902942 -0.07253215 -0.1219424

rnn.weight_hh_l0 f4 [64, 64]
000000 c0 74 8f 3d 38 36 6b 3d 5c 13 ba bd a6 c8 8a 3d
       0.0700469 0.057424754 -0.09085724 0.06776552
000010 30 b2 02 3c 6c 58 ce 3d 86 7d df bd 60 29 bd 3b
       0.0079770535 0.10075459 -0.109126136 0.0057727545
000020 c8 24 0b 3d ac 31 87 3d 28 3e 9c 3d c0 06 fe 3c
       0.033970624 0.06601271 0.07629043 0.031009078
000030 e2 5f ab bd f6 fe b2 bd e0 18 3b bc 6a 79 ec 3d
       -0.083678976 -0.08740036 -0.011419505 0.115465954
000040 a0 66 a7 3d 80 1c 37 3d 50 59 36 3d 40 a1 c5 bd
       0.08173871 0.044704914 0.04451877 -0.096498966
000050 44 36 7d 3d 5a df bc bd 10 69 c0 3d 0c ff 4f bd
       0.06181933 -0.092222884 0.09395039 -0.05078034
000060 0a 63 ac 3d e2 d0 b2 3d 1e 16 aa 3d 80 66 75 bc
       0.08417328 0.087312475 0.08305 -0.014978051
000070 78 52 c2 bd 20 78 5a 3c ae 3b 8b 3d 34 36 c5 bd
       -0.09488386 0.013334304 0.06798492 -0.09629479
000080 58 ac b8 3c c8 32 3e bd ec 67 38 bd 62 57 b6 bd
       0.022543117 -0.046435148 -0.045020983 -0.08903386
000090 c8 a9 bb 3d 08 0e 8e bd da 55 a2 3d 30 c8 28 3c
       0.091632426 -0.0693627 0.07926531 0.010301635
0000a0 80 a0 3d 3c 22 6e b1 3d 90 3c a6 3c 6e 5c c6 bd
       0.011573911 0.08663584 0.02029255 -0.09685598
0000b0 ac c3 73 bd 3c 1b 5e bd 20 d1 bb bc f0 11 4c bd
       -0.05951278 -0.05422519 -0.022926867 -0.049821794
0000c0 a0 d1 cc bc fc 65 4b bd 14 2f b1 3d 78 db c3 bc
       -0.0250023 -0.049657807 0.086515576 -0.023908362
0000d0 a6 ec 9d 3d 5c bb b3 3d 40 9d c4 bb 0c 89 10 bd
       0.07711153 0.0877597 -0.006000191 -0.035286948
0000e0 54 cf 91 bd 10 f5 5c 3c 50 04 ac bd f8 32 89 bd
       -0.07119623 0.013486162 -0.0839926 -0.06699175
0000f0 d8 c6 e6 bd 30 36 b2 3d 0a 27 ae 3d 30 64 ad bc
       -0.11268395 0.08701742 0.0850354 -0.021165937
000100 98 df 57 3d 00 a4 94 ba d8 99 62 bd 0a 57 f6 3d
       0.05270347 -0.001134038 -0.055322498 0.1202832
000110 d4 93 50 3d 70 ae 9b 3c c4 b1 68 bd b8 83 cf bc
       0.05092223 0.019004077 -0.056810156 -0.025331363
000120 82 f1 fa 3d e0 66 cc 3c a8 82 3f 3d fc 46 64 bd
       0.12253095 0.024951398 0.046755463 -0.05573176
000130 fc 6c 41 3d 80 d7 6f bb c0 d1 c5 bd e0 99 6f bd
       0.047223076 -0.0036596954 -0.09659147 -0.058496356
000140 50 52 aa bc 20 67 01 bd 84 92 2b 3d 74 9e c8 3d
       -0.020791203 -0.03159249 0.041887775 0.097958475
000150 48 a5 f5 bd 10 5b b7 3c b0 33 26 bd 58 b4 94 bc
       -0.119944155 0.02238229 -0.040576637 -0.0181524
000160 be 74 e0 bd 88 5e de bd d0 5d f1 bc 5a 61 aa bd
       -0.10959767 -0.10857874 -0.029463679 -0.083193496
000170 f4 bb ba 3d 18 32 8a bd 0c 37 21 bd f4 61 55 bd
       0.091178805 -0.06747836 -0.039359137 -0.05209537
000180 54 05 6f bd 72 12 e8 bd c0 5c 44 bc 72 89 d7 bd
       -0.05835469 -0.11331643 -0.011985004 -0.105242625
000190 26 22 9c bd f0 8b 45 bc e0 9a f3 3c 1a 8e c9 3d
       -0.07623701 -0.0120572895 0.029736936 0.09841557
0001a0 1a 17 fc 3d 00 d5 53 3c 7e 1c 9d 3d 6a 69 f0 3d
       0.12309094 0.012929201 0.0767145 0.11738856
0001b0 a0 f6 e2 bc 78 3a df 3d 04 70 dc 3d ea 47 93 bd
       -0.02770549 0.10899824 0.10763553 -0.07191451
0001c0 ce 58 da 3d b0 3d ef 3c 54 f8 d7 bd 90 0c 6e bc
       0.106614694 0.02920422 -0.10545412 -0.014529362
0001d0 f0 87 07 3c 74 05 95 bd 00 72 51 bc 7c c3 08 3d
       0.008272156 -0.07276431 -0.012783527 0.033389553
0001e0 f4 b2 cc 3d 04 f4 03 bd 20 f7 4b 3c 70 68 93 3c
       0.0999507 -0.032215133 0.012449056 0.017994136
0001f0 d2 d7 ca bd 00 69 d8 bd e2 22 b0 3d 00 29 58 ba
       -0.09904446 -0.10566902 0.08600403 -0.00082458556
000200 32 ce f3 bd c0 06 83 3d 48 19 3a 3d c8 03 6a bd
       -0.11904563 0.06397772 0.045434266 -0.057132512
000210 26 ff dc 3d c0 94 b5 bc 68 ac 10 3d 6e 02 f0 3d
       0.10790853 -0.022165656 0.03532067 0.117192134
000220 86 4e 9e bd 60 70 df bc 00 a1 6d bd 68 bf a5 bd
       -0.07729821 -0.027275264 -0.05801487 -0.080931485
000230 b8 37 d2 3d 90 63 48 bd d8 e5 cc bc ba a6 b4 bd
       0.10264534 -0.048923075 -0.025011942 -0.08820863
000240 a2 5e c8 3d 46 86 b7 bd 20 c8 71 bd 6a 8d 9c 3d
       0.09783675 -0.089611575 -0.059028745 0.0764416
000250 74 ae 50 3d bc 5b 0d bd 6e 70 ef bd 86 97 a4 bd
       0.05094762 -0.034511313 -0.11691366 -0.08036713
000260 88 bf a4 3d 12 8a a4 3d 98 ac ef 3d 40 31 f6 3d
       0.08044344 0.08034147 0.117028415 0.120211124
000270 ee a4 9a bd 80 7d f7 bd 46 3a ba bd 14 33 1c 3d
       -0.07550989 -0.12084484 -0.09093146 0.03813465
000280 10 8f 2f bc e0 3f 0c 3c 72 b2 a6 3d ea 22 f7 3d
       -0.010715261 0.008560151 0.081395045 0.12067206
000290 70 2a fd bd 10 b4 9f bd c0 46 dc bd 3a dd ef bd
       -0.1236161 -0.07798016 -0.10755682 -0.117121175
0002a0 be 99 c4 bd f8 f7 96 bc 84 73 3b 3d 40 c4 e9 3c
       -0.095996365 -0.018428788 0.04576446 0.028535962
0002b0 28 24 f2 bd ae c4 81 3d 0a c5 8e bd ec 1f 66 3d
       -0.118233025 0.06336342 -0.06971176 0.056182787
0002c0 a8 e2 35 3d e0 48 0e bd 82 89 e2 bd 72 b5 80 bd
       0.04440561 -0.034737468 -0.11061384 -0.06284608
0002d0 1c 75 84 bd 50 a5 ab 3d 2c 0d f2 3d 98 2a 6a bd
       -0.06467649 0.0838114 0.118189186 -0.057169527
0002e0 b4 d1 26 3d 40 7c c7 bc 68 2b fa bd c6 83 8f bd
       0.040727332 -0.02435124 -0.1221531 -0.07007556
0002f0 a0 cc d0 bb 26 98 d8 3d 18 85 85 bd 2c eb 4a bd
       -0.0063720495 0.10575895 -0.06519526 -0.049540684
000300 fc bc ef bd ac f4 2d 3d 3e ad f6 3d 3c 71 3a 3d
       -0.11705968 0.042469665 0.12044762 0.045518145
000310 f6 5d 9e bd 64 95 db bd fe 79 b3 3d 88 50 85 bd
       -0.077327654 -0.107218534 0.087635025 -0.06509501
000320 30 8c f2 3d 50 82 8f 3d ec 0d c4 bd 10 12 cd 3d
       0.11843145 0.07007277 -0.09572968 0.10013211
000330 16 d1 f6 3d 2e 15 a2 bd 5e 1b ef bd 2e 1d c4 bd
       0.12051599 -0.07914196 -0.11675142 -0.09575878
000340 40 f7 7e 3d 8c 60 88 3d a4 c0 4d 3d 28 34 9f bd
       0.062247515 0.0665904 0.050232545 -0.0777362
000350 58 9c ca bc 12 42 e5 bd 48 87 bc bd 30 65 29 3c
       -0.024732754 -0.111942425 -0.0920549 0.010339066
000360 30 0a 85 bd a0 3a 21 bc 2c f3 06 3d 94 31 74 bd
       -0.06496084 -0.009840637 0.03294675 -0.059617594
000370 a2 c0 99 3d ac 12 de bd 48 1b b2 bd 86 ab e4 bd
       0.07507445 -0.10843405 -0.0869661 -0.11165528
000380 2c bb ea bd 06 bc e7 3d 0a d6 d0 3d f2 b1 8d 3d
       -0.114614815 0.113151595 0.10197075 0.06918706
000390 b8 fa 59 3d 38 36 17 bd f8 e2 e8 3d 80 5f 1c 3c
       0.05321762 -0.03691694 0.11371416 0.009544253
0003a0 b0 47 d9 3c fa 5e 92 3d 38 fc b6 3c c0 a0 13 3d
       0.026523441 0.071470216 0.022337064 0.036041975
0003b0 d8 48 2e 3d 16 70 c5 3d f0 18 8c 3c 78 da b4 bc
       0.042549938 0.09640519 0.017101735 -0.02207683
0003c0 5a 9e 99 bd 20 76 44 3c 40 c7 2c 3b 08 d5 9e bd
       -0.07500906 0.011991054 0.002636388 -0.07755476
0003d0 b2 ca d1 3d e0 fd f1 bd d6 10 da 3d 00 0a 81 bb
       0.10243739 -0.11816001 0.106477425 -0.0039379597
0003e0 5c c9 05 bd fa e8 fe bd 7c db 19 bd 86 5d b5 3d
       -0.032662734 -0.124467805 -0.037562832 0.08855729
0003f0 da 67 c9 3d ce 9d 98 3d 98 26 bd 3d 9c b3 0e 3d
       0.09834261 0.07451974 0.09235877 0.034839258

rnn.bias_ih_l0 f4 [64]
000000 4a 5a b4 bc fc c4 03 bd 90 64 83 bd ac bd e5 3d
       -0.02201571 -0.03217028 -0.06415665 0.11217818
000010 8d 3f a7 3d 40 99 42 3b ae de bb ba 03 f4 79 bc
       0.08166418 0.0029693395 -0.0014333331 -0.015255931
000020 c6 78 d3 3d 4c 6a 1f bd fa fe f4 3d 52 3d ca bd
       0.1032577 -0.038919732 0.119626954 -0.09874977
000030 40 fa 47 3c e6 68 fc bd 45 9e e2 3d 5a 54 bc 3d
       0.01220566 -0.12324695 0.11065344 0.09195776
000040 b9 01 96 bd 1d 47 af bd 10 d0 0b 3c 70 8c 02 bc
       -0.07324547 -0.08558486 0.008533493 -0.007968053
000050 52 67 08 3d 70 e8 da 3d 00 13 ba 3a c7 3d 2f 3d
       0.03330166 0.10688865 0.0014196336 0.042783525
000060 f4 e5 f7 bd 80 6c e8 3b 38 94 d1 3c 04 0e 11 bd
       -0.12104407 0.0070930123 0.025583372 -0.035413757
000070 3c 3d 2d 3d 03 5d 30 bd 60 5f de 3c 36 03 fb 3d
       0.042294726 -0.043057453 0.027145088 0.12256472
000080 b0 a7 db 3c a4 ac 00 3e a0 e2 d7 3b 62 4a cf bd
       0.026813358 0.12565857 0.006588295 -0.10121609
000090 90 5e c4 3d 78 d5 d6 bc c8 90 91 3d de be c9 bd
       0.09588349 -0.026224837 0.07107693 -0.09850858
0000a0 8c 65 9f 3d e1 80 59 bd 90 a2 f9 3d 30 a6 d1 3d
       0.077830404 -0.053101424 0.121892095 0.10236776
0000b0 14 1d 86 bd 98 38 dd bd ea a6 9c 3d 20 65 fd bc
       -0.06548515 -0.1080181 0.07649024 -0.03093201
0000c0 50 cb c8 3d be b4 e2 bd be 7a f4 3d d2 4c b3 bd
       0.09804404 -0.1106963 0.11937474 -0.08754887
0000d0 f0 1e da bd ea 20 b6 3d 2e cf b2 3d 7c 2c 9f bd
       -0.10650432 0.088929966 0.08730923 -0.077721566
0000e0 2d e1 55 3d 08 c5 cf bd 14 9c f4 3d b4 79 ab 3d
       0.052216697 -0.101450026 0.11943832 0.083728224
0000f0 8a f6 af 3d 1c f8 ad 3d 54 79 f6 3d 40 c4 5d 3b
       0.085919455 0.08494589 0.1203486 0.0033838898

rnn.bias_hh_l0 f4 [64]
000000 38 60 de 3d 92 13 b7 3c 50 0a 2b 3d b0 c7 45 bd
       0.10858196 0.022348199 0.04175788 -0.04828614
000010 0d 7d 6d bd 18 29 a1 bc 2a 07 c7 bb 05 ba c6 bd
       -0.057980586 -0.019672915 -0.006073852 -0.09703449
000020 18 78 d5 3c 78 ba 77 bd a0 2e d3 3b b0 01 4a 3d
       0.026058242 -0.060480565 0.006444767 0.049318016
000030 fe 92 ab bd 54 bf cf bd 41 97 9a 3d 06 8c f1 bd
       -0.08377646 -0.10143915 0.07548381 -0.117942855
000040 e9 34 be 3d d7 89 bc 3d 74 ad fe 3d 98 75 bf 3c
       0.092874356 0.09205978 0.12435427 0.023371503
000050 9f 64 a5 bd bc 55 14 bd 40 43 84 3b 46 5f bc bd
       -0.080758326 -0.036214575 0.004036337 -0.091978595
000060 34 75 a7 bd 5a 80 d8 bd 44 f6 17 3d 0c cf 9e bd
       -0.081766516 -0.10571356 0.03710009 -0.07754335
000070 e0 18 f2 3c 3e 1b fc bd 08 91 af 3d f8 c5 3c bd
       0.029552877 -0.123098835 0.085725844 -0.046087235
000080 86 1a fc bd 46 0b e4 bd 48 05 3e bd 96 0d db 3d
       -0.123097464 -0.11134963 -0.046391755 0.10695951
000090 08 62 21 bd 24 90 02 bd f4 50 44 3d 90 a6 62 bc
       -0.03940013 -0.031875744 0.047928765 -0.013833657
0000a0 e0 a0 02 be 8d eb b5 bc 60 1f 20 3c 00 92 10 3b
       -0.12756681 -0.022207046 0.009773105 0.002205968
0000b0 00 59 ef 3a 34 e8 45 bd 88 23 c6 bd 20 b2 86 bc
       0.0018260777 -0.04831715 -0.09674746 -0.016442358
0000c0 60 5f e2 3d 80 fd 36 bd dc a5 09 3d a8 f0 8d 3c
       0.110533476 -0.04467535 0.03360544 0.017326668
0000d0 68 e0 eb 3d 30 b4 bd bc 36 66 b4 3d 80 89 15 bc
       0.115174115 -0.02315721 0.08808558 -0.009127021
0000e0 0a f2 bd 3a 8f 53 79 bd 8e 17 c5 bd a0 0f 57 3c
       0.0014491689 -0.060870703 -0.09623633 0.013126284
0000f0 10 54 64 bc 52 46 98 3d 08 4b ed bd 00 2e 86 3a
       -0.013936058 0.074352875 -0.11586577 0.0010237098

fc1.weight f4 [128, 64]
000000 c0 89 cc 3d a0 ea 2a 3d d0 86 ba 3d b4 53 36 bd
       0.09987211 0.041727662 0.09107745 -0.04451342
000010 24 6d 2c 3c 32 b7 ba 3d e9 7a 8c bb 74 87 24 3d
       0.010524068 0.09116973 -0.004287113 0.04016824
000020 ac ba 6d bd 92 04 89 bd ca d5 9e 3d 22 73 ac 3d
       -0.058039352 -0.06690325 0.07755621 0.08420397
000030 de f2 ee 3d 84 c5 bc bd 00 b6 c8 3d 88 87 bf 3d
       0.11667417 -0.092173606 0.09800339 0.093520224
000040 f8 a0 38 bd 38 73 ed 3c fa d9 f6 3d da 19 d7 3d
       -0.045075387 0.028985605 0.120532945 0.10502978
000050 c2 2b f2 3d 90 b3 4b 3d 4e db 76 bb cc ee 7b 3d
       0.118247524 0.04973179 -0.0037667337 0.06150703
000060 ec c3 f2 bd ef da e6 3c c5 fd cb bc 8a ac de 3d
       -0.118537754 0.028180568 -0.02490128 0.10872753
000070 64 9a c1 bd 08 c4 e2 bd 1a 7f bd 3d ad fc 0d 3d
       -0.09453276 -0.11072546 0.09252758 0.0346648
000080 2c 83 bd bd 2c da 65 3c f4 22 10 bd ee e2 a7 bd
       -0.09253535 0.014029067 -0.035189584 -0.0819758
000090 58 5f ca 3d 3e 55 e8 bd 90 c2 b4 bd f4 18 52 bd
       0.098814666 -0.11344384 -0.08826172 -0.05129333
0000a0 c7 84 6f bd ef c4 76 bd dc 2a c0 bd 84 cf 1f bd
       -0.058476236 -0.060246404 -0.09383175 -0.03901626
0000b0 08 9f 4d 3d 1d 8d 8b 3a 47 73 e3 bc 84 21 b3 3d
       0.050200492 0.0010646913 -0.02776493 0.08746627
0000c0 12 f7 de bd b4 91 c3 3d f8 b4 17 3d ac bf cd 3d
       -0.10886969 0.09549275 0.03703782 0.10046324
0000d0 4e 0c e6 3d a8 12 b8 bd 4c 2e 26 3d dc ed 4f 3d
       0.11232816 -0.089879334 0.040571496 0.05076395
0000e0 ca f2 7f ba 5a 7a bb bc 20 5e 70 3d 92 79 93 3c
       -0.00097636564 -0.02288549 0.058683515 0.018002305
0000f0 34 79 19 bd f8 69 f9 bd fc 23 23 bd 41 0f 03 be
       -0.037469104 -0.12178415 -0.03982924 -0.12798788
000100 84 5d c3 bd 8e bf 8e bd 07 d3 a7 bd fb 3b 82 bc
       -0.09539321 -0.0697013 -0.08194547 -0.015897742
000110 dc d9 d8 3d 11 9f b4 3d 27 32 07 3c b2 91 3d 3d
       0.105884284 0.08819402 0.008251703 0.046281524
000120 05 90 d8 3d ed 1e e3 3d ed 09 6d 3d 1d b1 d5 bd
       0.105743445 0.11089883 0.057870794 -0.10434172
000130 23 17 9b 3c 6a d1 01 3e f9 d9 a1 3d 11 4f 73 bd
       0.01893193 0.12677541 0.07902903 -0.059401575
000140 ff 55 81 bd 16 f8 28 bb 48 97 83 3d 5f 5b 4b 3d
       -0.063152306 -0.0025782636 0.06425339 0.049647685
000150 cc c3 d9 3d 01 d6 8f 3d d9 96 94 bd d9 77 41 3d
       0.106330484 0.0702324 -0.072553344 0.047233436
000160 1b b4 d1 3d 59 34 24 bd 49 95 d9 bd b5 40 b0 3c
       0.102394305 -0.040088985 -0.10624177 0.02151523
000170 b7 85 04 bd f1 82 02 3e 41 49 a6 3d 55 91 ab 3c
       -0.032354083 0.12745263 0.08119441 0.020943323
000180 4f b1 c8 bd 03 bd 13 bd 0b 8e f8 3d 05 c3 aa bd
       -0.09799444 -0.036068927 0.121364675 -0.08337978
000190 e3 30 ad 3c 4e 8f 03 3e 66 85 59 bd e3 e9 8b 3c
       0.021141475 0.12847635 -0.053105734 0.0170793
0001a0 e8 06 3d 3c f8 59 69 3d 15 a4 ea bb 3f 18 a3 bd
       0.011537291 0.056970567 -0.0071606734 -0.07963609
0001b0 db 8e 03 3e 9d 22 d7 3c 09 ac ec bd 31 3d 81 bd
       0.12847464 0.026261622 -0.115562506 -0.063104995
0001c0 55 91 9a bb 03 cd 3c 3d 77 cd b6 bd cb fe 48 bd
       -0.004717032 0.046093952 -0.08925908 -0.049071115
0001d0 f9 a7 cf 3d f3 25 d0 3d 2d 3f 52 3d e9 0b cc 3b
       0.1013946 0.10163488 0.05132978 0.0062270057
0001e0 dd de d2 3c 05 31 f6 3d 3b c2 b4 bc e5 4b ea 3c
       0.025741035 0.120210685 -0.022065273 0.028600642
0001f0 a3 08 9e 3d 57 c9 95 bd ad 87 e3 3d 1b d8 a9 3d
       0.07716491 -0.07313793 0.111098625 0.08293172
000200 92 81 d0 bd 00 80 8a bd 10 2f b0 3d 90 9b fb 3d
       -0.101809636 -0.06762695 0.086027265 0.122855306
000210 68 6a d6 3c f8 da b5 bc 4e 9a a7 bd fe 54 92 bd
       0.026173785 -0.022199139 -0.08183728 -0.07145117
000220 ec d0 24 bd 9a a7 b7 3d d0 a7 45 bc b2 9c a0 bd
       -0.040238306 0.08967514 -0.012063935 -0.07842387
000230 40 92 42 3d ca ff c8 bd 7a 0e c8 3d 64 1a 73 3d
       0.047502756 -0.09814413 0.09768386 0.05935134
000240 30 45 e8 bd 4c 8c d7 bd 80 19 20 3b 40 27 6e bd
       -0.113413215 -0.105248064 0.0024429262 -0.0581429
000250 e2 2b e8 bd 00 fb 19 3a 68 0b 88 3d c4 3e 23 3d
       -0.11336495 0.0005873889 0.066428006 0.03985478
000260 98 40 88 3c ee ca ad bd b4 9a 54 3d b4 79 3e bd
       0.016632363 -0.084859714 0.05190535 -0.046502784
000270 ec 8d d8 bd 7c 40 71 3d ee cd 97 3d 98 a6 e6 3c
       -0.105739444 0.058899388 0.07412325 0.02815561
000280 ae 61 86 bd 46 dc bd bd 60 53 54 3d 6c 2b 63 bd
       -0.065616 -0.092705294 0.051837325 -0.055461332
000290 20 6e c2 bb 50 6c 0a 3d 12 8e bf 3d f4 55 7b bd
       -0.005933538 0.0337947 0.0935327 -0.06136127
0002a0 74 0f 34 3d 48 3d b0 3c ac fe 90 3d 34 dc 96 bd
       0.04396005 0.021513596 0.07079825 -0.07366219
0002b0 58 08 33 bd 90 bc 07 bd b0 c3 84 bc 2c f4 bd bd
       -0.04370913 -0.03313881 -0.016206592 -0.09275088
0002c0 b2 e6 ba 3d 08 d0 93 3c b0 c3 41 3d 38 8d 44 bd
       0.09126033 0.018043533 0.047305763 -0.04798624
0002d0 ae 94 9c bd 7a 65 88 3d 64 43 f2 3d 80 1c 7e bd
       -0.07645546 0.0665998 0.1182926 -0.0620389
0002e0 e8 6a 04 3d 74 ec ae 3d 9c 26 c7 3d 6c fb 2a 3d
       0.032328516 0.085411936 0.09724161 0.04174368
0002f0 64 cb 02 3d a0 cd dd 3d 60 d3 0c bd d0 af b2 bd
       0.03193225 0.108302355 -0.03438127 -0.0872494
000300 34 59 61 bd 5c 96 b3 3d c0 ed 90 3b 3e fa ca bd
       -0.05501671 0.08768913 0.0044228733 -0.09911011
000310 ea d3 8d bd 36 9d f1 3d 44 a9 9d bd 80 c7 bd bc
       -0.06925185 0.11797564 -0.076983005 -0.023166418
000320 08 f7 ad 3c 2e c3 af bd ac 60 d0 3d 90 45 4e bd
       0.021235958 -0.085821494 0.10174689 -0.05035931
000330 fa 9f bc bd c0 d1 c1 bd 94 d9 40 bd 5c ef 9a 3d
       -0.092102006 -0.09463835 -0.0470825 0.075651854
000340 8e ae 83 3d 00 dc 39 bb d0 68 c8 bc 2c bf f8 bd
       0.06429778 -0.002835989 -0.024464041 -0.12145838
000350 54 91 a8 3d 20 ec 73 3d 7a e7 f7 bd d0 fa 58 3c
       0.08230844 0.05955136 -0.121046975 0.013243392
000360 68 dc da 3d 3a 97 cd bd 08 2a d2 bc e8 cd 93 3d
       0.106865704 -0.1003861 -0.025654808 0.07217008
000370 2c 71 38 bd 00 e2 be 3a 70 93 64 3c c8 c2 f5 3d
       -0.045029804 0.0014563203 0.013951167 0.12000042
000380 60 b4 b2 bc fa a7 d6 bd 8e 47 fa 3d 3c b8 e8 3d
       -0.021814525 -0.10481258 0.12220679 0.11363265
000390 f0 05 ff 3d 00 20 53 bc 16 e6 95 bd fc 2d 6c 3d
       0.12452304 -0.012886047 -0.07319276 0.05766104
0003a0 0c 12 f2 3d 48 ea bc bd 98 86 c6 3c b0 80 67 3d
       0.118198484 -0.09224373 0.024234101 0.05651921
0003b0 30 6d e1 bd 06 e4 84 bd 6c 12 1b bd c4 75 a6 3d
       -0.11007154 -0.064888045 -0.037859365 0.08127931
0003c0 e8 41 e1 bc a8 05 5b 3d 80 6e 4a bb 02 c1 e4 bd
       -0.027497247 0.05347219 -0.0030888617 -0.11169626
0003d0 90 66 f9 3d b0 eb d5 bd fc 8b a3 bd 46 80 89 3d
       0.12177765 -0.104453444 -0.07985684 0.06713919
0003e0 f4 d1 8a bd 30 38 b2 bd c4 29 c1 3d 40 ce 8b bd
       -0.06778327 -0.08702123 0.09431794 -0.068264484
0003f0 00 9d 4a 3a 60 30 92 bc ea c7 9e 3d 3c e6 6a bd
       0.00077290833 -0.017845333 0.07752974 -0.057348475

fc1.bias f4 [128]
000000 94 cc 62 bd aa 04 31 3b 80 18 0b 3c ba f2 8d bd
       -0.055370882 0.0027010837 0.008489728 -0.06931062
000010 4f 92 68 3d 38 9a 70 bd f9 be 10 bd 05 04 43 3d
       0.056780156 -0.058740824 -0.035338376 0.047611255
000020 60 9b 29 3c 56 47 97 3d 3e 12 d3 3c 58 e9 9f bc
       0.010351986 0.07386653 0.025765534 -0.019520447
000030 98 a6 4e bd 05 7d 20 bc ad e9 0c 3e c0 a8 3d 3c
       -0.050451845 -0.009795432 0.13761015 0.011575878
000040 99 62 b1 bd df 64 16 3d d0 bc c2 3b 10 ed 2a 3c
       -0.08661384 0.036717292 0.0059429184 0.010432497
000050 60 4d d3 3b 79 a8 8e bd 0c f0 19 bd 9e f3 f9 3d
       0.006448433 -0.06965727 -0.037582442 0.122046694
000060 4f e7 b8 bd 89 9e 18 bc 64 dc c1 bd 00 d9 d6 3b
       -0.090284936 -0.0093151415 -0.09465864 0.00655663
000070 d4 f0 8c 3d 77 0f f0 3c f7 6e 8a bd b6 0a d3 bd
       0.06881872 0.02930425 -0.06759446 -0.10304777
000080 a1 ad 26 bb 6c 56 9b 3b ff 25 58 bd 41 e1 ba 3a
       -0.002543308 0.004740527 -0.05277061 0.0014257805
000090 a5 d8 be 3d 18 ec fc bc 5e aa a3 3d 5b 65 8a bd
       0.093186654 -0.030874297 0.07991479 -0.06757613
0000a0 60 4e 1e 3d 1c e0 38 3d 62 29 f0 3d b8 0b 8e bc
       0.038648963 0.045135602 0.11726643 -0.017339572
0000b0 07 1a 74 3d ab 49 96 bc 87 06 db 3c 6a 16 97 bd
       0.059595134 -0.018345674 0.02673651 -0.07377322
0000c0 2a 4c 37 3d c9 b5 c1 3d 11 0c d8 bd 38 44 b3 3c
       0.04475037 0.09458501 -0.105491765 0.021883115
0000d0 37 b9 8c 3c f5 4c a1 bd b8 fa 4f 3d 10 d2 c1 3c
       0.017178161 -0.078760065 0.050776213 0.023659736
0000e0 b9 2a 10 bd 0e 72 09 3c 0e c3 8e bd be e0 fb bc
       -0.035196993 0.008389009 -0.069707975 -0.030746814
0000f0 c2 f5 6f bd 85 84 c6 bd d0 f2 d4 bc 68 2f 4b 3d
       -0.058583982 -0.09693245 -0.025994688 0.049605757
000100 14 91 89 bd 8a 2b b5 3d 80 c9 7c bd 02 56 98 bd
       -0.067171246 0.08846195 -0.061715603 -0.0743828
000110 ee b3 58 3d 8e a1 f3 bd 8c f3 c9 bc 08 ce 91 3c
       0.05290597 -0.118960485 -0.024652265 0.017798439
000120 40 58 99 bc 33 3b 53 3d b7 12 8e bd be 8a c1 bd
       -0.018718839 0.05157013 -0.06937163 -0.09450291
000130 a4 17 96 bd a3 8e 5a bd 3f 6c 6b 3d 6c 6c c5 3d
       -0.07328728 -0.053358685 0.05747628 0.096398205
000140 19 3c 27 3c e9 37 07 be 17 d9 d9 bd 92 51 17 3c
       0.0102071995 -0.13204922 -0.1063711 0.0092357565
000150 62 91 68 bd 18 08 f3 bd 9b da 2b bb f9 f6 16 bd
       -0.056779273 -0.11866778 -0.0026222828 -0.036856625
000160 90 c2 9a bd 14 a7 99 3d d0 18 cd bd 1f 0a c3 bd
       -0.07556641 0.07502571 -0.10014498 -0.09523415
000170 d2 7a 9f 3d da ef a8 3d 52 a0 02 3b 44 d8 fc 3d
       0.07787098 0.08248873 0.0019931984 0.12345937
000180 16 5b 32 3d 98 a5 e0 3d c3 b8 c9 bd 60 12 94 3c
       0.043543898 0.109690845 -0.098496936 0.018075168
000190 58 98 04 3c 09 d2 09 bd 48 5c f3 bd 15 c4 06 3e
       0.008092962 -0.03364757 -0.118828356 0.13160737
0001a0 be 6d e2 bd a8 61 a1 bd 23 ea d2 bd 2d a7 a8 bc
       -0.11056088 -0.078799546 -0.10298564 -0.020587528
0001b0 45 9a d2 bc 3b 4f 95 bd 85 9f 49 3d 4b 4e 3e bd
       -0.025708327 -0.07290503 0.049224395 -0.046461385
0001c0 b3 21 30 3d db d3 42 bd 24 25 41 bd 0a 2d b7 3d
       0.043000888 -0.047565322 -0.04715456 0.089441374
0001d0 14 41 dd 3b 03 8d ca bd 02 82 c5 bd a4 0b 7f 3d
       0.0067521427 -0.09890177 -0.09643938 0.06226696
0001e0 6e 95 b7 bd cc e6 b4 bc 09 b1 95 bc 25 76 0a bc
       -0.08964048 -0.022082709 -0.018272894 -0.008451019
0001f0 f7 5c d3 3b 83 da 2f 3d 94 19 d5 3d 40 21 dd bd
       0.0064502913 0.042933 0.10405269 -0.107973576

fc2.weight f4 [10, 128]
000000 73 bf 94 bd 76 43 2c 3d f2 23 34 3d b2 73 dc bc
       -0.072630785 0.042056523 0.043979593 -0.026910637
000010 3a 1f 0b 3d 90 4e 8f 3d 97 77 6a 3d 99 11 ad 3d
       0.033965327 0.069974065 0.057242956 0.08450622
000020 27 a4 04 3c e6 4f 81 3d 35 02 a5 bc 8b 5e 0d 3d
       0.008095778 0.063140675 -0.020142654 0.03451399
000030 d5 09 a2 bd 79 3a 11 bc 58 13 6a 3d 09 31 a2 3d
       -0.079120316 -0.008864039 0.057147354 0.07919509
000040 1f cd 0e bd c1 75 2b 3b 39 30 ac 3d f7 ef ad 3d
       -0.034863587 0.0026162716 0.08407635 0.08493035
000050 74 7d 27 3c 69 db 15 3c 3c 5e 9b 3d d5 5c b7 3d
       0.010222781 0.00914655 0.07586333 0.08953253
000060 76 ab 79 bc 4b a8 c4 3d a6 82 90 3d a2 3f 8d bd
       -0.015238633 0.09602412 0.07056169 -0.068969026
000070 08 a5 3b bb be 1a 4a 3d c0 07 b8 3c db 8c 1b bd
       -0.0028632302 0.04934191 0.022464633 -0.037976127
000080 01 3a 81 bd 52 ca 13 bd 14 a2 5c 3d fb ca 93 bd
       -0.063098915 -0.03608162 0.053865507 -0.0721645
000090 64 40 b5 3b b2 09 60 3d a4 24 24 3d 43 d0 ac 3d
       0.0055313576 0.054696746 0.040074006 0.0843816
0000a0 08 d9 b6 bc 69 c3 27 3d 95 32 c1 ba 64 f5 3b 3d
       -0.022320285 0.040957842 -0.0014739806 0.04588832
0000b0 03 46 c7 3d 00 4a de bc f6 70 da 3c 44 09 03 bd
       0.097301506 -0.027134895 0.026665192 -0.03199126
0000c0 d4 50 3d bd 53 29 15 3d 38 db c3 3d 74 13 9d 3d
       -0.04621966 0.036416363 0.09563297 0.07669726
0000d0 47 41 82 3b b0 f9 0a bd 69 5b bf bb ed c7 6b 3d
       0.003975067 -0.033929527 -0.0058397544 0.05756371
0000e0 f3 32 d0 bc f3 61 94 bc 10 85 71 3b 21 18 cc 3c
       -0.02541492 -0.018113112 0.0036852993 0.02491385
0000f0 26 d7 e5 bb 7d 54 3c 3d ad 1c 0d bd 94 17 f8 bc
       -0.007014173 0.04597901 -0.034451175 -0.03028468
000100 9e ea f0 3b 90 6a 52 3d 6e de a5 3d c3 6a 94 3d
       0.0073521873 0.051371157 0.08099066 0.07246926
000110 b6 14 ad 3d fb df 45 3d 5a 18 41 3d 73 27 e8 bb
       0.08451216 0.048309308 0.047142364 -0.007084781
000120 56 ca a3 3d bb bc b8 ba 3b c7 2a bd e4 60 8e bd
       0.07997577 -0.0014094332 -0.041693907 -0.06952074
000130 44 89 53 bd 28 aa 6f 3d 64 c1 8a 3d 91 88 73 bd
       -0.05164458 0.058511883 0.067751676 -0.05945641
000140 1c c3 8c 3d 40 f7 3b 3d 03 26 4f bd e6 fa 88 bc
       0.06873152 0.045890093 -0.05057336 -0.0167212
000150 8a c0 a5 bd c9 3f e5 3c c0 b3 a2 3c de b0 76 3d
       -0.080933645 0.027984517 0.019861102 0.060227267
000160 4a 04 80 3d ae 67 96 3d 0c a2 9a 3c 1e 66 89 bd
       0.06250818 0.07343994 0.018876098 -0.067089304
000170 67 82 50 3d 7d c3 a0 bc 66 76 28 3d 26 ab 92 3c
       0.05090561 -0.019624466 0.04112854 0.017903876
000180 64 55 bf 3d fa 4f 51 3c e8 b8 92 3c f7 17 2d 3d
       0.09342459 0.012775416 0.017910436 0.042259183
000190 a6 b8 c4 3d 3a 2a 4d bc 7a e3 18 bd 9a df bd 3d
       0.096055314 -0.012522275 -0.037326314 0.09271164
0001a0 da 8c 45 3d f6 95 d9 bc f2 e0 94 bd 8d f3 05 bc
       0.04823003 -0.026560765 -0.072694674 -0.008175743
0001b0 20 8d b9 3d 2d f5 99 bd b7 4f 33 3d b6 40 82 bd
       0.090601206 -0.07517467 0.043777194 -0.06359999
0001c0 4d 20 27 3d 8a 79 2a bc 89 42 77 3d 5c 2b a5 3d
       0.04080229 -0.010404954 0.060366187 0.08064911
0001d0 9e e3 65 bd da bc cf bc f7 be 09 bd c5 15 7e 3d
       -0.056125276 -0.025358606 -0.033629384 0.06203248
0001e0 72 49 47 3c c1 a6 46 bd 2c 12 24 bd bb 3d 66 39
       0.012163507 -0.048498873 -0.040056393 0.00021957506
0001f0 d9 2d 43 bd 19 f3 95 3c f7 0e 8f bd 74 53 72 3c
       -0.047651146 0.018304395 -0.06985276 0.014790405
000200 bd ea 80 bd 47 94 7a bc 21 4e 86 bd 63 c7 b4 3d
       -0.06294773 -0.015294141 -0.06557871 0.088270925
000210 5d f3 58 bd 8d 1b 14 3d 3e 63 83 bd 5b 2e 87 3d
       -0.052966464 0.036159087 -0.06415413 0.066006385
000220 c8 77 6d bc 1f b5 d2 3d 50 43 4c bd db 27 a9 bd
       -0.01449389 0.10288452 -0.04986888 -0.08259555
000230 9d 98 28 bd f2 af 44 3d 48 05 91 3d 26 31 9f 3d
       -0.04116117 0.048019357 0.070810854 0.07773046
000240 c6 f4 5d bd 7e b7 26 3d fb 77 f0 3c 43 5d e5 3c
       -0.054188512 0.040702336 0.029354086 0.027998572
000250 d5 22 62 bd 88 3d 2f bc 7a 56 49 bd ad 1d 8a 3d
       -0.055209 -0.010695823 -0.049154736 0.067439415
000260 57 30 c8 3d 55 55 9f 3d 4d 27 55 3a c4 be 98 bd
       0.09774845 0.07779948 0.00081311614 -0.07458261
000270 e2 43 40 bd 6c 36 e0 bc 66 f9 b9 bc c8 e0 02 3d
       -0.046939738 -0.0273697 -0.02270193 0.03195265
000280 2f 58 34 bc b3 dd fe bb b8 43 82 bc 4b fd ba 3d
       -0.011007353 -0.0077778935 -0.015901431 0.09130343
000290 a0 f0 3c bd e0 87 a6 3d b2 8d 9e bd e4 35 fc 3c
       -0.046127915 0.08131385 -0.0774187 0.030787416
0002a0 5a fe 94 3d b4 1f a7 3d 78 b7 29 bd 9f 92 85 3a
       0.07275076 0.08160344 -0.041434735 0.0010190791
0002b0 5c 6e b4 3d b1 2e bd 3d 5c 7c 6f bd 58 eb 11 3d
       0.08810112 0.09237421 -0.058468208 0.035624832
0002c0 da 18 84 bd 77 b9 a7 3d 63 fc 95 3d 06 9f d0 bc
       -0.064500526 0.081896715 0.073235296 -0.025466453
0002d0 72 a9 bb 3d e0 c5 4a 3d 76 5d b3 3d d6 76 6c bc
       0.091631785 0.049505115 0.08758061 -0.01443263
0002e0 a3 79 35 bd 58 16 81 3d 85 e7 40 3d 78 1e 61 bd
       -0.044305455 0.0630309 0.047095794 -0.054960698
0002f0 27 70 17 bd eb d4 01 39 2b d9 af bc a7 8f 39 3c
       -0.03697219 0.00012381717 -0.021465858 0.011325753
000300 09 cd 2c bc f5 b3 8e bd 2b e7 6e bd 37 a4 0b 3d
       -0.010546931 -0.06967918 -0.058325928 0.034092154
000310 fc 76 a6 3d b6 89 78 3d 21 a0 43 3d ad e6 e9 3c
       0.08128163 0.060678206 0.047760133 0.028552378
000320 27 d6 17 3c 5b e3 76 3d ae ac 60 bd 3f d3 d7 3c
       0.0092673665 0.060275417 -0.05485218 0.026345847
000330 91 f7 cc ba 74 81 45 3d ac 8a 9b bd 5f f4 5d ba
       -0.0015637745 0.04821916 -0.07594809 -0.0008466895
000340 05 08 60 3d 98 d7 95 3c 99 07 85 bd 6d cd 1d bc
       0.054695148 0.01829128 -0.0649559 -0.009631497
000350 d3 40 a5 3d 42 ab f3 bc 2f 75 c2 3c 9e bc d2 3c
       0.08069005 -0.029744748 0.023737518 0.025724705
000360 96 e1 b0 3d 2f 41 83 3b 0f c6 f8 bc 6d 0e a3 3d
       0.08636777 0.004005573 -0.03036788 0.07961736
000370 14 51 a3 3c be ea ab 3d fc 8f e4 bc 84 9d 91 bd
       0.019936122 0.08394383 -0.027900688 -0.07110122
000380 3a 95 6d bd c1 cc f8 bc 63 80 30 bd 37 ea a5 3d
       -0.05800364 -0.030371072 -0.04309119 0.081013136
000390 6b 2f 8c 3b 76 e1 97 bd b5 49 88 bb f4 eb 08 3c
       0.0042781136 -0.0741605 -0.004159177 0.008357037
0003a0 19 f0 85 bd 12 fc 9d 3d 43 28 33 3c 5e 96 38 3d
       -0.065399356 0.07714094 0.010934892 0.045065276
0003b0 98 5a f6 bc e1 fe 01 3d 5b 9a 95 3d ba f1 ca 3d
       -0.030072495 0.031737212 0.073048316 0.09909387
0003c0 ce 69 ad bc 28 be 99 3b 9f 18 2a bc dd b1 b7 3d
       -0.021168616 0.004691858 -0.010381847 0.089694716
0003d0 00 79 73 bc 40 ba 95 3c d6 31 a2 bd a7 f0 49 bd
       -0.014860392 0.018277287 -0.07919662 -0.04930177
0003e0 a4 58 85 3a 15 3c 36 3d ea a6 ef 3c bd 8a 42 bd
       0.0010173512 0.044490892 0.029254396 -0.047495592
0003f0 e9 26 8f 3d 31 1e 4e bd 05 39 9a bd 7c 36 a3 bd
       0.069898434 -0.05032176 -0.07530407 -0.079693764

fc2.bias f4 [10]
000000 70 a4 a1 3d bc fc 8b bd e7 f7 a8 bd f1 c3 b3 bc
       0.07892692 -0.06835315 -0.082504086 -0.021944018
000010 8a 40 fd 3b 04 bd 65 3d 6e 1f 86 3d db 63 53 3d
       0.007728641 0.056088462 0.065489635 0.0516089
000020 97 4c 9c 3c 3c 9a 9f bd
       0.01907949 -0.0779309
