sampleCNN_RNNv2.pth (torch, 222940 bytes, 10 tensors)

conv1.weight f4 [32, 1, 3, 1]
0	0xbe7619d3	-0.24033289
1	0xbeae3152	-0.34022003
2	0xbc186bcc	-0.0093030445
3	0xbf0809c1	-0.53139883
4	0x3f149f55	0.5805562
5	0xbe87ed59	-0.2654827
6	0x3eabb157	0.33533737
7	0x3ee9b55c	0.4564618
8	0xbd9a2859	-0.07527227
9	0x3eeb2a89	0.4593089
10	0xbe56fd37	-0.20995031
11	0x3eaa44c4	0.3325559
12	0x3eb73a8e	0.3578686
13	0x3e281956	0.16415915
14	0x3f17b84e	0.592656
15	0x3d2ccef6	0.04218956
16	0x3e434fb0	0.19073367
17	0x3d9442dd	0.07239316
18	0xbe418284	-0.18897444
19	0xbe928637	-0.28618023
20	0xbf22985e	-0.63513744
21	0xbda5f6b6	-0.08103697
22	0x3e630e51	0.2217343
23	0xbdc3bfa0	-0.09558034
24	0x3ebcd1f0	0.3687892
25	0xbefe2a87	-0.4964182
26	0x3ecc4a3f	0.39900395
27	0x3ed758ca	0.42059928
28	0xbeea25a6	-0.45731848
29	0xbecdcf9d	-0.4019746
30	0x3d8270ca	0.06369169
31	0x3edb6db4	0.42857134
32	0x3dbdf7bd	0.09275768
33	0xbd8374b7	-0.06418746
34	0xbe4131e4	-0.18866688
35	0x3eee1eef	0.46507975
36	0xbee9b735	-0.45647588
37	0xbd93b0cd	-0.072114564
38	0xbd4e7309	-0.050402675
39	0xbe89ef05	-0.2694017
40	0xbeb8c266	-0.36085814
41	0x3f209983	0.6273424
42	0xbf0c6f52	-0.5485736
43	0xbed1e621	-0.40995887
44	0x3c8b0c93	0.01697377
45	0x3dc7ae23	0.09750011
46	0xbe4f7cdf	-0.20262478
47	0x3e937995	0.28803697
48	0x3f06720a	0.5251776
49	0x3ef0c574	0.47025645
50	0xbe2afadd	-0.16697259
51	0xbc09170b	-0.00836731
52	0xbd791d50	-0.06081897
53	0xbe298977	-0.16556345
54	0xbc38fecb	-0.011291216
55	0xbdbf24e1	-0.09333206
56	0xbe8cd8ec	-0.27509248
57	0x3e0d5c7a	0.13804808
58	0xbe675452	-0.2259076
59	0xbe931326	-0.28725547
60	0xbda43a34	-0.08018914
61	0x3f0ef022	0.55835164
62	0xbee678b2	-0.45013958
63	0x3ee432f7	0.44570133
64	0x3f2fbee8	0.68650675
65	0xbf394958	-0.7237754
66	0x3cf11429	0.029428558
67	0x3eab70c1	0.33484462
68	0x3e86fdec	0.26365602
69	0xbe905ebc	-0.28197277
70	0x3dcf4b1d	0.101217486
71	0x3f06b0da	0.52613604
72	0x3e4f6686	0.20253953
73	0x3deb9d8a	0.115046576
74	0x3e0fdca4	0.14049011
75	0x3f086778	0.5328288
76	0x3e373942	0.17892936
77	0xbf16e5c5	-0.5894435
78	0x3e43b52f	0.19112085
79	0xbe882f5b	-0.2659863
80	0xbe10173e	-0.14071366
81	0x3edbf55d	0.42960635
82	0x3e812134	0.25220644
83	0xbe86ecaa	-0.26352435
84	0xbdec73f2	-0.11545552
85	0xbea16d48	-0.31528687
86	0xbe5e9a35	-0.21738513
87	0xbef0f0d4	-0.47058737
88	0x3d786c8d	0.060650397
89	0x3e0b5ecb	0.1361038
90	0xbef5809e	-0.4794969
91	0xbeca91c9	-0.3956435
92	0x3ae74602	0.0017644765
93	0xbe2def23	-0.16985755
94	0xbd806667	-0.06269532
95	0x3e9f6e1a	0.31138688

conv1.bias f4 [32]
0	0x3dea8b89	0.114523955
1	0x3eb1b18e	0.34705776
2	0x3ef39053	0.47571048
3	0xbd7200cc	-0.05908279
4	0x3e8319f8	0.2560575
5	0xbeddc669	-0.43315437
6	0x3e410e63	0.18853144
7	0xbdfb7d8a	-0.12279804
8	0x3d0d31fe	0.034471504
9	0x3d965602	0.073406234
10	0x3ec37873	0.38177833
11	0xbe3d85bd	-0.18508048
12	0x3e44cb7e	0.19218251
13	0x3e7e631b	0.24842493
14	0x3e2d0829	0.16897644
15	0x3f15e321	0.58549696
16	0x3ede0102	0.43360144
17	0xbed403fb	-0.41409287
18	0xbed7777e	-0.42083353
19	0xbead5851	-0.33856443
20	0xbda5c48f	-0.08094131
21	0x3e053bd2	0.13011101
22	0xbe7bfd6e	-0.24608395
23	0x3f2afd76	0.66793
24	0x3f07bb6f	0.53020376
25	0x3d863faf	0.065551154
26	0x3cbd73c6	0.023126494
27	0xbdbdbb08	-0.09264189
28	0x3e41c559	0.18922938
29	0x3dc19955	0.09453074
30	0xbe3f8f2f	-0.18706964
31	0x3ded3eeb	0.11584266

rnn.weight_ih_l0 f4 [64, 640]
0	0x3dd8048a	0.10547741
1	0x3d145320	0.036212087
2	0x3c690060	0.014221281
3	0x3da18fb2	0.07888736
4	0x3ceaa548	0.028643265
5	0xbd0da670	-0.034582555
6	0x3d84a9aa	0.06477673
7	0x3c77f1e0	0.015133351
8	0x3da56936	0.08076708
9	0x3c83e930	0.016102403
10	0x3d961184	0.073275596
11	0x3d3de2fc	0.046359047
12	0xbd597e60	-0.053099036
13	0x3d1acdc4	0.03779389
14	0x3d98a5bc	0.07453486
15	0xbceeda08	-0.0291567
16	0xbd5a8000	-0.053344727
17	0x3d4c6a28	0.049905926
18	0xbdab3ce4	-0.08361223
19	0xbbc0e5c0	-0.0058867633
20	0x3d2eef2c	0.04270856
21	0x3ce9de80	0.02854848
22	0xbdcfe6d0	-0.10151446
23	0xbda36dde	-0.0797994
24	0xbda24c2e	-0.07924686
25	0xbdf57db8	-0.119868696
26	0x3dc8a8ca	0.09797819
27	0x3df15790	0.11784279
28	0x3d93f1f4	0.07223883
29	0x3d1f6e98	0.03892383
30	0xbd2b0cdc	-0.04176031
31	0xbb686800	-0.003546238
32	0x3d7df44c	0.062000558
33	0x3da5ee3c	0.0810208
34	0x3dcc642a	0.09980042
35	0x3ddbe4b2	0.107369795
36	0x3d0670a8	0.03282228
37	0xbca02e10	-0.019553214
38	0x3cb14440	0.02163899
39	0xbd952c5a	-0.0728385
40	0x3d9dfc7c	0.07714173
41	0x3d01bc44	0.031673685
42	0xbde8c98a	-0.113665655
43	0xbddee24a	-0.10883005
44	0xbdd17958	-0.102282226
45	0xbdc340c0	-0.095338345
46	0x3dd66a88	0.10469538
47	0xbd9e3576	-0.077250406
48	0xbd20e948	-0.039284974
49	0xbb354540	-0.0027659684
50	0xbdab5b66	-0.08367042
51	0xbdfa6196	-0.12225644
52	0xbcb2e148	-0.021835938
53	0x3d883082	0.06649877
54	0xbd9ac51a	-0.075571254
55	0xbca25eb8	-0.019820556
56	0xbcbd1d98	-0.0230854
57	0xbdf9feec	-0.122068256
58	0xbdaf1f76	-0.085509226
59	0x3d053cf0	0.032528818
60	0xbdeec90e	-0.11659442
61	0x3d9c5900	0.07634163
62	0x3dba2898	0.09089774
63	0x3dd46998	0.10371703
64	0x3dbbca88	0.09169489
65	0x3d0d2b28	0.034464985
66	0x3db6e6b4	0.08930722
67	0xbdd7a53e	-0.10529564
68	0x3de762d0	0.11298144
69	0x3d6ccab4	0.0578105
70	0xbd33453c	-0.0437672
71	0xbdd03042	-0.101654544
72	0x3d9d06fc	0.07667348
73	0xbd92dc7e	-0.07170962
74	0x3d9a3652	0.07529892
75	0xbd637628	-0.055532604
76	0x3c31bf10	0.0108487755
77	0xbd807a24	-0.062732965
78	0x3d87a448	0.06623131
79	0x3d991a3a	0.074757054
80	0x3dc44dfa	0.09585185
81	0xbdd9c74e	-0.106337175
82	0x3cc55900	0.02409029
83	0xbd04717c	-0.03233479
84	0xbd97f364	-0.0741947
85	0xbde0c1b6	-0.109744474
86	0x3dbf0f48	0.093290865
87	0xbdf89fe2	-0.1213987
88	0xbcfd0140	-0.030884385
89	0xbc3e42f0	-0.011612639
90	0xbdf50e92	-0.1196567
91	0xbca92b80	-0.020650625
92	0xbd16f1b4	-0.0368516
93	0xbdf1b992	-0.11802973
94	0xbbc3b860	-0.005972907
95	0x3dbd1a50	0.09233534
96	0x3da437fa	0.08018489
97	0x3db2dc82	0.08733465
98	0x3d2bd22c	0.041948482
99	0xbdd50ce4	-0.10402849
100	0xbc7c0a80	-0.015383363
101	0x3d98e4d2	0.07465519
102	0x3d95d212	0.07315458
103	0xbd8c9fb8	-0.068664014
104	0x3d82dbf6	0.063896105
105	0x3dcd631a	0.10028668
106	0xbc27aae0	-0.010233611
107	0x3d8747f4	0.06605521
108	0x3c687f90	0.0141905695
109	0xbca5c818	-0.020237014
110	0xbd2434b8	-0.04008934
111	0xbdaa0e22	-0.08303477
112	0xbdecbdc2	-0.11559631
113	0x3dc576da	0.0964181
114	0x3d3fe6b8	0.04685089
115	0x3dd3ce00	0.10342026
116	0xbdc83a36	-0.09776728
117	0xbda6e534	-0.08149186
118	0x3db0c336	0.086309835
119	0x3d99cd2e	0.07509838
120	0xbca5e528	-0.020250872
121	0x3dfd4508	0.12366682
122	0xbbdafd20	-0.006683007
123	0xbdab0b9a	-0.08351822
124	0x3c91e020	0.017807066
125	0xbdda8e10	-0.106716275
126	0xbdb4d136	-0.08828966
127	0x3b61b140	0.0034437925
128	0x3d98e396	0.074652836
129	0x3dfdefc8	0.1239925
130	0x3dc95aac	0.098317474
131	0xbb929c00	-0.004474163
132	0xbbd374a0	-0.006453112
133	0xbca48c88	-0.020086542
134	0xbda5cd3e	-0.080957875
135	0x3da97490	0.08274186
136	0x3df2bb7e	0.118521675
137	0x3d3f6b00	0.046732903
138	0xbdb2736e	-0.08713423
139	0x3de316ec	0.110883564
140	0x3d54e60c	0.051977202
141	0x3daaeaf8	0.08345598
142	0xbded53e6	-0.11588268
143	0xbd98c582	-0.074595466
144	0xbda9a2dc	-0.08283016
145	0x3dd4b72a	0.10386498
146	0xbdd337ce	-0.10313378
147	0x3dc89e4e	0.09795819
148	0x3df5c7b4	0.12000981
149	0xbd0fed60	-0.035138488
150	0x3d59680c	0.053077742
151	0xbdef4dbc	-0.116847485
152	0xbd89b4ca	-0.06723936
153	0x3b297f00	0.0025863051
154	0x3d7d46c0	0.06183505
155	0xbda39fc4	-0.07989457
156	0x3dca4c2a	0.098778084
157	0x3d52beac	0.05145137
158	0x3db42388	0.087958395
159	0x3dfc3fe4	0.12316874
160	0x3dec0dbc	0.11526057
161	0xbcd8ebb8	-0.026479587
162	0x3b9082a0	0.004410103
163	0x3cc0cb68	0.023534492
164	0xbc3d1000	-0.011539459
165	0x3dd9e472	0.106392756
166	0xbd346078	-0.044037312
167	0x3d2620c8	0.040558606
168	0x3dd274e8	0.10276204
169	0xbc86c508	-0.016451374
170	0xbd95f65e	-0.073223814
171	0x3dd4d6ba	0.10392518
172	0xbdcba358	-0.09943265
173	0xbd8dd5c2	-0.06925537
174	0x3d0fc660	0.035101295
175	0x3d5c70b8	0.053818434
176	0x3dccd4ac	0.100015014
177	0xbc1edac0	-0.009695709
178	0xbdf65354	-0.12027612
179	0xbc3d4bf0	-0.011553749
180	0x3dc91f84	0.09820464
181	0x3c935bc8	0.0179881
182	0xbde1f232	-0.11032523
183	0xbded7de8	-0.1159628
184	0x3ccb5ea8	0.024825409
185	0xbc9765e8	-0.01848121
186	0x3dec4586	0.11536698
187	0xbdc4d5e0	-0.09611106
188	0xbdcebf38	-0.10095066
189	0x3cbbbe28	0.022917822
190	0x3d8f3860	0.069931746
191	0x3d8ba862	0.06819226
192	0x3cc02910	0.02345708
193	0x3cf85bc0	0.030317187
194	0xbdd9982c	-0.106247276
195	0x3a82e700	0.0009987056
196	0x3de50afe	0.11183737
197	0xbdb33e48	-0.087521136
198	0x3cb70480	0.022341013
199	0x3db9dfee	0.09075914
200	0xbdf391a6	-0.118930146
201	0xbc91dba0	-0.01780492
202	0xbddcd5cc	-0.10782966
203	0x3ca27e40	0.019835591
204	0x3d9cc5c2	0.07654907
205	0xbdae7532	-0.08518447
206	0x3d54dbe8	0.05196753
207	0x3d827bf6	0.063713
208	0xbdea3d38	-0.11437458
209	0xbd97842c	-0.07398257
210	0x3d25c618	0.04047212
211	0xbdec2d82	-0.115321174
212	0x3d32ff88	0.043700725
213	0x3dc34020	0.09533715
214	0x3dcbcdf2	0.0995139
215	0xbce461b8	-0.027878627
216	0x3cbc7c50	0.023008496
217	0xbd25ea00	-0.040506363
218	0x3c80b7d0	0.015712649
219	0xbdbb4516	-0.091440365
220	0x3df241f6	0.11828987
221	0x3ca1e980	0.019764662
222	0x3dbb29be	0.09138821
223	0xbd6e5e00	-0.058195114
224	0xbd6cc204	-0.057802215
225	0x3db305ec	0.08741364
226	0xbdcd3350	-0.10019553
227	0xb9090c00	-0.00013069808
228	0xbddaf41e	-0.10691093
229	0xbdb1fb8a	-0.086905554
230	0x3d9aa270	0.07550514
231	0xbd1e94b0	-0.03871602
232	0xbdefc4e8	-0.11707479
233	0x3db7b2b6	0.08969633
234	0xbd9dd588	-0.077067435
235	0x3c79c790	0.015245333
236	0xbdba3942	-0.09092952
237	0x3cc6acb0	0.024252266
238	0xbd50004c	-0.050781533
239	0x3df32fec	0.11874375
240	0x3d0d3a74	0.034479573
241	0xbc838410	-0.016054183
242	0x3dbbfa10	0.09178555
243	0xbdc0210a	-0.09381302
244	0xbd7d78a8	-0.061882645
245	0x3c9e3958	0.019314453
246	0x3dbef12a	0.09323342
247	0xbcaf5bb0	-0.021406025
248	0x3defe27c	0.1171312
249	0x3b82fb00	0.0039972067
250	0xbc0de4b0	-0.00866048
251	0xbddd7d7a	-0.108149484
252	0xbdfca2ee	-0.12335764
253	0xbcbf6e60	-0.02336806
254	0x3d727e04	0.05920221
255	0xbded2988	-0.11580187

rnn.weight_hh_l0 f4 [64, 64]
0	0xbd3c6e10	-0.0460034
1	0x3cdd45a0	0.027010739
2	0x3de02672	0.10944833
3	0x39f13800	0.00046008825
4	0x3d3603c4	0.044437185
5	0xbddb8dfc	-0.10720441
6	0x3d872dce	0.066005334
7	0x3cf06518	0.02934508
8	0xbb03f000	-0.0020132065
9	0xbd95cd34	-0.0731453
10	0x3d5d505c	0.054031715
11	0xbd45ee70	-0.048323095
12	0x3d867196	0.065646335
13	0xbd80c67a	-0.062878564
14	0xbcdf93f0	-0.027292222
15	0xbc38eb20	-0.011286527
16	0xbd75c920	-0.06000626
17	0x3d9acd04	0.07558635
18	0x3d1d0ddc	0.038343295
19	0xbd654ac8	-0.05597952
20	0xbd8537dc	-0.06504795
21	0xbd032f60	-0.032027602
22	0x3dd69492	0.10477556
23	0x3da86e70	0.08224189
24	0x3de56844	0.11201528
25	0xbddfb5be	-0.109233364
26	0xbd8da604	-0.069164306
27	0x3c2b7290	0.010464326
28	0xbc92c7e0	-0.017917573
29	0xbd80adec	-0.06283173
30	0xbd412e4c	-0.047163293
31	0x3d7e362c	0.06206338
32	0x3dc76d84	0.09737685
33	0x3d020738	0.031745166
34	0xbde4d066	-0.11172561
35	0xbdbd1a22	-0.092335
36	0xbbaf17a0	-0.0053433925
37	0x3c669640	0.014073908
38	0x3dc233f0	0.094825625
39	0xbdddcff8	-0.108306825
40	0x3da7bac8	0.081899226
41	0xbd6ff17c	-0.058579907
42	0xbda25a64	-0.07927397
43	0x3dcc165e	0.09965204
44	0xbc1b37f0	-0.009473786
45	0xbdfb9422	-0.122841135
46	0xbdce9d18	-0.10088557
47	0x3d4bbc58	0.049740165
48	0xbb075480	-0.002064973
49	0xbcd3da80	-0.025861025
50	0x3d0c5ce8	0.03426829
51	0xbde77e16	-0.11303346
52	0xbde676b6	-0.11253111
53	0x3d7ab170	0.061204374
54	0xbdb0f544	-0.08640531
55	0x3def6d6e	0.11690794
56	0xbdf3345a	-0.1187522
57	0x3dfbc128	0.12292701
58	0xba62e800	-0.00086557865
59	0xbdf07e10	-0.117427945
60	0x3d1ae5f0	0.03781694
61	0xbc887370	-0.016656607
62	0xbdec89ce	-0.11549722
63	0xbdcb9072	-0.0993966
64	0xbc002350	-0.007820919
65	0x3d899ca4	0.0671933
66	0xbdd46a58	-0.10371846
67	0x3db70eda	0.089383796
68	0x3d74ffcc	0.05981426
69	0xbdae6c2e	-0.085167274
70	0x3dd0675e	0.10175966
71	0x3c87f760	0.01659745
72	0x3b398e80	0.0028313696
73	0xbcadbdb8	-0.021208629
74	0xbdcd4418	-0.100227535
75	0x3d23fe98	0.04003772
76	0x3ca55388	0.020181432
77	0xbc3f2e50	-0.011668757
78	0xbca4ddd0	-0.0201253
79	0x3da44104	0.08020213
80	0xbc8d1a18	-0.017224357
81	0x3d294d2c	0.041333362
82	0x3de1f978	0.110339105
83	0x3c460600	0.012086391
84	0x3a6c7c00	0.0009021163
85	0x3df00e84	0.11721519
86	0x3dbf8ec0	0.09353399
87	0xbdc874e4	-0.0978792
88	0x3cb3cc90	0.021948129
89	0xbcc02650	-0.023455769
90	0x3d1dfed8	0.038573116
91	0x3d8e1f70	0.0693959
92	0xbde961be	-0.11395596
93	0xbd0b90bc	-0.034073576
94	0x3d9201a2	0.07129218
95	0xbd8ef0a0	-0.06979489
96	0x3df562b2	0.11981715
97	0xbd81981e	-0.06327842
98	0x3de6217e	0.11236857
99	0xbdbcad12	-0.09212698
100	0xbd2147f0	-0.039375246
101	0xbcae8df8	-0.02130793
102	0xbd82180a	-0.06352241
103	0x3d0f053c	0.0349171
104	0x3dbdb026	0.09262113
105	0xbdf47132	-0.11935653
106	0xbc299870	-0.010351285
107	0x3df42f9c	0.11923143
108	0xbd16ebfc	-0.036846146
109	0xbd224820	-0.039619565
110	0xbdb34eac	-0.0875524
111	0x3d45c560	0.048283935
112	0xbd39162c	-0.04518716
113	0xbd8c8dae	-0.06862961
114	0x3c53bb50	0.012923077
115	0xbdcb6482	-0.0993128
116	0xbb9c8180	-0.00477618
117	0x3da9290e	0.08259784
118	0xbdeff2ec	-0.117162555
119	0x3d2d24b4	0.04227133
120	0xbd571064	-0.052505866
121	0x3dfdbf74	0.123900324
122	0x3dec965e	0.11552118
123	0x3b883240	0.004156381
124	0xbda3ff08	-0.08007628
125	0x3c6748d0	0.014116481
126	0xbd571148	-0.052506715
127	0xbd59b7c0	-0.053153753
128	0x3de5097e	0.11183451
129	0xbda09b90	-0.07842171
130	0x3d92793e	0.07152031
131	0x3d0f6e34	0.035017207
132	0x3ba01900	0.0048857927
133	0xbd6148e4	-0.055001155
134	0x3d7eec80	0.062237263
135	0xbd9c8514	-0.0764257
136	0x3dc8e956	0.0981013
137	0xbc39bef0	-0.011337027
138	0xbdeada42	-0.114674106
139	0xbd21b358	-0.039477676
140	0x3d42e0b4	0.047577575
141	0xbdc7634e	-0.09735738
142	0xbd3e2e18	-0.046430677
143	0xbcb1c688	-0.021701112
144	0xbd7fbf98	-0.062438577
145	0x3d611e4c	0.054960534
146	0x3c990480	0.018678904
147	0xbd647454	-0.055775
148	0xbdd60fb4	-0.10452214
149	0xbcd10300	-0.025514126
150	0x3df22018	0.11822528
151	0xbda19a68	-0.07890779
152	0xbdabc230	-0.08386648
153	0x39914e00	0.0002771467
154	0xbd85d524	-0.06534794
155	0x3df74a36	0.120747015
156	0x3cfb5890	0.030681878
157	0xbd934776	-0.071913645
158	0x3dc6406e	0.09680258
159	0x3cfe41a0	0.031037152
160	0x3cd54648	0.02603449
161	0xbd05c11c	-0.032654867
162	0x3db4e99c	0.0883362
163	0x3dfe419a	0.12414856
164	0x3df07e86	0.117428824
165	0x3c403b20	0.0117328465
166	0xbdf6ea7a	-0.120564416
167	0xbd5fb550	-0.054616272
168	0x3cc39478	0.023874506
169	0x3d3d2a1c	0.046182737
170	0xbc1af530	-0.009457871
171	0x3b90c3a0	0.0044178516
172	0x3dd405c6	0.10352664
173	0x3d5d3744	0.054007784
174	0x3d929304	0.07156947
175	0xbd51bbdc	-0.051204547
176	0xbbfb7b00	-0.007674575
177	0x3c24c360	0.010056347
178	0x3c2b4a20	0.0104546845
179	0x3de8b870	0.11363304
180	0xbda04a4a	-0.078266695
181	0xbc30b5d0	-0.010785535
182	0x3d49ce3c	0.049268946
183	0x3dfeefa8	0.124480546
184	0x3c676210	0.014122501
185	0xbdded288	-0.108799994
186	0x3b527c40	0.0032117516
187	0x3d92f996	0.07176511
188	0x3c0174b0	0.007901356
189	0x3d1c63e0	0.038181186
190	0xbcf6aca8	-0.030111626
191	0xbd07b550	-0.033131897
192	0xbdd90e42	-0.105984226
193	0x3d046d40	0.03233075
194	0xbd9396e8	-0.072065175
195	0x3d8df874	0.06932154
196	0xbdd0f156	-0.10202281
197	0x3dc6489a	0.096818164
198	0x3de82418	0.11335009
199	0xbdd132b4	-0.10214749
200	0xbc0a7a80	-0.008452058
201	0x3d07d104	0.033158317
202	0xbcc7dec8	-0.024398223
203	0xbcec83f8	-0.028871521
204	0xbc5063e0	-0.012719125
205	0xbdb19a66	-0.08672027
206	0x3d0150e0	0.03157127
207	0x3c526930	0.0128424615
208	0xbda0ccd4	-0.07851568
209	0x3d92b21a	0.071628764
210	0xbdc5cbf8	-0.096580446
211	0xbdf703e8	-0.12061292
212	0xbd970db4	-0.073756605
213	0xbd809b60	-0.062796354
214	0x3d6205f8	0.055181473
215	0xbca21480	-0.019785166
216	0x3da9aafa	0.08284564
217	0x3aee6700	0.0018188655
218	0x3bd115e0	0.0063807815
219	0xbdc3a6c8	-0.095532954
220	0x3d740d9c	0.05958329
221	0xbc971258	-0.018441364
222	0xbdefb248	-0.11703926
223	0xbd0f344c	-0.034961984
224	0x3de6ddfa	0.112728074
225	0x3dd9c002	0.10632326
226	0x3ddbccec	0.10732445
227	0xbc97aa18	-0.018513724
228	0xbdca8e5e	-0.09890436
229	0x3dae329c	0.08505747
230	0xbd946d7c	-0.07247445
231	0x3cfbbbc0	0.030729175
232	0x3cac8178	0.02105783
233	0x3dba4a8a	0.090962484
234	0xbc6ae2d0	-0.014336303
235	0xbd9a5e54	-0.07537523
236	0xbdd5fab4	-0.104482085
237	0x3dc47b8e	0.09593879
238	0x3da27794	0.07932964
239	0xbd84a952	-0.06477608
240	0x3d68bd4c	0.056821153
241	0xbc22b290	-0.009930268
242	0x3da3095c	0.079607695
243	0x3dfa6e48	0.12228066
244	0xbdb3b4ea	-0.08774741
245	0x3c9024c8	0.017595664
246	0x3d3c0314	0.045901373
247	0xbdec4140	-0.11535883
248	0x3db2165a	0.086956695
249	0xbdf8c9c4	-0.12147859
250	0x3c494e40	0.012286723
251	0x3debdd22	0.11516787
252	0x3cd99668	0.026560977
253	0x3de2a276	0.11066143
254	0x3c2923b0	0.01032345
255	0xbdcbf88e	-0.099595174

rnn.bias_ih_l0 f4 [64]
0	0x3d32a80c	0.043617293
1	0xbd14e718	-0.0363532
2	0x3e07fadf	0.13279293
3	0x3c836eeb	0.0160441
4	0x3d464700	0.048407555
5	0x3df1b472	0.11801995
6	0x3c99ef42	0.018790845
7	0xba7e5900	-0.0009702593
8	0x3d47ca2c	0.04877679
9	0xbd3a7a5b	-0.045526844
10	0xbda56048	-0.08075005
11	0x3ce6f920	0.028194964
12	0x3d1571c4	0.03648545
13	0xbdbcb393	-0.092139386
14	0x3db7864e	0.089611635
15	0xbccd3636	-0.025050264
16	0xbd708b01	-0.058726314
17	0x3c4f6e43	0.012660566
18	0x3dd2a4e7	0.10285359
19	0x3d24e0cb	0.04025344
20	0xbdc00cb8	-0.09377426
21	0x3d82f1bc	0.063937634
22	0xbdaff427	-0.0859149
23	0x3cb92e4e	0.022605088
24	0x3dad6ad7	0.08467644
25	0x3d642ae1	0.055704955
26	0xbc7fc180	-0.015610099
27	0x3af28780	0.0018503517
28	0x3d5819d8	0.05275902
29	0x3dc0e1b3	0.09418049
30	0x3d06086c	0.032722875
31	0x3da65c2a	0.08123048
32	0xbda6fb7e	-0.08153437
33	0x3df6d2c4	0.12051919
34	0xbdefc7c4	-0.11708024
35	0xbdb706f0	-0.0893687
36	0xbd5d3ef8	-0.05401513
37	0x3dd37491	0.10324968
38	0xbccf3c55	-0.025297323
39	0x3d6d4d51	0.057935063
40	0x3d8d893e	0.069109425
41	0x3def489f	0.11683773
42	0x3df50c27	0.119652085
43	0x3ce81760	0.028331459
44	0xbd202c22	-0.03910459
45	0x3da4ff5b	0.08056518
46	0x3dafadcc	0.08578071
47	0x3dc33e26	0.09533338
48	0x3d80063f	0.06251191
49	0x3d9ea19c	0.07745668
50	0xbe01555b	-0.12630217
51	0x3d47dee4	0.04879655
52	0xbce5a17d	-0.028031105
53	0x3df1ca58	0.11806172
54	0xbdeab036	-0.11459391
55	0xbcbef730	-0.023311228
56	0x3db3b46e	0.087746486
57	0x3bfa06fa	0.007630226
58	0x3d740c9c	0.059582338
59	0x3dab40cc	0.083619684
60	0xbdebca32	-0.11513175
61	0xbda6e3f0	-0.081489444
62	0x3cfc1461	0.030771436
63	0xbc9a8b9e	-0.018865403

rnn.bias_hh_l0 f4 [64]
0	0xbda7ffce	-0.08203088
1	0x3d9a4d0e	0.07534228
2	0xbdcdc6e3	-0.100477
3	0x3de61f26	0.1123641
4	0x3dafb0a4	0.085786134
5	0xbd88337a	-0.066504434
6	0xbd40d000	-0.047073364
7	0xbd8ef6d4	-0.069806725
8	0xbda8d1ae	-0.08243118
9	0xbd60f2a3	-0.054918896
10	0xbc990d8a	-0.018683214
11	0x3d07808c	0.033081576
12	0x3de7386c	0.112900585
13	0x3c58fd0d	0.013243926
14	0x3d6e8263	0.058229815
15	0x3cb37ad2	0.021909151
16	0x3d1df5b3	0.038564395
17	0x3ddde458	0.10834569
18	0xbdde4381	-0.10852719
19	0x3c703ec0	0.014663398
20	0x3d5f5719	0.054526422
21	0x3d6f7836	0.05846425
22	0x3df8e56f	0.12153136
23	0x3d320494	0.043461397
24	0xbd95e463	-0.07318952
25	0xbe004fd1	-0.12530448
26	0x3a79d700	0.00095306337
27	0x3da7ca18	0.08192843
28	0x3d888b2a	0.066671684
29	0xbcd63e4f	-0.026152758
30	0x3d407824	0.046989575
31	0x3de055d0	0.109538674
32	0x3d48c018	0.04901132
33	0x3db9eb78	0.09078115
34	0xbcf4e056	-0.029892128
35	0x3d6bf978	0.05761096
36	0x3dd580e4	0.104249746
37	0x3d14500b	0.036209147
38	0xbdd1685d	-0.10224984
39	0x3c98ad66	0.01863737
40	0x3cabbf40	0.020965219
41	0x3cf75865	0.030193517
42	0x3ca76173	0.02043221
43	0xbdf196ec	-0.11796364
44	0xbc884c98	-0.016638085
45	0x3d5ef16f	0.054429468
46	0x3dc65830	0.09684789
47	0xbc884eed	-0.016639197
48	0xbcef7dff	-0.029234884
49	0x3d84bfb0	0.06481874
50	0x3c893dc2	0.016753081
51	0x3d7303dc	0.059329852
52	0x3a3f7746	0.0007303845
53	0x3e099278	0.1343478
54	0xbd4952a8	-0.049151093
55	0xbd9bfb86	-0.07616334
56	0xbd736bdc	-0.059429035
57	0xbcf9c2c2	-0.030488376
58	0xbd5c09cc	-0.05372028
59	0xbd5b3be8	-0.053523928
60	0xbdaa4498	-0.083138645
61	0x3d3f57f5	0.04671474
62	0x3de745a6	0.11292581
63	0x3c6b375b	0.0143564595

fc1.weight f4 [128, 64]
0	0x3a826d66	0.0009950816
1	0xbd3eb555	-0.04655965
2	0xbf11bccd	-0.5692871
3	0xbda261e3	-0.07928827
4	0xbdc74fc7	-0.09732013
5	0xbdc45ae7	-0.09587651
6	0x3d6d9670	0.058004797
7	0x3d68632b	0.0567352
8	0xbdc4cc2b	-0.096092544
9	0x3da42929	0.08015663
10	0xbc88d420	-0.016702712
11	0x3dd23283	0.102635406
12	0xbb83c940	-0.0040217936
13	0xbcd5ec7f	-0.026113747
14	0xbe2b4751	-0.16726424
15	0xbd8b230f	-0.06793796
16	0x3c89e4ca	0.016832728
17	0x3dae07f3	0.0849761
18	0x3dd05053	0.10171571
19	0xbdcece29	-0.10097916
20	0xbc063ef7	-0.008193723
21	0xbdf83bf9	-0.12120814
22	0xbd9478f9	-0.07249636
23	0xbdb3d216	-0.08780305
24	0x3e00acb0	0.12565875
25	0xbc55fe81	-0.013061167
26	0x3dc20143	0.09472897
27	0x3ce06045	0.027389655
28	0x3b8d1931	0.0043059816
29	0xbdfefb69	-0.124502964
30	0x3de01c11	0.10942853
31	0xbd21eba4	-0.039531365
32	0xbdb5b7ed	-0.08872972
33	0x3de9afb7	0.11410468
34	0xb97f9309	-0.0002437347
35	0x3d792490	0.060825884
36	0xbcc52246	-0.024064194
37	0xbdd48865	-0.10377578
38	0x3b4ad573	0.003094998
39	0xbd97e65a	-0.07416983
40	0x3dc6de9d	0.09710429
41	0x38815c83	6.168431e-05
42	0xbd68ed63	-0.056867015
43	0xbd40ed83	-0.04710151
44	0xbdd1d171	-0.10245026
45	0xbadd13e0	-0.0016866885
46	0x3c0b6de4	0.008510087
47	0xbd801fa8	-0.06256038
48	0xbd4dc308	-0.050234824
49	0x3b76b6e7	0.003764564
50	0xbd80361b	-0.0626032
51	0x3d62cddc	0.055372104
52	0x3dc41dd1	0.095759995
53	0x3ecf53bd	0.40493575
54	0x3dbad3dd	0.09122441
55	0xbe014e95	-0.12627633
56	0x3d57a284	0.05264522
57	0xbddc81e4	-0.10766962
58	0x3d97449d	0.07386134
59	0x3c60ce61	0.01372108
60	0x3da01689	0.07816798
61	0x3e9ddbad	0.30831662
62	0x3da5294e	0.08064519
63	0xbd57e564	-0.052709
64	0x3d06e692	0.032934733
65	0xbda3ca03	-0.07997515
66	0x3c61df8c	0.013786208
67	0x3921ea1f	0.00015441373
68	0x3d03f602	0.032217033
69	0x3a9350c5	0.0011239281
70	0xbdf652ad	-0.12027488
71	0x3e04a90b	0.1295511
72	0x3d2250ce	0.039627843
73	0xbdd782cf	-0.10522997
74	0xbd81912a	-0.06326516
75	0xbdcf7677	-0.10130017
76	0xbdc1ec1f	-0.09468865
77	0xbd9f0697	-0.07764929
78	0xbd826c75	-0.06368343
79	0xbdc986b5	-0.098401465
80	0x3be86f0c	0.007093316
81	0xbdf9b6d9	-0.121930785
82	0x3d39dd02	0.045376785
83	0x3dc72809	0.09724433
84	0x3dceb431	0.100929625
85	0xbd54058a	-0.051763095
86	0x3d03c7a2	0.032172807
87	0x39cc9703	0.00039022425
88	0xbd061ccf	-0.032742318
89	0xbde971bd	-0.11398647
90	0x3dca9001	0.09890748
91	0x3db119f3	0.086475275
92	0xbd0332ca	-0.032030858
93	0xbd3dc1a6	-0.046327256
94	0x3e019264	0.126535
95	0xbc97ca2b	-0.018529018
96	0x3de5734f	0.11203634
97	0x3c417ea5	0.01180998
98	0x3da8d617	0.082439594
99	0xbdc59be7	-0.09648877
100	0x3d9181cf	0.07104837
101	0x3dce86a5	0.10084275
102	0x3d20a612	0.039220877
103	0x3c203689	0.009778627
104	0x3ddd402f	0.10803258
105	0xbd329676	-0.043600522
106	0x3deaeee4	0.11471346
107	0x3dd18167	0.1022976
108	0xbdbc1d81	-0.09185315
109	0x3cbdf4c4	0.023188002
110	0xbddb93fd	-0.10721586
111	0x3d004167	0.031312373
112	0x3b808ed6	0.0039232774
113	0xbdc6ef3b	-0.09713598
114	0xbd81c679	-0.06336684
115	0x3caa27ec	0.02077099
116	0xbc4ecf28	-0.012622632
117	0x3db03003	0.086029075
118	0xbc7a8df5	-0.015292634
119	0x3b9ab46c	0.004721215
120	0x3d8c3955	0.06846873
121	0xbd93346f	-0.07187735
122	0xbcf507f4	-0.029911019
123	0xbceb1414	-0.028696097
124	0x3d9138d9	0.07090921
125	0xbdd86810	-0.10566723
126	0xbce7cbc4	-0.028295405
127	0x3bb12616	0.0054061515
128	0xbdf8d4e1	-0.121499784
129	0x3cf4b455	0.029871145
130	0x3d890e2b	0.066921555
131	0xbd8d8394	-0.06909862
132	0x3d81fb11	0.06346715
133	0xbd7d95f7	-0.061910596
134	0xbdbbed81	-0.0917616
135	0xbda96301	-0.082708366
136	0xbd1e6591	-0.03867108
137	0xbe04251c	-0.12904781
138	0xbdbd83cd	-0.09253655
139	0x3d1c76a9	0.0381991
140	0xbd8ccdbd	-0.06875179
141	0x3dc93bd5	0.09825865
142	0xbc252054	-0.010078508
143	0x3d2dac6d	0.042400766
144	0x3d945199	0.07242126
145	0x3d37e382	0.044894703
146	0xbd82524d	-0.06363354
147	0xbdb96e3b	-0.09054228
148	0xbcb6c24b	-0.022309443
149	0x3de3021f	0.11084389
150	0xbdf42168	-0.11920434
151	0xbd9a4153	-0.07531991
152	0x3c4a7256	0.012356361
153	0xbd6ebd68	-0.0582861
154	0x3d343505	0.043995876
155	0x3dce1899	0.100632854
156	0x3df9d727	0.1219924
157	0xbd9042dc	-0.070440024
158	0x3e096d97	0.13420711
159	0xbc615bfb	-0.01375484
160	0x3a6af11e	0.0008962321
161	0xbdb7a541	-0.089670666
162	0xbc6eba95	-0.014570852
163	0xbd8b267d	-0.067944504
164	0x3cdd558c	0.027018331
165	0x3d3df891	0.04637963
166	0x3db1f0ed	0.08688531
167	0x3ba56c0f	0.005048282
168	0x3dc8264d	0.0977293
169	0xbcf9a4ca	-0.030474085
170	0x3d0b8515	0.034062464
171	0x3e0983a5	0.13429125
172	0xbba1b383	-0.0049347295
173	0xbdd312fb	-0.103063546
174	0xbc6d1f85	-0.014472847
175	0x3d0af629	0.033926163
176	0x3d993d51	0.07482398
177	0xbd284f9f	-0.041091558
178	0x3dd63589	0.1045943
179	0x3da44745	0.08021406
180	0x3d4542f5	0.04815956
181	0xbdd6d6b0	-0.10490167
182	0x3da1ec9d	0.079064585
183	0x3db10a27	0.086445145
184	0xbbf9aeb8	-0.007619705
185	0x3d46dbef	0.04854959
186	0x3de1903d	0.110138394
187	0x3d5300cb	0.051514428
188	0x3d6e2888	0.058144122
189	0xbdb81c8e	-0.089898214
190	0xbd50c12e	-0.05096548
191	0xbdabed21	-0.08394838
192	0xbd302ef0	-0.043013513
193	0xbc969ad0	-0.018384367
194	0x3d9faf62	0.077971235
195	0x3dc04df6	0.0938987
196	0x3d8b5704	0.06803706
197	0xbdd61c20	-0.10454583
198	0xbc40a5f0	-0.011758313
199	0x3dbf101a	0.09329243
200	0x3d683d18	0.05669889
201	0x3d562a40	0.052286386
202	0x3df0a3b2	0.117499724
203	0xbd88091e	-0.06642364
204	0xbc4d6090	-0.012535229
205	0xbd495bd0	-0.049159825
206	0x3d6ee280	0.058321476
207	0xbdfd0280	-0.123539925
208	0x3dc752be	0.09732579
209	0xbcdd8030	-0.027038664
210	0x3dadb396	0.08481519
211	0xbdc0d47c	-0.09415528
212	0x3d9a8f0c	0.07546815
213	0xbdd21586	-0.102580115
214	0x3da9b716	0.08286874
215	0xbcbe8dd8	-0.023260996
216	0xbdb80cb6	-0.089867994
217	0x3d88e262	0.06683804
218	0x3c74c250	0.014938906
219	0xba0ca400	-0.0005365014
220	0x3dd292e2	0.10281922
221	0xbd8f3174	-0.06991854
222	0xbdc20510	-0.09473622
223	0xbc62ab80	-0.013834834
224	0x3dd8cf0e	0.105863675
225	0x3ddd6728	0.10810691
226	0x3dc37fb6	0.09545843
227	0x3dcf1cde	0.10112928
228	0x3c1c6f10	0.009547964
229	0x3d46f088	0.048569232
230	0xbdf7ac0a	-0.12093361
231	0xbc973750	-0.018458992
232	0x3d9519b4	0.07280293
233	0xbc3c2eb0	-0.011485741
234	0x3d34b494	0.044117525
235	0x3da38126	0.079836175
236	0xbc298ea0	-0.010348946
237	0xbd9b477a	-0.075819924
238	0xbdffe9d6	-0.124957725
239	0x3d8f22ce	0.0698906
240	0x3d9afff0	0.075683475
241	0xbde568c2	-0.112016216
242	0xbd655dc0	-0.05599761
243	0xbcc28100	-0.023743153
244	0xbc5d04c0	-0.013489902
245	0xbdbe972e	-0.09306179
246	0xbdff3d80	-0.12462902
247	0xbd262e6c	-0.040571615
248	0xbd89a324	-0.0672057
249	0xbded1b0c	-0.115774244
250	0xbdb4f28c	-0.08835325
251	0x3cce1a80	0.02515912
252	0x3cb6d6a0	0.022319138
253	0x3c8513f8	0.016244873
254	0x3d95e918	0.0731985
255	0xbdb90182	-0.09033491

fc1.bias f4 [128]
0	0x3d0ea47f	0.034824844
1	0xbdbb2183	-0.09137251
2	0x3de24d71	0.11049927
3	0x3d9bc632	0.07606162
4	0xbdc41c5a	-0.0957572
5	0xbccdef84	-0.025138624
6	0xbd71804a	-0.058960237
7	0xbd8702d5	-0.06592337
8	0x3df5279f	0.11970448
9	0xbe0b84a2	-0.13624814
10	0x3dd73fdf	0.10510229
11	0xbe06f109	-0.13177885
12	0x3ca4b547	0.020105971
13	0x3d6f54c4	0.05843045
14	0xbd1de00d	-0.03854375
15	0x3d3c1aa1	0.045923833
16	0x3de3985f	0.11113047
17	0xbd6c4f0f	-0.057692584
18	0xbd764da5	-0.06013264
19	0xbd935b25	-0.07195119
20	0x3c4ce9d5	0.012506922
21	0x3dc73d99	0.09728546
22	0x3de585a9	0.11207134
23	0x3dcc5393	0.09976878
24	0x3d188de6	0.0372447
25	0xbdbb3cf3	-0.091424845
26	0xbd39d7d6	-0.045371853
27	0x3d8f8d9d	0.070094325
28	0x3d9ead24	0.07747868
29	0xbb605c1a	-0.0034234584
30	0x3d1216b0	0.035666168
31	0xbdc9f8aa	-0.09861882
32	0xbbfafc50	-0.0076594725
33	0xbdcdc86f	-0.10047995
34	0x3dab23f0	0.08356464
35	0xbdd34329	-0.10315544
36	0xbd8dd0b6	-0.06924574
37	0xbd933680	-0.071881294
38	0x3d4c65de	0.049901836
39	0x3dabb08a	0.083832815
40	0xbcb10f19	-0.021613644
41	0x3d44ea0a	0.04807476
42	0x3da004bf	0.07813405
43	0xbdcd3aba	-0.10020967
44	0x3d8e9a21	0.069629915
45	0x3d050dc8	0.032483846
46	0xbddf6fc9	-0.10909993
47	0x3d13ac54	0.036053017
48	0xbdb3938e	-0.08768378
49	0x3ddffdd2	0.10937084
50	0xbdf662cd	-0.120305635
51	0x3d993688	0.07481104
52	0xbd309e43	-0.04311968
53	0x3dc6d25c	0.097080916
54	0xbdc4069d	-0.09571574
55	0x3dac9f7f	0.08428859
56	0xbd04201c	-0.032257184
57	0xbd27912c	-0.04090993
58	0x3dc26207	0.094913535
59	0xbcdb3174	-0.02675698
60	0x3d8c2936	0.06843798
61	0x3de4d393	0.11173167
62	0x3d499b6c	0.049220487
63	0x3dbbf6e3	0.09177949
64	0x3debbb87	0.115103774
65	0x3b891e51	0.004184522
66	0xbc6be5f0	-0.014398083
67	0xbdd34839	-0.1031651
68	0xbd329d17	-0.043606844
69	0xbda2311e	-0.079195246
70	0xbb8793ca	-0.004137491
71	0xbde1cf46	-0.110258624
72	0xbbc643ac	-0.0060505476
73	0x3dd982d4	0.106206566
74	0x3c8198df	0.015819965
75	0x3d6ce180	0.05783224
76	0x3c68a74d	0.014200044
77	0x3ddef78e	0.10887061
78	0x3d36d1d6	0.04463371
79	0x3d2bd912	0.04195506
80	0x3dac9835	0.08427469
81	0x3d0f04fd	0.034916867
82	0xbd937409	-0.07199866
83	0x3ccb4bee	0.02481648
84	0xbd6c025f	-0.05761945
85	0x3da0ea0e	0.078571424
86	0x3d2acee9	0.04170123
87	0xbd758d67	-0.059949305
88	0x3d6fa8d5	0.05851062
89	0xbd8f9e2f	-0.07012593
90	0x3d401da7	0.04690328
91	0xbc5af7d7	-0.013364754
92	0xbd4dbc15	-0.050228197
93	0xbc3a3822	-0.011365922
94	0x3b8f9b55	0.0043825307
95	0xbdd277df	-0.1027677
96	0xbdaa9698	-0.08329505
97	0x3d2f9664	0.042868033
98	0xbcff1c25	-0.03114135
99	0xbdc23685	-0.09483055
100	0xbdf50583	-0.11963942
101	0x3c338e75	0.010959257
102	0x3dc40f98	0.09573287
103	0xbdada50e	-0.08478747
104	0xbdafb1a5	-0.08578805
105	0x3d667eef	0.056273397
106	0x3dd1d7e2	0.102462545
107	0x3cdef1ca	0.027214903
108	0x3e007e57	0.12548195
109	0xbd590b14	-0.05298908
110	0x3b8a3c1b	0.004218591
111	0xbddb205e	-0.10699533
112	0x3d1d0d47	0.03834274
113	0xbdcd570a	-0.10026367
114	0xbce3c88c	-0.02780559
115	0xbd5a56e8	-0.053305537
116	0xba5b9ea8	-0.00083778286
117	0x3bfb7c82	0.0076747546
118	0xbd8affa9	-0.067870446
119	0xbdeea160	-0.116518736
120	0x3d39434c	0.045230195
121	0x3c093ad3	0.008375841
122	0x3dc52b47	0.09627395
123	0x3dca03e8	0.09864026
124	0xbccfe6b1	-0.025378557
125	0xbd94a6a8	-0.0725835
126	0x3d8ff3b2	0.07028903
127	0xbdb2d34c	-0.08731708

fc2.weight f4 [10, 128]
0	0xbe180482	-0.1484547
1	0x3d9cc113	0.076540135
2	0xbd9263ca	-0.071479395
3	0xbd9c33cd	-0.07627068
4	0xbcd74bb8	-0.026281223
5	0x3db5d9bc	0.0887942
6	0xbd4add3b	-0.049527388
7	0x3d7c25be	0.06155943
8	0xbcdf3a1d	-0.02724939
9	0x3d71aaa3	0.059000622
10	0xbd28ad88	-0.041181117
11	0xbca61339	-0.020272838
12	0x3dc14ef7	0.094388895
13	0xbe6d6d1d	-0.23186155
14	0x3cbd3650	0.023097187
15	0x3e55c2da	0.20875111
16	0xbe668edc	-0.22515434
17	0xbd972a57	-0.073811226
18	0x3d133c86	0.03594639
19	0xbcc1a33f	-0.023637412
20	0x3debdfd6	0.11517303
21	0x3bcf0fc6	0.006319019
22	0xbea20866	-0.31647032
23	0xba9f2565	-0.0012141882
24	0xbc7085fc	-0.014680382
25	0x3e2d7ad7	0.16941391
26	0x3e1287a8	0.14309561
27	0xbcfd9329	-0.03095396
28	0x3dc72c4d	0.097252466
29	0xbde40a15	-0.111347355
30	0x3d10b055	0.035324413
31	0x3bc43d1c	0.00598873
32	0xbc9f087e	-0.01941323
33	0x3d53c9c9	0.05170611
34	0x3d21091e	0.039315335
35	0x3dd97f03	0.10619929
36	0x3bcaf3b8	0.0061936043
37	0xbc8de8f2	-0.017322991
38	0xbd827cfd	-0.06371496
39	0xbd8865e9	-0.06660063
40	0xbcb08b70	-0.021550864
41	0x3cb460e9	0.022018867
42	0xbbb39ec6	-0.0054815738
43	0x3cca8caa	0.024725277
44	0x3e0889db	0.13333838
45	0x3ca233fc	0.019800179
46	0x3c2e64cb	0.010644148
47	0xbd3b622a	-0.045747913
48	0x3e063db2	0.13109472
49	0xbc82f7e3	-0.015987342
50	0x3d9e0421	0.07715631
51	0xbe3d23d1	-0.18470694
52	0xbc6aa2e3	-0.014321062
53	0xbdccda66	-0.10002594
54	0xbcfcf104	-0.030876644
55	0x3dc35f3e	0.095396504
56	0x3c8bdf5b	0.017074278
57	0xbd1fc555	-0.03900655
58	0x3d890ac0	0.066915035
59	0x3dd85cb2	0.10564555
60	0xbd8ef4aa	-0.0698026
61	0x3db3eec5	0.08785776
62	0xbda32ca1	-0.07967497
63	0xbe8dd312	-0.27700096
64	0xbd136093	-0.035980772
65	0xbe4bf6e9	-0.19918407
66	0xbbf9a92c	-0.007619044
67	0x3dbff05c	0.09372017
68	0xbda22879	-0.07917876
69	0x3db3786b	0.08763202
70	0xbe4f89e4	-0.20267445
71	0xbd87a120	-0.06622529
72	0x3a148450	0.0005665468
73	0x3d9083d3	0.070563935
74	0xbe2c3525	-0.16817148
75	0xbe018aa7	-0.12650548
76	0x3d9f5930	0.07780683
77	0x3d270a89	0.04078153
78	0xbd9ae3ce	-0.075629815
79	0x3da4e2f7	0.080511026
80	0x3cfe445a	0.031038452
81	0xbd9a3ccf	-0.075311296
82	0xbd355108	-0.04426673
83	0x3e1db92b	0.15402667
84	0x3dec9661	0.1155212
85	0xbcfe95b8	-0.03107725
86	0x3da34384	0.07971862
87	0xbb10d519	-0.0022099672
88	0x3e522814	0.20523101
89	0xbc487cfb	-0.012236829
90	0xbda85d04	-0.08220866
91	0xbd0dcde1	-0.03462017
92	0xbc6870ea	-0.014187077
93	0x3d9a58b2	0.075364485
94	0x3b03661d	0.0020049878
95	0x3c86ae00	0.016440392
96	0xbcfdd407	-0.030984892
97	0x3c2e0464	0.010621164
98	0xbd3c3fe3	-0.045959365
99	0x3ad62175	0.0016336875
100	0x3e0bbbb8	0.13645828
101	0xbbae3ad7	-0.005317073
102	0xbd4e3d99	-0.050351713
103	0xbd3f64a9	-0.046726856
104	0xbcde5a9b	-0.027142813
105	0xbd109643	-0.03529955
106	0xbccc744e	-0.024957802
107	0xbdbf04e4	-0.09327105
108	0x3cff3256	0.031151932
109	0x3df73963	0.120714925
110	0xbd5815e0	-0.052755237
111	0x3e005996	0.12534174
112	0x3e204a50	0.15653348
113	0x3dddb34f	0.10825216
114	0x3d5a2b63	0.053264033
115	0x3da4d5ed	0.080486156
116	0x3c19e7bd	0.00939363
117	0x3d23d138	0.03999445
118	0x3e734b21	0.23759128
119	0xbd21efcd	-0.039535332
120	0x3dab9650	0.08378279
121	0x3d99c155	0.07507578
122	0x3d8e175d	0.0693805
123	0xbd3737a3	-0.044730794
124	0xbc0855eb	-0.008321266
125	0xbbc4434b	-0.0059894673
126	0x3d5a0a27	0.05323234
127	0xbd3acd2f	-0.045605835
128	0x3e322c61	0.17399742
129	0xbd72f799	-0.05931816
130	0x388ccb76	6.713618e-05
131	0x3d14c953	0.03632481
132	0xbcf1974c	-0.02949109
133	0xbd7bfb58	-0.061518997
134	0x3d8b0327	0.06787711
135	0x3d799505	0.06093313
136	0x3d670180	0.056397915
137	0xbd217942	-0.03942228
138	0x3b1ee19b	0.0024243358
139	0xbd9dfa31	-0.07713736
140	0x3ddbdfce	0.10736047
141	0x3ea1e50b	0.31620058
142	0x3ae76c7c	0.0017656232
143	0xbe3e9edd	-0.18615289
144	0x3e52c87f	0.20584296
145	0x3e5ee843	0.21768288
146	0xbd04d041	-0.03242517
147	0xbaf40efa	-0.0018620186
148	0x3c7e4a61	0.015520663
149	0x3da84803	0.0821686
150	0x3e9288ff	0.28620145
151	0x3db37bdc	0.08763859
152	0x3e1d451e	0.15358397
153	0xbd6ea586	-0.058263324
154	0x3d27e92f	0.040993866
155	0xbcd2864c	-0.025698803
156	0x3ddca2ec	0.107732624
157	0x3dd53a42	0.104115024
158	0x3d01f8da	0.031731464
159	0x3bb7ab11	0.0056051095
160	0xbd0ba72c	-0.034094974
161	0x3de1d149	0.11026246
162	0xbd526338	-0.051364154
163	0x3dc164b5	0.094430365
164	0x3b6081cb	0.003425705
165	0x3dbc99c4	0.09209016
166	0xbd823cb3	-0.06359234
167	0xbd003e74	-0.03130956
168	0x3cbd2bd2	0.023092184
169	0x3d7b2051	0.061310116
170	0x3ddf1c80	0.10894108
171	0xbd9557a0	-0.07292104
172	0xbd106d2c	-0.035260364
173	0x3d564596	0.052312456
174	0xbc6c16f0	-0.014409766
175	0xbd750511	-0.059819285
176	0xbd267850	-0.040642083
177	0x3d7b8842	0.061409242
178	0x3d9096c6	0.07060008
179	0x3e0f0481	0.13966562
180	0xbc3a351f	-0.011365204
181	0x3e0dee29	0.13860382
182	0xbd91c640	-0.07117891
183	0x3cf96bca	0.030446906
184	0xbd8eb1c4	-0.069675
185	0xbd97e9d3	-0.07417645
186	0xbd17ad99	-0.03703079
187	0x3dadc3e3	0.08484628
188	0xbcad96e0	-0.021190107
189	0x3bb80e15	0.005616913
190	0x3cf32f34	0.029685594
191	0x3e7cfd3f	0.2470598
192	0x3deffe55	0.11718432
193	0x3e4795bb	0.19490711
194	0x3d09dc21	0.033657197
195	0x3cf862be	0.030320521
196	0x3d01c36e	0.031680517
197	0x3d4ae686	0.04953625
198	0x3e5dd651	0.21663786
199	0x3dd859cf	0.10564005
200	0xbd0ec525	-0.03485598
201	0xbd3b149d	-0.045673955
202	0x3e30de1c	0.17272228
203	0x3d1270b0	0.035752
204	0x3d955beb	0.072929226
205	0x3c01c765	0.0079210745
206	0xbd5328b2	-0.051552482
207	0x3d3742e5	0.04474153
208	0xbca6ea54	-0.020375408
209	0x3e4da4f6	0.20082459
210	0x3d7d03e2	0.06177128
211	0xbd9f7e04	-0.077877074
212	0x3dd899e2	0.10576226
213	0xbce90fa0	-0.028449833
214	0x3cb36c95	0.021902362
215	0xbd8ff2da	-0.07028742
216	0xbd19ecae	-0.03757923
217	0x3d62e3ce	0.055393033
218	0xbd6f081b	-0.05835734
219	0xbcc54012	-0.024078403
220	0xbc9039d9	-0.017605709
221	0xbc899e26	-0.016799044
222	0x3dd3b3a2	0.103369966
223	0xbd89c4db	-0.06727
224	0xbcf90417	-0.030397458
225	0x3d0f43af	0.034976657
226	0x3d2d9c2a	0.042385258
227	0x3dc39c76	0.09551327
228	0xbd409f66	-0.047027014
229	0xbd9d6ea2	-0.07687117
230	0xbc1199f2	-0.008886801
231	0xb9c7c8bb	-0.00038105794
232	0xbd87891d	-0.06617949
233	0xbd7080ed	-0.058716703
234	0x3dc3731b	0.09543439
235	0xbd842028	-0.06451446
236	0xbbc0e3bd	-0.0058865235
237	0xbd745785	-0.059653778
238	0xbd9b6630	-0.0758785
239	0x3cebf6ec	0.028804265
240	0xbcee0b60	-0.029058158
241	0x3dd744e6	0.10511188
242	0x3d2996ea	0.04140369
243	0xbd36a11a	-0.044587232
244	0xbd3f9034	-0.046768382
245	0xbd990d77	-0.07473271
246	0xbe41ed29	-0.18938126
247	0x3d6b0e3c	0.05738662
248	0x3da943c5	0.08264879
249	0x3d529c8c	0.051418826
250	0x3daa6518	0.08320063
251	0xbd9a5fc1	-0.07537795
252	0x3cfa360e	0.030543353
253	0xbc328f45	-0.010898416
254	0x3d9579c0	0.072986126
255	0xbd230ee1	-0.03980911

fc2.bias f4 [10]
0	0x3d1d390e	0.03838449
1	0xbd018611	-0.031621996
2	0xbdfe8ff9	-0.12429804
3	0xbdd4779a	-0.10374375
4	0xbb1291a7	-0.0022364648
5	0x3d18fd3f	0.03735089
6	0xbdb7cfd1	-0.08975185
7	0xbdbbc7b3	-0.09168949
8	0xbd21fa81	-0.03954554
9	0xbe00e40d	-0.12586994
