sampleCNN_RNNv2.pth (torch, 222940 bytes, 10 tensors)

conv1.weight f4 [32, 1, 3, 1]
000000 38 47 11 be 8a 71 86 3e 60 cb e6 be e0 38 2d be
       -0.14187324 0.26258498 -0.45077038 -0.16916227
000010 f7 7d 9b be e2 90 ab 3e 29 70 ba 3e fa 66 a9 3e
       -0.3036954 0.33508974 0.36413696 0.33086377
000020 24 60 91 be 28 5b 27 3e 81 0c 22 3e 12 76 02 3f
       -0.28393662 0.16343367 0.15825082 0.5096141
000030 4f 12 7a be d3 09 ec bc c7 ea 13 3f 1f c2 05 bf
       -0.24421047 -0.028813278 0.57780117 -0.5224933
000040 1a 21 97 3e d6 6a 31 be 1b 17 b0 3e 58 ec 23 3d
       0.29517442 -0.17325911 0.34392628 0.040020317
000050 78 ab 41 bf e8 d2 9b 3d db 5d b4 be b6 16 9a be
       -0.75652266 0.076085865 -0.35227856 -0.30095452
000060 3c 7d 1d 3f 6a 53 5d 3d 9a 7a 25 3e f4 ea ce bd
       0.6151922 0.054034628 0.1616005 -0.101034075
000070 6e d0 1b be 68 cf 4e 3e c1 96 e4 3e 9d 82 55 be
       -0.15216228 0.20196307 0.44646266 -0.20850606
000080 bf 2a 66 3e 38 73 c0 3d 2a ac 5c 3f c4 7e 12 3f
       0.22477244 0.09396976 0.862002 0.5722468
000090 31 13 bc 3b 9a 7b d4 bd 7c 48 dd be 83 3a 04 bf
       0.0057395925 -0.103751376 -0.43219364 -0.5165178
0000a0 6e 85 c7 be 5d 3e bf 3e 83 b7 4e 3d be 59 4e be
       -0.38968986 0.37352267 0.05046798 -0.20151421
0000b0 59 68 a2 3e 62 49 d0 be d5 71 0e 3e a1 25 9b 3e
       0.31720236 -0.40680987 0.13910611 0.30302146
0000c0 4e 82 d7 3e 07 08 ef be 68 ff 06 3e d5 8a 03 bf
       0.42091602 -0.46685812 0.13183367 -0.51383716
0000d0 c6 3e f4 be 37 18 6e be de 85 e8 3e fc 09 04 3e
       -0.47704142 -0.23251425 0.45414633 0.12894434
0000e0 83 8e b9 3e b6 72 5c 3e d6 91 dc be c7 82 b3 3e
       0.3624154 0.21528134 -0.43080014 0.35060713
0000f0 4e ba 01 3f e9 6e 3e be 17 4c f3 3e 14 bb e7 3e
       0.50674903 -0.18596996 0.4751899 0.45259917
000100 1d 3f 73 3e d3 a7 64 3e 81 a3 8f 3e 79 4c bb 3d
       0.23754545 0.22329645 0.2805443 0.091454454
000110 d9 a4 f5 3e a5 af 01 3f 0b e7 e6 3d 35 8b 9c 3e
       0.4797733 0.5065864 0.11274537 0.30574957
000120 66 0d cb be 01 57 d2 3e a6 e0 c2 bc ee 4a 18 3e
       -0.3965866 0.41082004 -0.023788761 0.14872333
000130 d9 3e 2e be e5 15 93 3e 82 51 be 3e 50 3c a5 be
       -0.17016162 0.28727642 0.3717156 -0.32272577
000140 38 ed 87 3e f4 32 41 be c2 7e 8c 3d 80 3a d6 3e
       0.2654817 -0.18867093 0.06860115 0.41841507
000150 24 c9 2c 3f 3b 73 16 be 81 59 c5 3d ef 33 c7 be
       0.67494416 -0.14692394 0.09636212 -0.3890681
000160 be a5 8e be a2 35 bb 3d 3f 1e 90 3e 39 a6 03 bf
       -0.27860826 0.09141089 0.28148076 -0.5142551
000170 61 1f f3 3d cc 6b e2 3e 6c 03 f3 be ad d2 8f bd
       0.118712194 0.44222867 -0.47463548 -0.07022605

conv1.bias f4 [32]
000000 1f d9 02 3e 0a 3e c3 be bb 67 16 3f 55 59 30 3f
       0.12778138 -0.3813327 0.5875203 0.6888631
000010 aa b8 50 3f 04 02 87 be 25 92 cb 3d 9b 36 e4 be
       0.81531775 -0.26368725 0.09939984 -0.4457291
000020 1c 18 39 3e f7 6c b7 3d e3 e6 08 3e 58 e4 1a 3f
       0.18075603 0.0895633 0.13369326 0.60504675
000030 86 da af be c9 59 e3 bd 85 68 f5 bd 15 d8 b0 3e
       -0.34346408 -0.111011095 -0.11982826 0.34539858
000040 04 b6 12 3f bd 29 c3 3e 92 e2 06 3f 94 7d 39 3e
       0.57308984 0.3811778 0.5268947 0.1811431
000050 cd 35 b9 bc 9e d8 dc 3e 16 e3 11 3f aa 78 e1 3d
       -0.022608662 0.43134016 0.5698713 0.11009343
000060 a9 4a 25 3e 79 a6 a8 3e 6e c5 c7 be 0d 47 1d bd
       0.16141762 0.3293951 -0.39017814 -0.038397837
000070 ef 0d ab 3e ce bd ed be 14 54 39 3f 92 9e 05 3f
       0.33409068 -0.46433872 0.7239392 0.52195084

rnn.weight_ih_l0 f4 [64, 640]
000000 7f 8d c3 3d 12 1f f3 bd 13 62 cf 3d ca fb 45 3b
       0.095484726 -0.118711606 0.10126128 0.0030209892
000010 76 08 35 3d 2e 7e c8 3c 86 e1 03 bd cd b7 2a bd
       0.044197522 0.02447423 -0.032197498 -0.041679192
000020 cb 35 77 3d 4c 3d 9d 3d f9 9a 21 bc b2 cf aa 3d
       0.060354035 0.07677707 -0.0098636085 0.08340396
000030 a0 52 92 bd 9c 5d 5e 3d 2f 5f da bd a8 c7 92 3d
       -0.07144666 0.05428849 -0.10662686 0.07166988
000040 e4 cf 7b 3d 58 43 82 bd b1 1d b6 bd 37 6f 60 bd
       0.061477557 -0.06360501 -0.08892382 -0.054793563
000050 fc b9 f4 bb 90 a2 37 3c 4a ab c1 3d 90 1a 5b 3d
       -0.00746846 0.0112081915 0.09456499 0.05349213
000060 4d e8 30 3d ec 8b 6e 3d 66 b9 60 bd 60 21 bd bd
       0.04319029 0.05823891 -0.05486431 -0.092348814
000070 7d 25 11 bd ef c1 16 bd bb 7f 98 bc 48 bb d4 bd
       -0.035436142 -0.036806043 -0.018615594 -0.103872836
000080 36 20 66 3d b6 78 35 3c da a6 d6 3d cd 67 b7 3d
       0.056183062 0.011076143 0.10481043 0.08955345
000090 73 a5 d5 3d b0 1f b2 3c 24 a9 b1 3d 13 dc f3 3d
       0.104319476 0.021743625 0.08674839 0.1190721
0000a0 30 8e e4 3c 2d ee 01 be d9 00 c9 3d 14 97 d0 3d
       0.027899832 -0.12688513 0.09814615 0.10185066
0000b0 89 d6 c8 3d 37 91 c1 3d c9 56 c0 bd bd 6a ba 3d
       0.09806544 0.09451526 -0.09391553 0.0910239
0000c0 77 55 cd b9 2a 36 78 bd 40 9a 0b bc 3d 58 7d bd
       -0.00039164323 -0.06059853 -0.008520663 -0.06185173
0000d0 d2 cf 21 bd c4 14 55 bd 37 a5 b3 3c 15 a1 39 bd
       -0.039504834 -0.052021757 0.021929367 -0.045319635
0000e0 a2 f2 38 bd 12 21 fa bc 96 fd 52 3c 5c 63 47 3d
       -0.045153268 -0.030533347 0.012877842 0.04867874
0000f0 f6 f4 81 bd fc ba ad 3d aa 48 c8 bd d8 54 ea bc
       -0.06345551 0.0848293 -0.097794846 -0.02860491
000100 90 c8 ae 3d 49 c6 a0 3d 5e 70 52 3d f2 90 87 3d
       0.08534348 0.0785032 0.051376693 0.06619443
000110 1a 33 ad 3d 20 3c 7d 3d 58 c7 8e bc 00 60 d4 b7
       0.084570125 0.061824918 -0.017429039 -2.5317073e-05
000120 08 e6 0f 3d 40 09 27 bc 7c 29 a6 3d ce c6 d0 3d
       0.035131484 -0.010195076 0.08113381 0.10194169
000130 e1 9d 6a bd 8c 6a 13 bd 44 a8 25 3d 4a d9 2f 3d
       -0.05727947 -0.035990283 0.040443674 0.042931832
000140 63 7e 40 bd 6a 85 d4 bd 13 74 9f bb 65 11 04 3d
       -0.04699553 -0.10377009 -0.004866132 0.03224315
000150 8f b4 7e bd 66 a2 11 bd 6c c7 63 bd ec 9d f5 bd
       -0.062183913 -0.035555266 -0.055610105 -0.11993012
000160 2f 67 53 bd bb d6 d7 3d ee bb 71 3d 3d 34 6a bd
       -0.051612075 0.105390035 0.059017114 -0.057178725
000170 4f 49 41 3d 83 11 65 bd 54 f9 c1 3d 76 91 66 bd
       0.047189053 -0.055924904 0.09471384 -0.056291066
000180 a9 cd bc 3c a3 d6 b6 bd df c1 e9 bc 66 30 b1 3d
       0.023047285 -0.089276575 -0.028534828 0.086518094
000190 37 f5 ba 3d f2 18 f0 bd ff a1 20 bd 33 e0 56 3d
       0.09128802 -0.11723508 -0.03921699 0.052459907
0001a0 c3 08 e5 3c d4 72 11 3d 98 9d a3 3d bb 19 09 bd
       0.02795828 0.0355099 0.07989043 -0.033471804
0001b0 4c 68 9c bd 70 d0 df 3c 0d d5 9d 3d 49 44 da 3c
       -0.076370806 0.02732107 0.07706652 0.026643889
0001c0 46 0b d7 3d ab 24 ff 3b 8e 47 f8 bc d4 fa 91 3d
       0.10500197 0.0077863536 -0.030307557 0.0712792
0001d0 c1 74 e5 bd 23 3b ae 3d 5c 89 c6 bd 15 83 23 3d
       -0.1120391 0.08507373 -0.09694168 0.03991993
0001e0 68 ff cb bc dc dd 45 bd 32 0d 42 bc c7 e4 03 be
       -0.02490206 -0.048307285 -0.011843966 -0.1288024
0001f0 b1 ee e0 bd c1 f9 87 3d ad 9d 46 bc 55 f9 b7 3d
       -0.10983027 0.06639434 -0.012122554 0.08983103
000200 30 ca c1 3d 29 4c ad 3d c4 4b 08 bd b7 9f 20 bd
       0.09462392 0.08461792 -0.03327538 -0.039214816
000210 a6 82 c1 3d b6 01 91 bd ca b4 f8 bd 4a 5f 15 bd
       0.09448747 -0.070804045 -0.12143858 -0.036467828
000220 4e 58 cd 3d 17 62 06 bd 9f 4f a2 bd 52 ac 14 3c
       0.100266084 -0.03280839 -0.07925343 0.0090742875
000230 9f cf 82 bd 7a 30 d9 3d 84 03 e3 bd 4d 89 aa bc
       -0.06387257 0.10604949 -0.11084655 -0.020817423
000240 70 9c a6 3d 92 0d d2 3d f1 21 9c bd 1b 54 de 3c
       0.08135307 0.102564946 -0.07623661 0.027139714
000250 26 45 78 bc a0 6d b1 bd 9e 64 3d bd ba 5f 69 3d
       -0.015153205 -0.086634874 -0.046238534 0.056976058
000260 ad 17 23 3d 96 e0 af bd 7a 65 8d bd 80 f9 71 bd
       0.0398175 -0.08587758 -0.06904121 -0.059075832
000270 b3 9e 84 3d d9 f0 f2 3d a0 67 81 bc 68 46 d8 3d
       0.06475582 0.11862344 -0.015796483 0.10560304
000280 2d e2 80 bd 06 25 92 bd e1 a0 fb 3c e1 c8 ca 3d
       -0.062931396 -0.07135968 0.030716361 0.09901596
000290 20 f2 ff bc c9 46 b0 3d 2c b8 d2 3c 2b ca a4 bd
       -0.031243384 0.08607251 0.025722586 -0.08046373
0002a0 60 33 5c 3d aa c2 be 3d 38 de 87 bd 9b 40 07 bd
       0.053759933 0.09314473 -0.06634182 -0.033020597
0002b0 ec 09 e9 3d 4f 59 f7 bc c3 d9 90 bd 23 93 76 3d
       0.113788456 -0.030193953 -0.07072785 0.060198914
0002c0 2b 75 03 be 4a 40 16 3c 5a 68 1a 3d ed 5f dd bd
       -0.12837665 0.009170601 0.037697174 -0.10809312
0002d0 5f 96 22 3d 1a c6 cf 3d 49 3f 95 bd 27 f4 0b 3d
       0.039694186 0.10145207 -0.07287461 0.03416839
0002e0 c7 95 92 3d 7c 79 f9 bd d6 38 bf bd aa 91 04 bd
       0.07157474 -0.121813744 -0.093370125 -0.03236548
0002f0 39 1e 85 3c 50 8e dd bc f2 32 cc 3d d8 8e a9 bd
       0.016249763 -0.027045399 0.099706545 -0.082791984
000300 65 ff ae 3d e7 12 12 bd da ab a0 bd 35 12 cb 3d
       0.085448064 -0.035662558 -0.07845278 0.09915582
000310 16 48 81 bd 38 6f 3d 3c 86 19 b1 3d bb fe 98 3d
       -0.063125774 0.011562161 0.08647446 0.07470461
000320 98 92 96 3d 70 32 a2 3d 1b 31 3e 3d b4 9c dc bd
       0.07352179 0.079197764 0.04643355 -0.10772076
000330 0a 35 95 bc 8c 82 20 3d 24 76 43 3c 21 31 74 bd
       -0.018213768 0.039187 0.011930022 -0.059617165
000340 3f 7f ac 3d 95 68 96 3c c8 4d 1b bd 37 4c 34 3d
       0.08422708 0.018360415 -0.037915975 0.044017997
000350 88 b2 b2 bd bb 87 9b bd 9a 3c 99 3b c4 1d 02 bd
       -0.087254584 -0.07594248 0.0046764137 -0.031766668
000360 2c a0 dc 3d b2 08 e8 bd b4 89 05 bd ec 37 e2 3c
       0.10772738 -0.113297835 -0.032602027 0.027614556
000370 95 bf 3c 3d fe 60 6c bd ee ba 2e bd 97 6d 2a 3d
       0.046081144 -0.057709686 -0.04265874 0.04160842
000380 bc 94 a5 bd 37 2a ae 3d 20 cc 43 3c 98 43 05 bd
       -0.080850095 0.085041456 0.011950523 -0.032535166
000390 90 71 14 bc 99 03 32 bd 43 1b 07 3d 60 11 b7 3b
       -0.009060279 -0.043460462 0.032984983 0.005586788
0003a0 f7 57 f6 bd 00 92 90 3d 74 9f f0 bc e2 9a d4 bc
       -0.12028497 0.07059097 -0.029372908 -0.02595276
0003b0 2b 94 37 3d c2 ff 3d bd 41 51 43 3c 9b 10 00 bd
       0.04481904 -0.046386488 0.011921228 -0.031265836
0003c0 df 94 84 3c af 22 06 bd 97 ac b6 bd 06 7e 5d bd
       0.016184269 -0.03274792 -0.08919638 -0.054075263
0003d0 89 0d 4a 3d a4 c4 01 be d9 c7 3c 3c ad fa 56 bd
       0.049329314 -0.12672669 0.011522257 -0.052485157
0003e0 72 36 d2 3c cc 86 d8 bc bd cf c7 bd 59 d1 9a ba
       0.025660727 -0.026431464 -0.0975642 -0.0011811658
0003f0 5a c3 d5 bd 84 a4 2b bd 4b 2e 5d 3b 40 1c e7 bd
       -0.10437651 -0.04190494 0.0033749517 -0.11284685

rnn.weight_hh_l0 f4 [64, 64]
000000 34 74 aa 3d 88 98 d4 3d c4 1a 96 bd 4c 4d 78 bd
       0.08322945 0.103806555 -0.07329324 -0.06062059
000010 c8 15 fc bc 80 3e b4 3c 44 ca 7e bd d4 a7 08 bd
       -0.030772105 0.022002459 -0.062204614 -0.03336318
000020 34 cf e3 bd 00 ff 1f ba e4 f9 56 3d 54 39 b8 bd
       -0.11123505 -0.00061033666 0.052484408 -0.089953095
000030 ee 6d ef 3d 94 04 ba 3d 16 04 c9 bd 70 0e 18 bc
       0.11690889 0.090829045 -0.098152325 -0.009280786
000040 d0 01 aa bd 32 01 ee bd d0 5b 3e bd ec 17 c8 bd
       -0.08301127 -0.11621322 -0.046474278 -0.09770188
000050 c0 fa 18 bd 04 f7 85 bd a0 5a 3a 3c e2 51 ed bd
       -0.03734851 -0.06541255 0.011374146 -0.115878835
000060 06 71 e3 bd 28 68 71 bd 54 00 86 3d 8c f6 51 bd
       -0.11105542 -0.05893722 0.06543031 -0.051260516
000070 c0 0e 40 bb 80 2f 68 bb d0 0e e3 bd 88 09 60 bd
       -0.0029305667 -0.0035428703 -0.1108681 -0.05469659
000080 7e d3 c7 bd 98 a6 a9 3d 5e f2 de 3d 3c 62 75 3d
       -0.09757136 0.08283728 0.108860716 0.059908137
000090 d0 86 71 bc 16 69 c8 bd 0a b5 a4 3d 6e a1 fb 3d
       -0.014741614 -0.097856686 0.08042343 0.1228665
0000a0 4a 1c e8 3d 00 91 86 3a 04 ef a2 bd 74 7c 92 3d
       0.11333521 0.0010266602 -0.07955745 0.07152644
0000b0 26 5c 89 3d 40 04 74 3d b0 e0 93 bd 1c b7 58 3d
       0.06707029 0.059574366 -0.0722059 0.052909
0000c0 d2 19 b2 3d c0 f8 17 3c 90 be 7f 3d 68 cb b6 bd
       0.08696331 0.009275615 0.062437594 -0.089255154
0000d0 ca 64 e0 bd 88 57 c0 bd dc 00 0f bd 28 1e 30 bd
       -0.10956724 -0.09391695 -0.03491293 -0.04299751
0000e0 9c ba b5 3d 9a b8 b7 bd 70 c2 2c 3d fc 1d d9 bd
       0.088734835 -0.08970757 0.042177618 -0.10601422
0000f0 80 c7 a7 bd 94 cc 44 bd 56 b4 fc bd de e5 f6 bd
       -0.081923485 -0.048046663 -0.12339084 -0.120555624
000100 96 ca 96 bd 80 ff 88 ba c0 51 62 3b 14 a6 30 3d
       -0.07362859 -0.0010452121 0.003453359 0.043127134
000110 b8 3c 6c bd 20 b9 fd 3c 10 5d 24 bc b8 93 c2 bc
       -0.057675093 0.030972064 -0.010031953 -0.023752078
000120 e8 da ec bc 80 00 29 bd e2 16 85 3d 18 ac 1b bd
       -0.028912976 -0.041260242 0.06498505 -0.03800592
000130 a0 c5 22 3c 08 56 df 3c 40 a7 8e bd c2 f4 ba bd
       0.009934813 0.027262703 -0.06965494 -0.09128715
000140 6c f9 e7 3d 50 d3 b0 bd fe e6 ec 3d 08 48 06 3d
       0.1132687 -0.08634055 0.11567496 0.032783538
000150 3e d5 c7 bd 1e bd c5 3d 54 c7 76 3d 40 b7 3d bd
       -0.097574696 0.09655212 0.060248688 -0.04631734
000160 80 eb 86 3a 50 d9 34 bd 30 1b e2 3d ec 10 a0 3d
       0.0010293573 -0.044152558 0.11040342 0.078157276
000170 8c 5f 3c bd 28 d0 39 3d 6a 0c d0 bd 7c c2 7a bd
       -0.045989558 0.04536453 -0.10158618 -0.06122063
000180 00 2d 8e bc 40 b8 96 bc c8 4a aa 3c 88 38 03 bd
       -0.017355442 -0.018398404 0.020787612 -0.032036334
000190 08 64 a2 3c a4 f9 50 3d 3c 07 33 bd ec 64 0c bd
       0.01982309 0.051019326 -0.04370807 -0.034275934
0001a0 18 a6 0f bd 4a f4 b2 3d 26 77 e8 bd 6c 3e e8 3d
       -0.03507051 0.08738001 -0.11350851 0.11340031
0001b0 da db c3 3d 20 00 8e 3c 6c 13 a5 3d a0 2e d4 bd
       0.09563418 0.017334044 0.08060345 -0.103604555
0001c0 fc ef 72 bd 98 e8 a7 3c 6e 36 ab 3d f8 ac b9 bd
       -0.0593109 0.020496652 0.08359991 -0.09066194
0001d0 da 05 96 bd 46 98 a5 bd 34 6e bd 3d 44 3d c9 3d
       -0.07325335 -0.080856845 0.09249535 0.098261386
0001e0 74 2a b1 bd 50 5c 65 bd 8c 9b fc bd 6c 27 b3 3d
       -0.086506754 -0.05599624 -0.12334356 0.087477535
0001f0 d8 40 91 bd 06 94 e3 3d 08 65 e3 bd fa 95 ce 3d
       -0.07092446 0.111122176 -0.111032546 0.100871995
000200 50 5a 7a bc 8a ba b4 bd be 3f b0 3d 26 90 bf bd
       -0.015280321 -0.08824642 0.08605908 -0.09353666
000210 24 81 70 3d 20 ea a9 bb c4 1d 82 3d 86 7c d2 bd
       0.058716908 -0.0051853806 0.063533336 -0.10277657
000220 26 17 9d 3d c2 ce b6 bd 2a e0 ac 3d 18 0e 12 3d
       0.07670431 -0.08926155 0.084411934 0.035657972
000230 00 bd 05 bd e0 40 c1 3b 6a 83 92 bd 0c df 40 3d
       -0.032650948 0.0058976263 -0.071539715 0.047087714
000240 02 34 f1 3d 22 fb a0 bd 8c 9a 71 bd 80 bd 64 bd
       0.11777498 -0.078604 -0.058985278 -0.055844784
000250 7e c9 bc bd 66 7b bf 3d 30 4a bf 3d 22 04 b4 bd
       -0.09218119 0.09349708 0.09340322 -0.08789851
000260 18 fd fe 3d bc f0 a3 3d 70 fe ab bc 2e dc 92 bd
       0.124506176 0.08004901 -0.020995349 -0.07170902
000270 d4 a4 a9 3d 10 b7 08 bc 58 6a 95 3c 42 d0 f0 bd
       0.082833916 -0.008344427 0.018239185 -0.11758472
000280 74 df 90 bd 3e 17 d5 3d a6 ff 97 3d 90 4f 35 3d
       -0.0707387 0.10404824 0.07421808 0.04426533
000290 54 71 c5 bd 4c 5e 4f bd 98 f2 a1 3c b0 37 87 3d
       -0.09640756 -0.050627038 0.019768998 0.066024184
0002a0 b8 d0 5d bd 80 d5 33 3c 5c cb e8 3d 0a 9e 8f 3d
       -0.054154128 0.010976195 0.11366913 0.070125654
0002b0 cc c1 d6 3d 0e 66 c0 bd 1e af df bd 68 54 f2 3c
       0.104861826 -0.093944654 -0.10922073 0.029581264
0002c0 28 a6 ba 3c a4 88 99 3d 6c 43 81 bd dc fd 30 3d
       0.022784308 0.07496765 -0.06311688 0.04321085
0002d0 28 c1 13 bd d4 bc d2 3d 0e 20 d0 bd 40 15 7b 3c
       -0.03607288 0.10289922 -0.10162364 0.015324891
0002e0 c4 c3 f7 bd 00 6b 35 3c 78 3d c5 bd 56 cb fd bd
       -0.12097886 0.011072874 -0.09630865 -0.12392299
0002f0 d8 08 ba bc 1a e7 e7 bd 54 8b a8 bd b8 49 a6 3c
       -0.022709295 -0.11323376 -0.082297 0.020298824
000300 4c 73 d0 bd 40 e7 f3 3c 68 e3 b1 3c d0 d3 22 bd
       -0.10178241 0.029773355 0.021714881 -0.03975278
000310 00 e9 41 3c b6 81 92 bd b8 bd df 3d fc 49 70 3d
       0.011835337 -0.07153647 0.10924858 0.058664307
000320 80 88 82 3d bc a3 94 bd a8 f9 80 bc 90 4b 8e bd
       0.063736916 -0.07257792 -0.015744045 -0.06948006
000330 c6 f3 f8 3d 3c a3 a0 3d a0 ad 50 bc fe 1d 85 bd
       0.12155871 0.078436345 -0.012736708 -0.06499861
000340 f6 ba ae bd bc d2 38 3d 60 af dc bc 14 81 43 bd
       -0.08531754 0.045122847 -0.026939094 -0.04773052
000350 dc c8 db 3d 70 99 87 bd 74 62 9f bd dc ae 81 3d
       0.1073167 -0.06621063 -0.0778245 0.0633218
000360 66 3b 88 bd a6 f2 ce 3d a0 3e da 3b 80 e6 61 bd
       -0.06651954 0.10104875 0.0066602975 -0.055151463
000370 40 3a f1 3d d8 ca 90 3c 20 df 37 3c a4 1b 4b 3d
       0.117786884 0.017674848 0.011222631 0.049586907
000380 80 5c a3 bd e0 84 7d 3d 0a 31 e8 bd b0 17 38 3d
       -0.07976627 0.061894298 -0.113374785 0.044944465
000390 1e 90 c9 bd ce 0e c2 3d 4e db a0 3d e8 8a d3 3d
       -0.09841941 0.0947548 0.07854329 0.10329229
0003a0 d0 35 ce bc 58 2d 53 bd 82 c7 c1 bd 96 7b c0 3d
       -0.025172144 -0.051556915 -0.09461881 0.09398572
0003b0 84 60 7d 3d d0 81 70 3d c0 40 62 3d ae 70 a1 3d
       0.061859623 0.05871755 0.05523753 0.0788282
0003c0 a2 a7 cc bd 98 3b a5 bc 08 11 f4 bc ac c7 17 bd
       -0.09992911 -0.020170018 -0.029793277 -0.037055656
0003d0 9c 3e 2a bd 78 45 80 3c 64 16 6f 3d b4 84 cf 3d
       -0.041563615 0.015658125 0.058370963 0.10132733
0003e0 70 68 f8 3c 4a bc c9 bd 6c 5b ff bd dc 68 ec 3d
       0.030323237 -0.098503664 -0.12468609 0.11543438
0003f0 88 f0 ef 3d c8 b8 ce bd 98 b0 a2 bc 88 72 e5 3d
       0.117157996 -0.10093838 -0.019859597 0.11203486

rnn.bias_ih_l0 f4 [64]
000000 f5 5a c8 bd eb 81 3b bd 02 38 8a bd b4 66 9a bd
       -0.09782974 -0.045778196 -0.06748964 -0.0753912
000010 8d 41 7b bc 30 f1 d0 3b 86 1a b9 3d 3e 72 ff bd
       -0.015335453 0.006376408 0.09038262 -0.12472962
000020 ac 80 b2 3d 92 2e ca 3d 89 c7 a6 bd 9c 72 e6 3d
       0.087159485 0.09872164 -0.08143527 0.11252329
000030 74 18 d5 3d 58 0e 5a bd a9 ec 69 bd c6 7e a3 bd
       0.10405055 -0.053236336 -0.057110462 -0.079831645
000040 a6 e4 e7 bd f8 c7 ed 3c 4c 0c 69 3d 42 17 da bd
       -0.11322908 0.029026017 0.056896493 -0.10648967
000050 c0 6b b7 3b 36 61 a3 bd 54 b1 e5 bd 47 a4 8a 3b
       0.0055975616 -0.07977526 -0.11215463 0.004231009
000060 d0 72 15 3d 66 f3 df bd 86 b3 9a 3d 76 f1 62 bd
       0.036486447 -0.109350964 0.07553773 -0.055406056
000070 65 12 dc 3d 70 dc 24 3d 37 52 c8 3d 52 c8 e0 bc
       0.10745696 0.040249288 0.09781306 -0.02743927
000080 23 18 97 bd 4a 5a 84 bd 29 c9 84 3c 7a 5d 9f bd
       -0.073776506 -0.06462534 0.016209202 -0.07781501
000090 b6 e4 a3 3d 1a 96 73 bd e0 b4 bb bb f6 c8 ee bd
       0.080026075 -0.05946932 -0.005728349 -0.11659424
0000a0 3a 08 24 bc 1a 5b 17 be ba 93 b1 3d 47 38 86 3d
       -0.010011727 -0.14780846 0.08670755 0.06553703
0000b0 1c d9 e6 bd 04 6a f8 3d b0 15 a9 3d 8b 2f d7 3d
       -0.11271879 0.12129596 0.0825609 0.10507115
0000c0 64 15 d9 3d 70 f1 1d 3d e0 19 ac 3d 36 85 83 bd
       0.10599783 0.03856033 0.08403373 -0.06421892
0000d0 80 96 d3 bb 2f c5 25 3c 60 40 70 3d 3c b1 60 3d
       -0.00645715 0.010117813 0.058655143 0.054856524
0000e0 c6 45 e7 bd 9e 76 f3 3d a8 c6 37 be b4 92 40 3d
       -0.11292605 0.11887859 -0.17946875 0.047014907
0000f0 e0 1a a3 bc 7a d1 54 3b 48 6f 8e 3d 80 c7 61 3c
       -0.019910276 0.003247349 0.06954819 0.013780475

rnn.bias_hh_l0 f4 [64]
000000 1b a8 51 3d ea aa 9b 3d a8 90 9f bc 60 22 e4 bc
       0.05118571 0.07600959 -0.019478157 -0.027848423
000010 2b c6 e3 3a d2 91 50 bd 9a 79 f4 bd 62 12 d2 bd
       0.0017377784 -0.050920315 -0.11937256 -0.102574125
000020 da 62 e2 bd 39 c4 40 bc 84 4e c4 bc c2 71 ef 3d
       -0.11054011 -0.011765533 -0.02396322 0.116916195
000030 80 2f 85 bb e4 a3 ed bd 0b 85 55 3d a0 78 06 bc
       -0.0040645003 -0.11603525 0.052128833 -0.00820747
000040 60 69 8d bc 30 97 d5 3d d8 f9 10 3d 46 03 fa 3d
       -0.01726216 0.10429227 0.03539452 0.122076556
000050 00 22 13 3c 2c d7 c9 bd 21 ea 24 3d 90 ab b0 3c
       0.008980274 -0.09855494 0.040262345 0.021566182
000060 ad 57 94 bd c4 3c c5 3d 16 be 98 3d 4d 6b 07 bd
       -0.07243285 0.09630731 0.07458131 -0.033061314
000070 86 27 93 3c d6 34 b4 bd bb 61 fc 3d c6 61 ad 3d
       0.017963182 -0.0879914 0.12323328 0.084659144
000080 1f 2c d3 bd d0 41 fd bc 82 bc 06 3e f0 4c 5f 3c
       -0.1031115 -0.03091517 0.13157848 0.013629183
000090 c0 5c b4 3d 8e 41 30 bd c8 5e 90 bc 60 93 de bc
       0.08806753 -0.043031268 -0.01762332 -0.027169883
0000a0 8e 46 12 3d 4a 47 09 be c0 96 97 bb 2c 01 5d bd
       0.035711817 -0.13406101 -0.004626125 -0.053956196
0000b0 30 0d 8b 3c 02 fa bc bd cc 87 d5 bd df c2 e6 bc
       0.016974062 -0.09227373 -0.10426292 -0.028169094
0000c0 b8 68 8d bd 00 b2 f3 3c 26 40 f1 bd 42 63 d1 bd
       -0.06904739 0.029747963 -0.117798135 -0.1022401
0000d0 bc 6b c1 bd 64 b6 bc 3d e8 b5 a1 bc 70 bc b0 bd
       -0.09444377 0.09214476 -0.01974006 -0.086296916
0000e0 a4 8a 17 bd 30 08 dd bc 94 94 85 bd 08 ca 99 bc
       -0.036997452 -0.026981443 -0.0652248 -0.018773094
0000f0 50 be 0a 3c ff b9 65 3c c4 db b0 bd a4 62 fe 3d
       0.008468226 0.014021396 -0.08635667 0.12421158

fc1.weight f4 [128, 64]
000000 de 8b bf bd 3c ab b9 bd 6b d2 ea bc e4 51 fa 3c
       -0.093528494 -0.090658635 -0.028664788 0.030556627
000010 97 cd 09 be 51 9a a5 3d 5a b0 c8 3d 2d b0 5a 3d
       -0.13457333 0.08086074 0.097992614 0.05339067
000020 fb 7c 12 3d 3d 88 fc bd 14 24 45 3d 52 29 ca bd
       0.035763722 -0.12330673 0.04813011 -0.098711625
000030 40 62 8d 3d 89 a6 09 be 62 fd 08 3a 05 90 b2 bc
       0.06903505 -0.13442434 0.0005225745 -0.02179719
000040 10 ce ac 3d d8 3c 8e 3d 92 86 c3 3d d4 98 eb 3d
       0.08437741 0.06945199 0.095471516 0.11503759
000050 dc 7f ab bd 1e ad 2b 3d 1c f6 94 bd 9a ed 0d be
       -0.083739966 0.041913144 -0.07273504 -0.13860169
000060 06 17 c0 3d ae 77 8b bd 34 a2 a8 3b a9 d8 4b bd
       0.09379391 -0.068099365 0.0051462892 -0.04976717
000070 15 af 44 bd 40 4d e0 bb fa 05 6f bd 9b 0c 2b bc
       -0.048018534 -0.0068451464 -0.05835531 -0.010440017
000080 3e f8 ae bd 10 94 af 3d 30 e0 36 3a 3f d5 35 bd
       -0.08543442 0.085731626 0.00069761556 -0.04439282
000090 16 28 7b bb 23 ff d4 3c 26 c6 f2 bd dc 74 81 bc
       -0.0038323454 0.026000565 -0.118542 -0.015802793
0000a0 d7 fb f0 3b 90 69 c4 bd f6 ef 64 3d ee 7f dd 3d
       0.0073542404 -0.09590447 0.055892907 0.10815416
0000b0 47 c4 2e bd fc 5d bc bd eb 31 d6 bc 03 be ae 3d
       -0.042667653 -0.091976136 -0.02614685 0.085323356
0000c0 2e 37 98 bc 0b e2 2d 3d df 50 86 3d 36 84 e5 bd
       -0.018581 0.0424519 0.06558394 -0.11206858
0000d0 c8 d7 e3 3d a6 02 09 3e 6a ee 0c bd 36 33 36 3c
       0.111251414 0.13379917 -0.034407057 0.011120608
0000e0 bc 13 06 be 52 b5 2a bd 1c 6a 5e 3c b0 94 87 bd
       -0.13093466 -0.041676827 0.013575103 -0.06620157
0000f0 21 14 7b 3d 90 46 81 bd 5e 2d a7 bd fe 1f 82 bd
       0.061298493 -0.06312287 -0.0816295 -0.06353758
000100 d0 7b 92 3d e0 28 07 3d 90 79 64 bd 80 6f c1 ba
       0.071525216 0.032997966 -0.055779994 -0.0014757961
000110 58 2b 98 3d 50 e3 79 3d 80 dc d2 ba 46 b0 f6 bd
       0.07430142 0.061007798 -0.0016087443 -0.1204534
000120 36 fa c5 bd c0 71 6b bb 50 d7 a3 3d 0c 8e 48 bd
       -0.096668646 -0.0035925955 0.08000052 -0.04896359
000130 00 90 b6 3a a8 39 6d 3d 34 82 b4 bd 74 06 78 bd
       0.0013928413 0.057916313 -0.08813897 -0.06055303
000140 98 6c ca bc a8 06 34 3d 88 3a f3 bc 60 13 24 3d
       -0.024709985 0.04395166 -0.029690996 0.04005754
000150 a0 6f f6 3d c6 99 a4 bd 66 6a e5 3d 40 85 63 bd
       0.120330095 -0.080371425 0.112019345 -0.055547
000160 b0 84 66 3c 10 9c d3 bd e0 83 7e 3c 58 63 ae bd
       0.014069721 -0.10332501 0.015534371 -0.08515042
000170 06 f0 fa 3d 50 3a 54 3d b0 34 6b 3d 28 01 d8 bc
       0.12252812 0.051813424 0.057423294 -0.026367739
000180 a8 12 bf bd dc 4b 0e bd 4a 09 eb 3d 68 f1 3b 3d
       -0.0932973 -0.034740314 0.11476381 0.04588452
000190 ca 48 de bd 08 2f be 3c 3a 23 f1 bd 54 1a f3 3d
       -0.10853727 0.023215786 -0.11774297 0.11870256
0001a0 b4 cf 7c bd b6 4c bf bd 16 15 84 bd 86 2e fd 3d
       -0.06172152 -0.09340803 -0.06449334 0.12362389
0001b0 ba 61 e3 bd 42 a1 99 bd 80 a2 2f bb d0 87 e8 bd
       -0.11102624 -0.075014606 -0.0026799738 -0.11354029
0001c0 80 ba 28 bb 94 b3 a5 3d 4c 7b d5 3d f8 37 4a 3d
       -0.0025745928 0.080908924 0.10423908 0.049369782
0001d0 18 e6 a1 3d 14 79 e2 3d 24 e0 60 3d 48 1f 4c 3d
       0.07905215 0.1105825 0.054901257 0.04983452
0001e0 d8 7b d0 bc 58 ef d1 bd 28 62 6f 3d 00 a6 ba ba
       -0.025449678 -0.10250729 0.05844322 -0.0014240146
0001f0 ea 22 d3 3d 30 f6 94 3c d0 99 3d 3c 00 1e bf b9
       0.10309394 0.018183798 0.011572316 -0.0003645271
000200 b8 c4 1a 3d 2a 2e ec bd 08 c5 8e 3c 8a 2a d4 bd
       0.037785262 -0.115322426 0.017427936 -0.10359676
000210 80 11 27 3c cc ea 85 3d 5e 30 94 bd 82 6a a4 3d
       0.010197043 0.065389246 -0.07235788 0.08028127
000220 76 b5 96 3d d8 e9 f6 bc d0 33 99 3c 4a 09 85 3d
       0.0735883 -0.030140802 0.018701464 0.064959124
000230 4c 31 87 bd 66 dc f6 bd 26 d7 86 bd 10 7e 65 bc
       -0.066011995 -0.120537564 -0.06584005 -0.014007106
000240 e8 69 a7 bc cc 2b b6 bd 28 a5 c9 3c 40 ee 0d bc
       -0.020436242 -0.08895072 0.024614885 -0.00866276
000250 ce 34 a5 bd 70 4f 78 bd 9a 1c 98 bd 00 cb 14 bb
       -0.08066712 -0.060622633 -0.0742733 -0.0022704005
000260 24 da 41 3d 8a 0b e1 bd fa eb bd bd a0 b5 5b 3d
       0.047327176 -0.10988529 -0.092735246 0.053640008
000270 1c 5b 26 bd 3e 9c f1 3d 8a 86 e1 bd 90 1f 0c 3d
       -0.040614232 0.11797379 -0.110119894 0.034209788
000280 5e c3 90 bd 1e c0 a5 3d 9a ec c7 3d 6c de 38 bd
       -0.07068513 0.08093284 0.09761925 -0.045133993
000290 e8 68 bf bc 5e c2 b1 bd 40 fa 40 3b 60 31 e5 3b
       -0.023365453 -0.08679651 0.0029446036 0.0069944113
0002a0 b8 94 b8 bd 9c 88 1f bd d8 32 95 bd b2 1b c6 bd
       -0.09012741 -0.03894864 -0.07285088 -0.09673251
0002b0 00 51 3a 3a 4a bc d1 3d 4a c2 f1 3d 28 37 66 3d
       0.0007107407 0.102409914 0.11804636 0.056204945
0002c0 5c d0 a3 3d c0 34 9c bb 94 b1 c1 bd c0 af a3 bb
       0.07998726 -0.0047670305 -0.094576985 -0.0049953163
0002d0 50 a1 40 3c b8 15 2d bd d8 a8 b8 bd f8 4e 09 3d
       0.01175721 -0.04225704 -0.090165794 0.033522576
0002e0 d0 e4 3a bd b8 99 21 3d 38 58 24 bd 08 3e 06 3d
       -0.04562837 0.03945324 -0.040123194 0.032774
0002f0 20 78 f6 bd 32 90 ef 3d 38 fe 91 3c b8 b4 78 bd
       -0.12034631 0.11697425 0.017821416 -0.06071922
000300 6c 8b f8 3d c8 35 b8 bd 56 c4 47 bd aa 2f c1 3d
       0.121359676 -0.08994633 -0.048771225 0.09432919
000310 90 c1 39 3d ca 53 d4 3d a1 62 d8 3d c2 0d 63 3d
       0.04535061 0.10367544 0.10565687 0.055433042
000320 d2 52 93 bd ac e7 f7 bc fa cd 08 bd 36 aa 3e bd
       -0.07193531 -0.030261837 -0.03339956 -0.046549045
000330 8d ba d5 3d 0e ff d9 bc e5 cf 39 bd 47 76 32 bd
       0.10435972 -0.026610877 -0.04536428 -0.04356983
000340 c1 0d 88 3b 88 b8 86 bd 5c 18 a9 bc 96 53 72 bd
       0.00415203 -0.06578165 -0.020641498 -0.059161745
000350 17 75 77 bd 7a 76 5d bd ee 5e 53 bd e4 bf f8 bd
       -0.0604144 -0.054068066 -0.051604204 -0.12145975
000360 8d 71 22 3d e8 1c 96 3d 47 e9 64 3d 16 14 24 3c
       0.03965907 0.07329732 0.055886533 0.0100145545
000370 fc b8 8b 3c 3e 26 a0 bd a4 a5 22 bd 8e f8 10 be
       0.01705598 -0.07819794 -0.03970875 -0.14157316
000380 a5 be a8 bd f0 db 18 3c f2 72 d4 3d 30 a6 01 be
       -0.082394876 0.009329781 0.103734866 -0.12661052
000390 be 96 6e 3d 60 72 ed 3d 14 8d 9c 3d c4 76 94 bd
       0.058249228 0.11594081 0.07644096 -0.07249215
0003a0 f6 27 8b bd 38 ed 7c bc d4 3b 2c 3c 0e 5c 9e bd
       -0.06794731 -0.015437417 0.010512311 -0.07732402
0003b0 53 96 f4 bc 10 60 98 3d 44 75 d6 3d a5 b4 81 3d
       -0.029856836 0.074401975 0.104715854 0.06333283
0003c0 40 36 07 3e 12 d7 bf ba e2 75 28 3d 5e 47 ab bc
       0.13204288 -0.001463624 0.041128047 -0.020908054
0003d0 9f 0c bc bc 73 4e c1 ba 50 1a d5 3d f5 13 d6 bc
       -0.022955237 -0.0014748111 0.10405409 -0.026132563
0003e0 77 15 43 3c 6f 57 a7 bc 32 d7 26 3e fb 48 bf bd
       0.011906973 -0.020427434 0.16293028 -0.09340092
0003f0 b3 12 7a bd ee ea cf 3d bc 9a 17 3d 95 53 bb 3b
       -0.06105299 0.10152231 0.0370128 0.005716751

fc1.bias f4 [128]
000000 3f c4 80 bd 90 80 b2 bd 42 cc ac bd 72 b7 58 3d
       -0.06287431 -0.087159276 -0.084373966 0.052909322
000010 b0 df 60 bd 7b 96 b8 3d 47 29 e3 3d 60 5d 73 bc
       -0.054900825 0.09013077 0.110918574 -0.014853805
000020 4f 02 3c ba af 59 c6 3c bb fd 00 be 3d e0 b9 bd
       -0.0007171975 0.024212686 -0.1259679 -0.09075973
000030 d6 ef fb bd f8 5a 23 3d 5d 93 80 3d 40 c0 18 bd
       -0.123016044 0.039881676 0.06278107 -0.03729272
000040 6e 3a 74 3d 88 39 9b 3d e0 bc 1c 3d c9 80 18 bd
       0.059626035 0.075793326 0.038266063 -0.037232194
000050 9c 98 c7 bd f7 e0 a9 bc 24 aa 09 be a0 52 7f bd
       -0.09745905 -0.020737154 -0.1344381 -0.062334657
000060 ef 5f 2e bd a8 31 cf 3d 35 d5 8c 3d cd e1 4f 3d
       -0.04257196 0.10116893 0.068766035 0.05075245
000070 e5 ae 2a bd 39 76 d3 bd d4 66 52 3d b0 2d 83 bc
       -0.0416707 -0.103252836 0.051367596 -0.016012996
000080 60 bd f0 bd 40 f7 3e 3d e6 74 9d 3d a2 3e b7 bd
       -0.117548704 0.046622515 0.07688312 -0.08947493
000090 77 2b d0 3d bc b4 c9 bd 48 f0 1a 3d c2 c8 5a ba
       0.1016454 -0.098489255 0.037826806 -0.0008345955
0000a0 a9 cc 0f bc 6e b1 90 bc fa 6c ea 3d 26 07 9b 3d
       -0.008776822 -0.01766273 0.11446567 0.07569723
0000b0 30 3c d9 bc 94 9d d6 bd c3 1c d4 3d c5 7d 7e bd
       -0.026517957 -0.104792744 0.10357048 -0.062131662
0000c0 13 b9 f7 3d 85 fc 9a 3d 69 3a f5 bc 84 df 70 bd
       0.12095847 0.075676955 -0.029935079 -0.05880691
0000d0 95 1d ec 3d c2 41 68 bd 70 3c 06 bb a0 0a 82 3d
       0.1152908 -0.056703337 -0.00204828 0.06349683
0000e0 e8 dc 5e 3d 50 a2 4d 3c 73 83 e5 3d 5a b5 a6 3d
       0.05440989 0.012550905 0.112067126 0.08140059
0000f0 5e 4a e5 3c 5c 87 31 bc 04 6e 17 3d de f2 0a 3d
       0.027989563 -0.010835495 0.036970153 0.033923022
000100 c0 6c c2 bc b3 d8 10 3c b3 b3 0a be 03 bd db bc
       -0.023733497 0.008840728 -0.13545112 -0.026823526
000110 00 1c 1c ba a3 9d 30 bd 0f fa c7 bc cb 8d ae 3d
       -0.00059551 -0.043119084 -0.02441123 0.085231386
000120 e0 68 64 bd 7b 82 ef bd d7 c8 9b bd 48 c0 61 3d
       -0.05576408 -0.11694809 -0.076066665 0.055115014
000130 3a 9a c0 3d ce 56 f2 bd 9e c9 63 3d 75 a1 c5 bd
       0.094044164 -0.11832963 0.0556122 -0.09649936
000140 d2 61 00 be ac 7b e2 bd db a3 e2 3d 64 57 6c 3d
       -0.12537315 -0.11058745 0.11066409 0.05770053
000150 fd 5c 1d 3c e8 6a 4f bc 97 4e 92 bd 42 5c d7 3d
       0.00960469 -0.012659766 -0.07143896 0.10515644
000160 8a f0 cd 3c 82 2d ce 3d 78 c0 e8 3d 75 cd 24 3d
       0.025139112 0.10067274 0.113648355 0.040235
000170 e7 02 a9 3b 97 a6 e8 3d 4e 11 72 3d 53 57 c3 bd
       0.0051578167 0.113598995 0.059098534 -0.0953814
000180 80 53 68 3d da b1 b9 3d 8f 60 58 3d fd 54 6f bd
       0.056720257 0.090671256 0.05282646 -0.05843066
000190 cc 45 a5 3d ab 85 3f bd e8 26 00 3d 45 33 96 bd
       0.08069953 -0.046758335 0.031287104 -0.07333998
0001a0 51 21 6f 3d 50 c8 4b 3c 22 56 a9 bc da b7 6a 3c
       0.058381382 0.012437895 -0.020670954 0.01432606
0001b0 e6 95 29 bd 39 79 dc 3d fa 81 e1 3d 0a 2d ae bd
       -0.04140272 0.10765309 0.11011119 -0.08504684
0001c0 0b 1b 86 3c 70 57 43 bc d4 56 71 bd ae 22 9b 3d
       0.016370317 -0.011922702 -0.058920696 0.07574974
0001d0 8b 81 c9 3d 6b b2 a7 bd 7f 07 97 bd e4 13 88 3d
       0.098391615 -0.081883274 -0.07374477 0.06644419
0001e0 70 e0 43 bc a4 b0 da 3d 2d e1 b7 bd 33 07 57 3d
       -0.011955366 0.10678223 -0.08978496 0.0524971
0001f0 5c 9f 86 bd c8 3a 6e bd 2e 99 ab 3c 0d 0f ac 3d
       -0.06573364 -0.058161527 0.020947065 0.08401308

fc2.weight f4 [10, 128]
000000 6e 8f 3a 3b 91 59 93 3d 1a 5a 4a bd 7b 85 50 3d
       0.0028466838 0.07194818 -0.049402334 0.050908547
000010 38 a7 b7 bc 70 cd 7d bd f2 ba 97 bd 30 7d 7b bb
       -0.022418603 -0.0619635 -0.07408704 -0.0038374178
000020 27 c3 dd 3c af 8e 85 bd 0c 3d 7c bc c8 ce 57 bd
       0.027070595 -0.06521355 -0.015395414 -0.052687436
000030 d8 ea 16 3d e9 46 70 3c 4c de 2f bd fe 31 09 ba
       0.03684506 0.014665344 -0.04293661 -0.00052335847
000040 fa bc 05 bd 9b e8 df 3c 86 5f 8b 3d 8c 20 81 3d
       -0.032650925 0.027332595 0.06805329 0.06305036
000050 ff 9b 90 bd 25 6a be bc 53 6d 90 3d f8 2c dc 3d
       -0.07061004 -0.023243973 0.07052102 0.107507646
000060 7f e6 9a 3c 1d fd 94 be 3c fa 83 be 09 44 94 bd
       0.018908737 -0.2909936 -0.2577685 -0.07239539
000070 cc fb 68 bc 56 f5 77 bc ff 29 65 3c b2 9a 49 3d
       -0.014220189 -0.015134176 0.013987063 0.049219795
000080 8a b7 70 3d 0d 25 01 3d c6 18 45 bd be 06 df 3d
       0.058768786 0.031529475 -0.04811933 0.10889958
000090 dd 6d 84 bd fb dc b3 3d fa aa 89 bc c1 99 b7 3d
       -0.06466267 0.08782383 -0.01680516 0.08964873
0000a0 0a ea 08 3e 0d 39 cd 3c 80 29 56 3d fa 4c 28 3c
       0.13370529 0.025051618 0.05228567 0.010272259
0000b0 ee 57 fc 3d 41 e2 4f bd d5 e4 2a 3e a5 dc 0c 3e
       0.12321459 -0.050752882 0.16688855 0.13756044
0000c0 1b 35 25 3e 2c 00 50 bc 9d 9e 4e 3e 16 23 29 3d
       0.1613354 -0.0126953535 0.20177694 0.041293226
0000d0 10 be 87 bc db 58 31 bb 84 de e3 3d bf a8 65 3c
       -0.016570121 -0.0027061019 0.11126426 0.014017283
0000e0 95 93 14 3c 58 a1 b5 bb a3 f5 83 3d 20 cb 55 3c
       0.009068389 -0.0055429153 0.06443336 0.013048917
0000f0 c1 72 b0 b9 ec e2 2d bd 82 74 49 3d ad da 75 be
       -0.00033654834 -0.042452738 0.049183376 -0.240092
000100 cc fd 4e bd cc d1 8f bd e9 0a 7c bd 46 a1 69 be
       -0.05053501 -0.070224375 -0.061533842 -0.22815427
000110 36 fb 88 bd 8f 66 39 3d 6b 02 be 3d 56 b5 02 3e
       -0.0668854 0.045263823 0.09277805 0.12764487
000120 15 83 f8 3c c8 83 29 3d cf 16 8b bd 70 1d 66 bb
       0.030335942 0.041385442 -0.0679146 -0.003511276
000130 b2 35 9f 3d 71 d4 9f bd 44 72 75 bc 76 61 8b bd
       0.077739134 -0.07804192 -0.014980856 -0.068056986
000140 40 c0 f2 bc 76 27 9b bd a4 46 0a be d3 50 8a bd
       -0.029632688 -0.07575886 -0.1350351 -0.06753697
000150 cc 02 0b bd a8 8f 11 bc ba 69 c4 3d 76 53 fb 3c
       -0.033938214 -0.008884348 0.09590478 0.030679446
000160 45 6f 94 bc fe 2c 9e 3d d7 87 f8 bb ea 23 e6 ba
       -0.018119464 0.07723425 -0.0075845527 -0.0017558311
000170 b5 32 80 bd 07 ad 00 3e 2c 63 df bb c3 32 e5 3b
       -0.062596716 0.12566005 -0.006817242 0.0069945767
000180 8f 73 45 3d f7 a1 12 3a 5e eb 7b 3d e7 d8 84 bd
       0.04820591 0.00055935927 0.06150376 -0.06486683
000190 f1 c9 2b 3e 09 75 42 bd a7 8c 7a 3b bd 5e 22 3d
       0.16776253 -0.047474895 0.0038230808 0.03964113
0001a0 46 03 70 3d ee c1 93 3d 86 0a ad ba 5a ab c4 3d
       0.05859687 0.072147235 -0.0013201989 0.09602995
0001b0 91 f6 7b 3d 63 45 fa 3c 5b da a0 3d fc b0 29 3d
       0.06151444 0.030550664 0.07854148 0.04142855
0001c0 4d 38 ce 3d 88 f1 46 3d 6a f9 73 bd ed b7 fa 3c
       0.10069332 0.048570186 -0.05956403 0.03060528
0001d0 0e 8f 6f 3c d1 5d 96 ba b5 85 20 3d fb 3b e3 bc
       0.014621509 -0.0011472051 0.039190013 -0.027738562
0001e0 45 0f 5f 3d 25 75 1e 3e fe 04 c8 3d db 8e 34 be
       0.05445792 0.15474375 0.09766577 -0.1763262
0001f0 6f cc a5 3d 25 5b 01 39 f1 4f 2b bd 9d 6e 25 be
       0.08095633 0.00012336353 -0.041824285 -0.16155477
000200 ce 98 8f bd 9b ef 9a bc e2 dd 75 3d 75 6d 40 3d
       -0.07011567 -0.01891308 0.060026057 0.046979386
000210 4d c7 44 3d 15 13 99 3d 2b 7d 27 bd ee 30 a3 bd
       0.04804163 0.07474343 -0.040890854 -0.07968317
000220 df 0b 1a 3d cc 6a 3f bd 20 c2 dc bc de 76 c8 bc
       0.037608977 -0.04673271 -0.026948035 -0.024470743
000230 b8 28 64 3d 5c de 6a bd 65 41 5d bd 42 52 aa bc
       0.055702895 -0.057340965 -0.054017443 -0.020791177
000240 20 38 0c bd 99 7b 25 bd dd 1b 0d 3d 95 b3 33 3b
       -0.034233212 -0.040401075 0.0344504 0.0027420272
000250 0e f7 45 bd cb c5 1c bd d2 29 4d bd f8 e0 28 3d
       -0.048331313 -0.038274568 -0.05008871 0.041230172
000260 59 00 b6 3c 8b fe aa 3e 55 36 b2 3e 2d 9a f3 bc
       0.022216963 0.33397326 0.34807077 -0.029736603
000270 b2 1d 3c bd 85 0f c7 3c 7e 0a 10 bd de 70 92 bd
       -0.045926757 0.024299392 -0.035166256 -0.07150434
000280 8e 2d ab 3d 04 4e c6 3d 54 a6 56 bb b0 25 49 bc
       0.08358298 0.09682849 -0.0032752948 -0.012277052
000290 98 2d ee 39 aa b8 ce 3d 35 4e 8c 3d 1e 03 98 3c
       0.00045428867 0.100938156 0.06850854 0.018556174
0002a0 dc d7 36 3d 5a 3f 89 bb d2 eb 22 3d a8 27 ea bc
       0.044639453 -0.0041884603 0.039775677 -0.028583363
0002b0 56 6e a9 ba 4d 94 81 bd 58 8d 17 3d d9 11 0f 3d
       -0.001292656 -0.06327114 0.03700003 0.03492913
0002c0 25 3b a7 bc cd c3 46 bd c9 7f a1 bd 61 af 07 3d
       -0.020413944 -0.048526574 -0.07885701 0.03312624
0002d0 35 97 63 3d fd a5 a9 3a 63 de 83 3d c4 7d 80 3c
       0.055564124 0.0012943145 0.06438901 0.01568497
0002e0 cb b0 f5 3b bc 9a 28 bd 4e 4b 5b 3d e6 62 98 3d
       0.007497882 -0.04116319 0.053538613 0.074407384
0002f0 92 fa 33 bc a1 af 56 bd 31 2e 87 3d 4c ab 40 3e
       -0.010985034 -0.052413587 0.06600607 0.18815345
000300 f5 fb 90 3d 68 75 3a bd fe 24 2b bc 06 0d 6d 3e
       0.07079307 -0.045522124 -0.010445831 0.231495
000310 49 47 13 3b 10 16 24 bd af 2f 04 3d 41 83 8b 3d
       0.002247291 -0.040060103 0.032272037 0.06812144
000320 35 5c 4a bd ed d8 a8 3d 4a 8d 52 bd c8 a1 0a bd
       -0.04940434 0.082445 -0.051404275 -0.033845693
000330 79 e1 36 3d 65 89 38 bd c5 06 8e bd cb c8 3e bd
       0.04464862 -0.045052905 -0.06934885 -0.04657821
000340 6b df ad 39 50 1f 9d bd 7d f4 c7 3d 31 fc 25 3d
       0.0003316359 -0.07671988 0.09763429 0.04052371
000350 f8 40 08 bd 93 e7 b4 3d f0 19 c0 3d f2 50 94 3d
       -0.033265084 0.08833232 0.09379947 0.072420016
000360 71 a7 af 3c 59 7c d9 3d 58 39 b2 bd 83 96 6f bd
       0.021442147 0.106194206 -0.08702344 -0.05849315
000370 1f 0c 84 3c ab ea 66 3c f8 d3 6c bd cf 7c ff bc
       0.016119061 0.014094035 -0.057819337 -0.031187443
000380 b7 d1 a6 3a fa 81 4f bc f1 e1 98 bd 07 1a 37 3b
       0.0012727295 -0.012665266 -0.0746497 0.0027939097
000390 57 3a 8f bb de cf 4d bd a5 86 22 bc cf e3 c7 3d
       -0.0043709683 -0.050247066 -0.009919797 0.09760248
0003a0 21 ec 6b 3d d6 f9 0e bc bf b2 f0 ba 4a 3a 98 3d
       0.057598237 -0.008726558 -0.0018363817 0.07432993
0003b0 bb df da 3d 15 93 41 bd 9e a7 a4 bd 92 f7 92 bd
       0.106872045 -0.04725941 -0.08039783 -0.071761265
0003c0 23 f7 4b 3d 27 82 3d bc 10 c1 13 3e 1f f4 91 3d
       0.049796235 -0.011566675 0.14429116 0.071266405
0003d0 be f3 77 3d 6a 30 7f bd 91 b5 1b 3d ee 00 93 bd
       0.060535185 -0.06230203 0.038014952 -0.07177912
0003e0 bb 60 e1 ba 84 25 be bc d1 7e f1 3d ee 1b 7d 3d
       -0.0017194966 -0.023211248 0.117917664 0.061794214
0003f0 ea 96 30 3d d2 00 07 3e a6 6c 1f 3b e0 3d a9 3e
       0.043112673 0.13183907 0.0024326234 0.3305502

fc2.bias f4 [10]
000000 ae 8c a1 3c 72 9c b9 3d ca 46 0a be 46 bc f8 bd
       0.019720402 0.09063043 -0.13503566 -0.12145285
000010 cb 5c a8 bc b7 62 c5 b9 92 9f 50 3c f7 25 ec bd
       -0.02055206 -0.00037648316 0.012733357 -0.11530679
000020 d0 7e 87 bd d3 5d 92 3c
       -0.066159844 0.017867004
