sampleCNN_RNNv2.pth (torch, 222940 bytes, 10 tensors)

conv1.weight f4 [32, 1, 3, 1]
000000 0a 1a f7 bd 58 e1 29 be d3 26 b9 bc c7 7a 35 be
       -0.120655134 -0.16589868 -0.02260152 -0.17722617
000010 85 3d 96 3e 1d 98 8a bd 4b 69 dd be 2b bc 97 be
       0.2934381 -0.067672946 -0.43244395 -0.29635748
000020 47 90 98 3d 1a 7a 1f bd c9 1c 0b bc 4c 61 9e bc
       0.07449394 -0.038934804 -0.00849075 -0.019333504
000030 2a 1f ed be 12 b8 f5 3e 46 dc b2 3e d7 db 50 3e
       -0.4631284 0.47991997 0.3493368 0.20396362
000040 e8 ae c9 3e da 48 27 3f a0 cc ea 3e f3 0e 7e be
       0.39391255 0.6534554 0.4585924 -0.2481039
000050 eb e2 74 3e 8d 7d 6e 3c af 64 28 be 79 03 00 bf
       0.23914687 0.014556301 -0.16444658 -0.500053
000060 6d e1 00 3e b5 b7 62 be ac 52 03 3d 69 a3 56 be
       0.12585993 -0.22140391 0.032061264 -0.20960774
000070 05 c6 96 be 5c 66 a2 bd 4d 02 1d bf 9a 65 0c bf
       -0.29447952 -0.0792968 -0.61331636 -0.5484253
000080 09 f6 68 3e 24 50 f4 3e ac d2 9c be 63 ce f3 3e
       0.22750105 0.47717392 -0.3062948 0.47618398
000090 c8 bb 4a 3e f5 2d bc be 13 62 00 3f 41 1b ad 3e
       0.19798195 -0.36753812 0.5014965 0.33809856
0000a0 64 32 d0 be e4 67 35 be f5 21 b9 3e d3 60 33 3e
       -0.40663445 -0.17715412 0.3615872 0.17517404
0000b0 57 03 18 be 8b 6f b6 bd d4 f0 c3 bd b4 99 e4 be
       -0.14845024 -0.08907994 -0.09567419 -0.44648516
0000c0 e5 1d 92 3d 95 aa 5e 3e 0e 8f 08 3f 1e 90 cd be
       0.07134608 0.2174476 0.53343284 -0.40149015
0000d0 5c 3b 83 bc 46 48 8e 3b 4d db 8b 3c 3a f1 b3 3e
       -0.016019516 0.0043421118 0.017072344 0.3514498
0000e0 50 fe c2 be 53 66 af 3e 0b 67 55 3e 89 ac 45 3b
       -0.3808465 0.34257755 0.20840089 0.0030162653
0000f0 48 be 7a bc 65 cc 0b bf 12 89 1e be 35 f0 40 3e
       -0.015304156 -0.54608756 -0.15481976 0.18841632
000100 1a 5f 26 be 3f 76 11 bf d8 4f 80 3e 2a 39 91 be
       -0.16247216 -0.56821054 0.25060916 -0.28363925
000110 55 61 1b 3d 9a 26 fa be 79 ca b1 bd 36 c2 be 3e
       0.03793462 -0.48857576 -0.08681197 0.37257546
000120 48 27 02 bf 1b fa 0d 3f e6 20 4f be d6 a4 07 bf
       -0.5084119 0.55459756 -0.20227394 -0.52985895
000130 ed b6 8c be ac f7 f0 3e 2f 15 1c be e0 d1 06 3e
       -0.2748331 0.4706396 -0.15242456 0.13165998
000140 0d 12 e9 be 45 b6 9a 3e 70 42 00 bf c0 d3 1b bf
       -0.45521584 0.30217186 -0.50101376 -0.6086998
000150 44 56 e1 3d ff ed 62 3e 14 3c 01 bf 4c fc c4 3e
       0.11002782 0.22161101 -0.50482297 0.38473737
000160 cb 37 ec be 0b 17 87 3e 05 75 a8 be 58 f8 db 3e
       -0.46136317 0.26384768 -0.3290178 0.4296291
000170 3d 2a 2a 3f 35 2a 1c bf da 82 fe be 6a 0e bf 3e
       0.664707 -0.610019 -0.49709207 0.37315685

conv1.bias f4 [32]
000000 a7 43 3b 3c a1 59 0b 3f 8b a8 ff 3e 1b 64 fc 3d
       0.011429704 0.5443364 0.49933276 0.12323781
000010 4b c3 0b 3f 3e d3 c3 3e 6f d3 a9 be 0f 25 6e 3c
       0.5459487 0.38247102 -0.33169124 0.014535203
000020 73 ac 66 3e cc 94 14 3e d8 a3 2e bf 9a d4 08 3e
       0.22526722 0.14509887 -0.68218756 0.13362351
000030 21 0e 4b 3e e6 e6 6e 3e 1f fb b2 bd 3b ff 6e 3e
       0.19829609 0.23330268 -0.08739304 0.2333955
000040 b1 1e 5e 3f 1e 09 fa 3e 5c 11 d3 3e c7 6e 2f 3f
       0.8676558 0.4883508 0.41224182 0.6852841
000050 19 25 fa bd 8c f0 bd bd 37 8e 4c 3e 93 32 33 3e
       -0.12214107 -0.09274396 0.19976126 0.17499761
000060 03 34 fb 3e 16 99 dc be 77 5e ce 3e a0 ed df 3e
       0.4906312 -0.43085545 0.40306446 0.4373598
000070 25 bd 0b 3d 39 c9 f0 3e c6 9c b3 be 90 e6 94 bd
       0.03411593 0.4702852 -0.35080546 -0.07270539

rnn.weight_ih_l0 f4 [64, 640]
000000 d1 c5 55 3d bb 99 e1 3d 29 8b a0 3d ec 09 8f bd
       0.052190606 0.1101565 0.07839043 -0.06984314
000010 ef 94 e9 3c 3d 91 d1 3b 53 c7 e0 3d 2e 7c e8 3c
       0.0285134 0.0063954876 0.10975518 0.028379526
000020 58 ef 80 3d 89 bb f1 bd 94 ea 92 bd e1 e4 38 3d
       0.06295651 -0.118033476 -0.071736485 0.04514015
000030 68 c6 f1 3d a8 09 c4 3c 9e a5 0a 3c aa 10 4c bc
       0.11805421 0.023930386 0.008462338 -0.012455145
000040 6a 10 17 bc 2e e1 ac bd ff 5c c8 bd b0 30 da 3d
       -0.009220222 -0.08441387 -0.097833626 0.10653818
000050 56 c9 e8 bd d2 b4 51 bd 08 57 aa bd f0 5c 93 bd
       -0.11366527 -0.051197834 -0.08317381 -0.07195461
000060 5b e5 fd 3c 9f 63 fd 3d e3 ab 01 bd 8a b6 dd bd
       0.030993154 0.12372517 -0.031658065 -0.10825832
000070 8b 7e d8 3d 3b 42 c2 bd 95 2c 06 3d c0 70 b6 bd
       0.10571011 -0.09485289 0.03275736 -0.08908224
000080 25 fb 50 bd e0 17 7e 3c f4 08 51 3d 0d 97 a4 3d
       -0.05102076 0.015508622 0.05103393 0.08036623
000090 33 24 f6 3d 94 55 9f bd 22 ab 0a bc 6a 95 ca 3d
       0.12018623 -0.077799946 -0.008463653 0.0989178
0000a0 23 cc da 3d ed df 8c 3d 39 5c c2 3c 5b c4 c7 bd
       0.10683467 0.06878648 0.023725616 -0.09754249
0000b0 0a c3 e2 bd 63 d4 ba bd 4e fa 21 3c 6c 13 7d bd
       -0.11072357 -0.09122541 0.009886337 -0.0617861
0000c0 02 bb 36 3d 67 e9 1f 3d 7e cc eb bc 9c de 99 bc
       0.04461194 0.03904095 -0.028784033 -0.018782906
0000d0 3a f7 82 bd a2 03 4a 3c b8 38 9d bd 5a ce aa bd
       -0.06394811 0.012329968 -0.07676834 -0.0834014
0000e0 97 a7 86 3d cc 91 f8 3d 83 8a a5 3d f3 4b 71 3d
       0.06574934 0.121371835 0.0808306 0.05891032
0000f0 f6 fd cf bd bb 71 f8 bc 2c b0 93 3d fd 87 e0 3d
       -0.10155861 -0.030327668 0.072113365 0.10963438
000100 77 12 b7 3d e2 33 d3 3d 79 5c d3 bd 0a 9e 74 3d
       0.08939069 0.1031263 -0.10320372 0.05972103
000110 ae 8a 85 3d 88 50 46 3d 0e b9 88 3d 51 13 d8 3d
       0.06520592 0.048416644 0.066759214 0.10550559
000120 93 18 99 bd a1 e2 8c 3d 68 bc cf 3d 0b d2 6a 3d
       -0.0747539 0.068791635 0.101433575 0.05732922
000130 c8 63 ab bd d3 4f 95 3c e6 01 d4 3d 7d a4 c1 bc
       -0.08368641 0.01822654 0.103519246 -0.023638004
000140 4d 10 0e bc 77 01 93 bd 1e 00 e4 bc 56 77 8e bc
       -0.008670879 -0.07178014 -0.027832087 -0.017390888
000150 4c 6d ca 3a 2d 51 77 3a a5 a7 99 bd c1 9c ca bd
       0.001544395 0.00094343984 -0.07502679 -0.0989318
000160 ac c9 e5 bc 63 c7 28 bc 4b 70 92 bd 1b fc a6 bd
       -0.028050266 -0.010301444 -0.071503244 -0.08153554
000170 c5 62 af bd 7f a2 e2 3c 79 df 1d bd 5d f1 ae bd
       -0.08563761 0.027665375 -0.0385432 -0.0854213
000180 1e 2b b9 3d 34 3c f3 bd 2e e2 99 3c d3 6b dc 3d
       0.09041427 -0.11876717 0.018784609 0.10762753
000190 66 2a 4b 3d d5 09 e3 3c 1a a2 c0 bd b4 1a 05 bd
       0.04960098 0.02771465 -0.094059184 -0.03249617
0001a0 55 4c 32 3b c3 57 fa 3d 2a d1 d4 bd bb 67 a3 3d
       0.0027206142 0.122237705 -0.103914574 0.079787694
0001b0 c4 c3 c8 bd 3a 92 36 bd 95 e6 c9 3d 90 2c 42 bc
       -0.09802964 -0.044573046 0.09858433 -0.011851445
0001c0 27 d7 d8 bd 58 90 97 3d 0e bf 99 bc 67 92 b7 bd
       -0.10587912 0.07400578 -0.01876786 -0.08963471
0001d0 8a 72 ba 3c cf 87 ca bd ed ee 19 3c 92 40 bb 3d
       0.022759695 -0.09889185 0.009395343 0.09143175
0001e0 6f b7 d5 3b 3c 4e d7 bd 14 9e 92 3d fa ed 8f 3d
       0.006522111 -0.10512969 0.07159057 0.07027812
0001f0 a2 78 2d 3d 4f 34 18 3d 94 16 76 bd ef ae a0 3d
       0.042351373 0.03715926 -0.060080126 0.07845866
000200 ca 2b df bd 5e 79 43 3c 0b 72 25 bc 7c 74 d4 3d
       -0.10897024 0.011930792 -0.010097991 0.1037378
000210 9f 8b 36 bb f9 4e a5 bd 51 a5 a3 3c 11 3b 16 3d
       -0.0027854217 -0.080717035 0.01997629 0.036677424
000220 7a 51 e6 bd 65 33 ef bc 13 ed c5 3d ec 5c f3 bd
       -0.11246009 -0.029199312 0.09664359 -0.11882958
000230 df cf 9b 3d a2 35 ab bc 4c a7 df bd 79 ba f2 3d
       0.07608008 -0.020899598 -0.10920581 0.11851973
000240 fb a6 02 3e eb cc 82 bd f9 b9 49 3c 69 bd 02 3b
       0.1275901 -0.06386741 0.012312406 0.0019949323
000250 c5 65 31 3d dd 7d a0 bd b4 27 90 bd 0c df a2 bd
       0.043309946 -0.078365065 -0.07038823 -0.07952699
000260 83 99 9e bd 92 c1 b5 3b fd d5 79 bc f0 e6 9f 3c
       -0.07744124 0.005546757 -0.015248773 0.0195193
000270 6d d1 6c bb a0 4a 3c bd 5a d3 d6 3d 1e f6 a5 3d
       -0.003613557 -0.045969605 0.10489531 0.08103584
000280 58 d7 ea 3d d0 92 c7 bd d0 1f 3f bd 36 dd 2b bb
       0.11466855 -0.09744799 -0.0466612 -0.0026224381
000290 03 69 ab bd 69 4d cc bd d5 40 66 3d 41 a2 04 3e
       -0.08369639 -0.09975702 0.056214172 0.1295252
0002a0 2f e8 0f bd 69 ee c8 bd 8d e5 c0 bd 87 a0 85 3c
       -0.035133537 -0.09811098 -0.09418783 0.016311897
0002b0 1c 94 ab bc 32 d8 b2 3c 95 6c 77 3d a6 fd aa bd
       -0.020944647 0.021831606 0.060406286 -0.08349161
0002c0 67 5b cc bd de 19 a5 bd 1b 70 ea bd 92 4c f5 3d
       -0.09978371 -0.080615744 -0.11447164 0.11977495
0002d0 fe cc 89 bd 09 a0 7d bb be 55 96 bd 87 2b 59 3d
       -0.06728552 -0.0038700125 -0.07340573 0.053020027
0002e0 08 b8 97 bd a3 b6 9b bc e6 6c e6 3d b9 9f 72 3c
       -0.07408148 -0.019007986 0.112512395 0.014808589
0002f0 bc 46 ee 3d fa 53 c1 bd 9b 9a 8d 3d a1 0e 72 3d
       0.11634585 -0.094398454 0.06914254 0.059095982
000300 fa f5 98 3d 25 03 72 3d dd d1 40 bd 55 f8 b1 bc
       0.07468791 0.05908503 -0.04707514 -0.02172486
000310 6e f7 77 bd ec 28 f0 bd 7f 3c f4 bc 45 b6 d9 3d
       -0.0605387 -0.11726555 -0.029814003 0.10630468
000320 09 4c 68 bc d0 f6 96 3d b4 2f 2c bd 30 4d ff 3d
       -0.014178284 0.073712945 -0.04203768 0.12465894
000330 78 be a6 3d 78 7d 8f bd b2 53 bc 3d e2 a8 60 bd
       0.08141798 -0.07006353 0.09195651 -0.05484856
000340 67 23 3d 3d 43 5c e5 bd ef dd 98 bd 8c cd 00 3e
       0.04617634 -0.11199238 -0.074642055 0.1257841
000350 4f 3a 08 bd 1c 29 2e 3d 7e 86 9f bd 8b 06 59 bd
       -0.033258732 0.042519674 -0.07789324 -0.052984755
000360 f6 c7 0d bd 9c 98 a2 bd 86 c0 eb 3d 74 a8 0d 3d
       -0.034614526 -0.07939264 0.1151133 0.034584478
000370 01 38 37 3c 8e 58 c9 3d ee 4e d6 3d d4 53 85 bd
       0.011182786 0.098313436 0.104642734 -0.065101296
000380 09 05 a0 bc 28 30 a4 3d 0d 56 f0 bc 3b dd 31 3d
       -0.019533651 0.080169976 -0.029337907 0.043423872
000390 86 81 73 3d 59 6a f2 bd d6 f9 f0 bd 36 b6 02 3e
       0.059449695 -0.118366905 -0.117664024 0.1276482
0003a0 b9 25 c2 3c 5d f5 18 bd ff 20 d9 bd 61 79 d0 3d
       0.023699628 -0.03734337 -0.10601997 0.10179401
0003b0 02 39 b0 3d 47 0a 92 bc 4b 7c 8d bd 97 16 00 3d
       0.086046234 -0.017827166 -0.069084726 0.031271543
0003c0 b6 dd 8a 3d 76 51 bd bc 37 eb cd 3c 38 e8 eb bd
       0.06780569 -0.023110133 0.025136573 -0.115189016
0003d0 74 4e 0f 3d a2 e4 d7 3d 22 b7 da 3d d1 1a 60 3d
       0.034986928 0.10541655 0.10679461 0.054713074
0003e0 48 28 44 bd 2c ce 85 3d b1 49 d0 bb e9 88 cb bd
       -0.047889978 0.06533465 -0.006356441 -0.09938223
0003f0 7e 44 d5 bd 35 08 94 3d 05 90 9c bc ee 38 69 3d
       -0.104134545 0.07228128 -0.019111643 0.056939058

rnn.weight_hh_l0 f4 [64, 64]
000000 68 47 82 3c 68 e9 de 3c a6 85 a8 3d 9c a7 d9 3d
       0.01590319 0.027210906 0.082286164 0.10627672
000010 60 6c f0 3c a2 a8 ed 3d fa a3 b2 3d f6 39 8e 3d
       0.029348552 0.1160443 0.08722682 0.06944649
000020 c0 90 02 3c b0 be 92 bd 50 6c 1d 3c b0 75 4a 3c
       0.007969081 -0.07165277 0.009608343 0.01235716
000030 08 6e aa 3d 80 54 8c 3d 6a 4b a8 3d 1c bb 8b bd
       0.08321768 0.068520546 0.08217509 -0.06822798
000040 80 c0 a8 ba f8 0e 74 3d c0 2a 51 3d 70 bc b4 3d
       -0.0012874752 0.059584588 0.05106616 0.08825004
000050 ee af d0 3d 2c 44 2f bd 18 f1 1b bd c8 e6 43 3d
       0.10189806 -0.042789623 -0.03807172 0.047827512
000060 f8 da e7 bc c4 c4 12 bd a8 a1 76 3d a2 6b cf bd
       -0.028302655 -0.03583218 0.06021276 -0.10127951
000070 24 34 9f 3d 3e d7 91 bd 78 00 a6 3c 7e 7b db 3d
       0.07773617 -0.07121132 0.020263895 0.10716914
000080 88 ca cf 3d 58 1b b6 3d 98 86 95 3d e0 84 f0 3b
       0.10146052 0.08891934 0.07301062 0.0073400587
000090 02 15 b9 bd 68 97 8a bc d0 13 7b bc dc 5b b4 3d
       -0.0903721 -0.0169179 -0.015324548 0.08806583
0000a0 c4 76 5e 3d 20 4b d2 3c 80 39 79 bd c0 85 22 3b
       0.054312482 0.025670588 -0.060845852 0.002479896
0000b0 0c f3 0a bd 38 b3 fb 3d 76 fe b3 bd d0 12 9e bd
       -0.033923194 0.12290043 -0.08788769 -0.07718432
0000c0 e6 6f a0 3d 74 c3 49 3d dc 20 58 bd 7a cb b1 bd
       0.07833843 0.049258664 -0.052765712 -0.08681388
0000d0 02 89 d9 bd 62 2c dd 3d 68 9d ef 3d 5c 98 52 bd
       -0.10621835 0.10799481 0.11699945 -0.051414832
0000e0 9c ec 30 3d 2c a6 d1 bd e4 dd 2b bd b4 66 1e 3d
       0.0431944 -0.10236773 -0.04195966 0.038672164
0000f0 6e ca ae bd a0 b7 f3 bc 64 25 ed 3d 08 9c c6 3c
       -0.08534704 -0.029750645 0.11579397 0.024244323
000100 38 52 cf bd 40 00 1a 3c ec 9e 26 bd a8 e2 e5 3d
       -0.10123104 0.009399474 -0.040678903 0.11224872
000110 98 26 ef 3c 08 73 5c 3d e0 0b a1 3d 96 1a c5 3d
       0.029193208 0.05382064 0.07863593 0.096242115
000120 20 94 12 bc 32 b8 ae bd c0 14 99 3d 58 64 97 bc
       -0.008946449 -0.08531226 0.07474661 -0.018480465
000130 58 f6 f8 bc 86 c6 8b bd 54 01 72 bd 6c 5e 31 bd
       -0.030390903 -0.06824975 -0.059083298 -0.04330294
000140 e8 58 e8 3d 1a d0 83 3d ee e8 e4 bd 9c 9f be 3d
       0.113450825 0.064361766 -0.1117724 0.09307787
000150 56 54 a9 bd 20 ff d3 3c 50 ca f7 3d e8 54 32 3d
       -0.08268039 0.025878489 0.12099135 0.043538004
000160 ea ec b5 bd 20 1e b3 bb 18 aa b3 bc 4c 56 cd bd
       -0.088830784 -0.0054662377 -0.021931693 -0.100262254
000170 62 0d a7 3d d8 63 ca bd 40 c0 ab bd 46 ab b7 bd
       0.081568494 -0.09882325 -0.08386278 -0.08968215
000180 72 a5 9d bd aa 27 f4 3d 54 08 a0 3d 50 3b 2a 3d
       -0.07697572 0.11921628 0.078140885 0.04156047
000190 80 6a 36 3b 18 52 9a 3d 70 c8 6c 3d de f0 e1 3d
       0.0027834475 0.075351894 0.05780834 0.1103227
0001a0 34 bd e4 3d 78 54 dd bd 0c 34 43 3d 64 1b 08 3d
       0.111689 -0.10807127 0.047657058 0.033229247
0001b0 c8 36 cc 3c 66 b7 f1 bd 5c 8c eb bd 7c 4b aa 3d
       0.024928465 -0.118025586 -0.11501381 0.08315179
0001c0 9c 2b fd bd 02 f0 fe bd 88 b9 73 3d f4 d7 bd bd
       -0.123618335 -0.124481216 0.05950311 -0.092697054
0001d0 3a 34 b0 3d 70 78 82 3c 98 92 94 bc ec 47 ce bd
       0.086037114 0.01592657 -0.018136308 -0.10072312
0001e0 1e fc e2 3d 70 54 7a bc 04 57 88 bd 38 56 b8 bd
       0.11083244 -0.0152789205 -0.06657222 -0.0900082
0001f0 52 26 c4 3d 50 4e 57 bc 80 01 fb 3c 70 6b 66 bc
       0.095776215 -0.01314123 0.030640364 -0.014063701
000200 20 d1 d0 bb 96 6a f8 bd 82 3b ac bd c8 09 28 bd
       -0.006372586 -0.12129705 -0.08409788 -0.041024953
000210 20 57 40 3d f4 96 d7 3d bc 31 fd bd 98 41 e8 3c
       0.04695809 0.10526839 -0.12363002 0.02835159
000220 a8 16 f1 bc d0 05 a6 3d 64 8f 1a 3d 9c b6 32 bd
       -0.029429749 0.081065774 0.037734404 -0.04363118
000230 b0 04 f5 3d 20 17 e2 bb 1a 62 ac bd 0c aa 12 bd
       0.11963785 -0.0068997294 -0.08417149 -0.0358067
000240 8e b8 c0 bd 98 6b 5e 3d 00 7d e4 bd ec 40 eb bd
       -0.09410201 0.05430183 -0.11156654 -0.11486992
000250 dc d7 ea 3d 46 f9 b4 3d e2 40 f6 bd e4 8d ce 3d
       0.11466953 0.08836608 -0.12024094 0.10085657
000260 50 f9 70 3c 74 9a ab bd 30 b6 52 3c 4a 28 99 bd
       0.014707878 -0.08379069 0.01286082 -0.07478388
000270 68 00 f8 bc 6c 75 e9 3d d4 3e 61 3d d6 53 c4 bd
       -0.030273631 0.113993496 0.05499156 -0.09586303
000280 9c 37 e5 bd f4 50 52 3d 04 ea 32 bd 68 2e 96 3d
       -0.11192247 0.051346734 -0.043680206 0.0733307
000290 70 16 47 3c a0 aa 77 3d 80 5d af 3d dc 28 a5 3d
       0.012151346 0.060465455 0.085627556 0.08064434
0002a0 7c bf b8 3d 10 08 6f bd 12 2d e6 3d f8 31 f8 bc
       0.09020898 -0.0583573 0.11239065 -0.030297264
0002b0 d0 b6 3d 3d 52 0d e1 3d 38 2d ee 3c 94 4f ce 3d
       0.04631692 0.10988869 0.029074296 0.10073772
0002c0 e2 b5 b1 bd 04 b5 6b 3d 80 a5 a3 3c 48 5e d1 bd
       -0.086772695 0.057545677 0.019976377 -0.10223061
0002d0 8a 47 bd bd fc da 02 bd 70 ca f5 bc 28 14 7b bd
       -0.092421606 -0.03194712 -0.030003756 -0.06129852
0002e0 68 63 7f 3d 30 54 c3 3c e4 6d 29 bd 8c 4f a2 bd
       0.06235066 0.023843855 -0.041364565 -0.079253286
0002f0 3c e6 d7 3d ce 7f a6 3d 40 f5 e7 bc fe b5 df 3d
       0.105419606 0.081298456 -0.028315187 0.10923384
000300 a4 8b 74 bd 14 54 58 3d c0 45 05 3c ac a5 bb bd
       -0.059703484 0.05281456 0.0081343055 -0.09162459
000310 c8 cb 26 bd 4c c1 8e 3d 60 ce 74 bd 52 93 c5 bd
       -0.040721685 0.06970462 -0.059767127 -0.0964724
000320 c8 56 05 bd 2a 53 8c 3d 90 03 8f 3c 80 4d 80 bc
       -0.032553464 0.068518 0.017457753 -0.015661955
000330 24 3b 42 3d 32 46 86 bd 4c 86 bd 3d ac 69 6c 3d
       0.047419682 -0.065563574 0.09254131 0.057717964
000340 28 89 98 3d 3a 3d 9d 3d a0 9c 4f bd f0 ca 08 bc
       0.074480355 0.07677694 -0.05068648 -0.008349165
000350 c4 71 e5 3d 18 c0 c0 bd d0 30 2e 3d 30 63 88 3d
       0.1120334 -0.09411639 0.04252702 0.066595435
000360 ac ec 38 bd 0a 73 9f 3d 7c 75 be bd f2 05 9e 3d
       -0.045147583 0.07785614 -0.09299752 0.07715978
000370 ac 39 75 bd d8 86 d2 3d 2a 2c f8 bd b8 1c bd 3c
       -0.059869453 0.10279626 -0.121177986 0.023084983
000380 84 33 8c 3d 84 89 77 bd 80 f1 6e bc 00 80 c8 ba
       0.06845763 -0.06043388 -0.014583945 -0.0015296936
000390 58 8b 0d bd a0 24 62 3c 70 59 b6 3c 9c 02 2f bd
       -0.034556717 0.013802677 0.022259444 -0.042727098
0003a0 90 ca 53 3c e0 18 b6 3d 38 05 aa bd 50 77 36 3c
       0.012926713 0.08891463 -0.08301777 0.011136845
0003b0 78 ed 57 bd 94 68 38 3d a0 fa f6 bd 30 cd 9a 3d
       -0.052716702 0.04502161 -0.12059522 0.07558668
0003c0 c8 4c 6d 3d 4a 30 fd 3d 88 64 38 bd 70 58 fd 3d
       0.057934552 0.12362726 -0.04501775 0.12370384
0003d0 90 2b 48 bd 90 e5 9b 3c 40 f9 12 3d 58 8a 55 bd
       -0.04886967 0.019030362 0.035882235 -0.052133888
0003e0 98 fb 34 bd 1c b1 7c 3d ea 34 f2 bd 88 62 85 3d
       -0.04418525 0.061692342 -0.11826499 0.06512934
0003f0 8c 15 41 bd 40 2f 5d 3b fe 86 c8 bd 36 53 f7 bd
       -0.04713969 0.0033750087 -0.09791373 -0.12076418

rnn.bias_ih_l0 f4 [64]
000000 24 cc a4 3d 17 14 98 3d f8 30 d5 bc ca a2 f7 bd
       0.08046749 0.07425707 -0.026024327 -0.120915964
000010 44 eb 51 bd 93 fa a8 bb 80 54 ec bb f0 1f e1 3d
       -0.051249757 -0.005156824 -0.0072122216 0.1099242
000020 84 9e ea bd 48 e6 d2 3d 89 54 08 bd 66 bc 31 be
       -0.11456016 0.10297829 -0.033283744 -0.17357025
000030 20 38 1f bd 20 78 b6 3b b4 13 d2 bc 3b 74 94 bd
       -0.038871884 0.0055685192 -0.02564416 -0.07248732
000040 2f 30 d9 ba fa 5c cd bd 18 98 bf 3d 24 ac 03 bd
       -0.0016570146 -0.100274995 0.093551815 -0.032146588
000050 e7 2d a7 bd e4 dd 89 bd b4 4d 3b bd f4 e4 b9 3d
       -0.08163052 -0.067317754 -0.0457284 0.090768725
000060 38 97 d7 bc 30 0d 6c bc f0 c1 21 bd 30 9b 8f 3c
       -0.026317224 -0.014407441 -0.039491594 0.017530054
000070 6e c9 83 3d cc ef 24 3d f0 f6 1b bc d0 8e 91 3d
       0.06434904 0.04026775 -0.009519324 0.071073174
000080 d5 cb bd bd 32 e8 34 3c 75 d3 a8 bd 3a 1e f7 3d
       -0.092673935 0.011041688 -0.08243457 0.12066312
000090 c0 22 87 3b 7a b5 ea bd c0 60 25 3d e0 97 8e bc
       0.0041240156 -0.11460395 0.04037547 -0.017406404
0000a0 da 20 a2 3c ce fc cc 3d 62 56 9c bd 0d 4d b8 3d
       0.019791055 0.10009156 -0.07633664 0.08999071
0000b0 82 0a ac bd 80 be 44 3b c4 28 7c 3d 84 f8 a1 bd
       -0.08400442 0.0030020773 0.061562315 -0.07908729
0000c0 96 f6 b3 3d ca ec 88 bd 92 b1 95 3d ea 5e 58 3d
       0.08787267 -0.06685789 0.073092595 0.052824892
0000d0 b9 c0 80 3d 3a 19 f1 bd de 1b 86 3d c6 cd cb bd
       0.06286759 -0.1177239 0.06548284 -0.099513575
0000e0 f0 da dd 3c 34 ff ff bd d0 db 49 3c 87 06 d9 3d
       0.027081937 -0.12499848 0.012320474 0.10596948
0000f0 ae 1f b3 3d a3 59 db 3d 3b 58 6d 3d a0 d0 83 bd
       0.08746277 0.10710456 0.05794547 -0.064362764

rnn.bias_hh_l0 f4 [64]
000000 92 cc bc bd 4e d5 6f 3d 5c 4e bd bd a0 e9 68 bc
       -0.09218706 0.058553033 -0.092434615 -0.014215857
000010 a3 db ca bd 0a 0d 3c bc 80 98 fa 3a d6 ff e9 3d
       -0.09905174 -0.011477718 0.0019118935 0.1142575
000020 c9 0b 97 3a a8 08 f3 bc 0a f9 c6 bd 3f 8f 27 bd
       0.0011523898 -0.029667214 -0.09715469 -0.040908094
000030 0a b6 86 bd 00 4a 09 3d 10 0f fb 3d 73 40 f5 bb
       -0.0657769 0.033517838 0.12258732 -0.0074844896
000040 b7 8a a1 b9 d0 f1 71 3d d8 f4 18 bd ca 70 f4 bd
       -0.00030811664 0.0590685 -0.037342876 -0.11935575
000050 22 19 71 3c 64 0f c8 bd 7a 9b 02 3e bc 51 ea bd
       0.014715465 -0.097685605 0.12754622 -0.11441371
000060 64 98 8a bd 68 f4 20 bd d0 f7 f1 bd 40 65 7a bc
       -0.067673475 -0.039295584 -0.118148446 -0.015282929
000070 2d 87 f6 3d 7c f0 96 bd 68 47 d1 3c 00 e0 ae b8
       0.120375015 -0.073700875 0.025546744 -8.33869e-05
000080 71 5b e6 3d dd 6d fd bd 0c d5 a7 3b e0 60 e3 3c
       0.1124791 -0.123744704 0.0051218327 0.027756155
000090 b4 67 02 bd 7c 6c a8 bd 74 64 ae 3d 0e eb 81 bd
       -0.03183718 -0.08223817 0.08515254 -0.06343661
0000a0 47 df e2 bd fa 9c bf 3d ee 2b e4 3b 0a c3 b2 3c
       -0.11077743 0.09356113 0.0069632446 0.021821517
0000b0 10 c8 b7 3d 8e 3e c0 bd 55 07 fa bd f0 76 f3 bd
       0.08973706 -0.09386931 -0.1220843 -0.1188792
0000c0 00 08 a4 bd fe 60 96 3d ee 24 bc bd 20 f5 ad 3d
       -0.080093384 0.073427185 -0.09186731 0.084940195
0000d0 3f 9d 9e bd 30 7d cf bc 94 d0 cf bd de 5d b8 bd
       -0.07744836 -0.025328249 -0.10147205 -0.09002279
0000e0 32 c0 e8 3d 28 85 41 bd c0 bc 04 bb fb d5 c7 bd
       0.11364783 -0.04724613 -0.0020254105 -0.097576104
0000f0 3c b5 42 3d 01 03 ac bd b5 b4 09 bd 52 b4 1d 3d
       0.04753612 -0.083990104 -0.0336196 0.038502045

fc1.weight f4 [128, 64]
000000 20 65 8b 3b 5c 30 86 bd 4c 43 f7 bd 00 ca 0f bb
       0.0042539984 -0.065521926 -0.12073383 -0.002194047
000010 98 82 6e 3d 58 5d 91 bc 7a a8 9d 3d c0 35 b1 3b
       0.058230013 -0.017744705 0.0769815 0.005408019
000020 fc 15 98 3d ec a7 3a 3d 60 e7 af 3c 18 97 ed bd
       0.07426068 0.0455703 0.021472633 -0.116010845
000030 fc 5b 39 3d 20 2c 01 bc ca e3 c1 bd dc 08 3e 3d
       0.04525374 -0.007884055 -0.094672754 0.046395168
000040 88 c4 a6 3d 7e e8 c8 bd 22 98 a4 3d a8 06 66 bd
       0.08142954 -0.09809969 0.080368295 -0.05615869
000050 48 48 85 3d 00 04 ca ba 36 80 c1 bd 18 21 84 bc
       0.06507927 -0.0015412569 -0.094482824 -0.016129062
000060 da b9 a9 3d 58 e4 d9 3c 0a f6 ae 3d 80 1b 65 bc
       0.082874015 0.02659814 0.08543022 -0.013983607
000070 00 cb e5 ba f0 20 a8 3c 68 09 23 bd 84 e8 47 bd
       -0.0017531812 0.020523518 -0.039803892 -0.04880573
000080 ec 7c b8 bd b0 4d da bc e6 e5 87 3d 80 64 c0 bd
       -0.09008202 -0.026648372 0.066356465 -0.09394169
000090 9c 14 ba 3d e0 ce ac 3c 60 bb e5 3c e0 40 01 bc
       0.09085962 0.02109474 0.028043449 -0.007889003
0000a0 d0 21 31 bc c2 11 e7 bd 00 ef aa bc 1c 25 a1 bd
       -0.010811284 -0.11282684 -0.020865917 -0.07868406
0000b0 04 4a 14 3d 78 e2 b2 3d bc 26 66 3d 74 de ff bd
       0.0362034 0.08734602 0.056189284 -0.124936014
0000c0 36 16 cb 3d 58 df 8c 3d 7c 1e ca 3d 78 51 06 bd
       0.09916346 0.06878537 0.09869096 -0.03279254
0000d0 d2 ee f1 3d dc f5 96 bd 54 e3 86 bd 7c 89 2f bd
       0.118131295 -0.07371113 -0.06586328 -0.042855725
0000e0 3c 1d bc bd 70 e9 47 bc 06 e6 80 3d 68 8e 95 bc
       -0.091852635 -0.012201652 0.062938735 -0.018256381
0000f0 50 58 b5 3c 96 1b ea bd 12 97 a5 bd 56 c5 a6 3d
       0.022136837 -0.11431043 -0.08085455 0.081431076
000100 3c b0 59 bd 29 ca 8e 3d 7f a2 94 bd de a5 5d bd
       -0.053146586 0.06972153 -0.07257556 -0.05411326
000110 32 01 53 3d a2 04 1c 3d 21 66 98 bd be 45 fe bd
       0.05151481 0.038090356 -0.074413545 -0.12415646
000120 84 ee c1 3d 0a 2d 71 bd 2a 6e a0 3c 26 15 3a 3d
       0.09469321 -0.058880843 0.01958378 0.045430325
000130 e7 ed 86 3d d1 c0 91 bd ed 0b ba 3d ed 88 aa bd
       0.06588345 -0.07116855 0.09084306 -0.08326898
000140 d1 49 79 bd f7 24 48 bb 3c cb eb 3c fc fa 8c 3c
       -0.060861412 -0.003053961 0.028783433 0.017209522
000150 3b 85 a5 3d 5b db 9c 3c 1e 15 55 3d f0 fb 1b 3d
       0.08082052 0.019147566 0.052022092 0.038082063
000160 21 ac e2 bd ee 61 85 3c b9 40 01 3e 9a a1 44 bd
       -0.11067987 0.016282048 0.12622346 -0.048005678
000170 4e 6a 4b 3b bc ee b8 bc 04 7e 0d bd 8d 45 95 bd
       0.0031038704 -0.022574775 -0.034544006 -0.072886564
000180 6f e6 bd 3c 17 6f e7 bc 50 93 3b 3d 35 47 cc 3d
       0.023181168 -0.028251214 0.045794785 0.09974519
000190 05 86 d8 bc dc ad 8c bd ca 26 30 bd 7f d0 a9 bd
       -0.026431093 -0.068690985 -0.043005742 -0.082917206
0001a0 a8 64 a5 3d eb e7 18 3d 1d a0 ba 3d 96 f9 5d 3d
       0.08075839 0.03733055 0.091125704 0.0541931
0001b0 86 c7 88 bb 23 5a d6 bd 11 76 a0 bd c1 74 f8 bd
       -0.0041741757 -0.10466411 -0.078350194 -0.12131644
0001c0 c6 7e 72 bd fe d3 5f bd e1 bf c2 bd f2 a8 02 be
       -0.05920293 -0.05464553 -0.09509254 -0.1275976
0001d0 7e a0 25 3d 71 ed 3b bc d7 5a 03 3e a2 30 4f bd
       0.04043626 -0.011470185 0.12827621 -0.05058349
0001e0 6d db f0 3d b0 1e ff bc 30 55 77 3d cd 03 81 3c
       0.11760602 -0.031142563 0.060383976 0.015748883
0001f0 88 5a 2c 3b e3 f8 c5 bd 42 7e 4a 3d ef 29 94 3d
       0.0026299078 -0.09666612 0.049436815 0.07234561
000200 04 19 d4 3d 2b cd f0 3b f8 89 13 3d c6 d8 9d bd
       0.10356334 0.0073486767 0.03602025 -0.07707362
000210 ce d6 38 3d 39 1b 57 3c fb 20 5d bc 71 10 b3 bc
       0.04512673 0.013129049 -0.013496633 -0.021858426
000220 95 98 5e 3d 86 a5 82 3d ab f4 b7 bd fa 39 10 bf
       0.054344732 0.06379227 -0.089822136 -0.56338465
000230 5e 2c 8e 3d 2e 32 be bd 9e 6d 07 3e 78 54 42 3c
       0.06942056 -0.09286915 0.1322541 0.011860959
000240 36 dc d3 3d 3d fa 00 3e d2 19 a8 3d 6e 4d 40 3c
       0.10344736 0.12595458 0.0820805 0.011737211
000250 ce 29 59 bd e5 14 05 be 22 7a 06 be f7 52 03 bc
       -0.053018384 -0.12996252 -0.13132527 -0.008015386
000260 93 ea cb bb 11 39 97 3d c6 77 e0 3d 8e 69 59 bd
       -0.006223032 0.073839314 0.10960345 -0.05307918
000270 9c a4 d8 3d b4 a8 c3 bd 6d 77 12 3d d4 26 ca ba
       0.10578272 -0.09553662 0.035758425 -0.0015422949
000280 e2 1b 93 3c 10 d9 0c be 66 15 96 bd 0d 36 0e be
       0.017957631 -0.13754678 -0.073283 -0.13887806
000290 4e 76 c3 3d 66 d2 e0 3c a4 09 0e bb 10 c0 a3 3d
       0.09544049 0.027444076 -0.0021673227 0.079956174
0002a0 ee fd 30 bc 6d 45 a9 bc 50 81 aa ba 87 1e fd 3b
       -0.010802729 -0.020662988 -0.0013008509 0.0077245864
0002b0 2e 3c c5 bc df f3 59 bd c6 65 bf 3d 55 a8 03 3e
       -0.024076547 -0.05321109 0.093455836 0.12857182
0002c0 6c c1 b5 bd 91 34 a1 3c 99 f4 7c bd 64 0c af bd
       -0.08874783 0.019678386 -0.061756704 -0.08547285
0002d0 6e 13 a0 bd cd a7 a4 3c 20 36 ab 3d 42 44 5f 3c
       -0.07816206 0.020099545 0.08359933 0.013627114
0002e0 0a ac e1 3d d6 f0 05 be 2b 61 fe bc 98 71 db bd
       0.11019142 -0.13080153 -0.031052193 -0.10715026
0002f0 c5 91 2e bd 7c 55 cc 3d 88 84 87 bb 30 86 3f bd
       -0.042619485 0.09977242 -0.004135672 -0.04675883
000300 8a 4d 8e 3c eb 37 5d bd df e6 92 bd e4 45 7d bd
       0.017370958 -0.054008406 -0.071729414 -0.06183423
000310 8e 63 c4 bc 26 d9 6d 3d 4a 79 a5 3c 11 cc d7 3d
       -0.023973253 0.058068417 0.020199437 0.105369695
000320 05 b5 0e bd 5b 8c bc bd d3 99 7d 3d 61 d0 08 3d
       -0.034840602 -0.09206458 0.061914276 0.03340185
000330 9a b3 e3 3b b5 92 9f 3d ed 00 91 3c 35 96 96 bc
       0.0069489004 0.07791654 0.017700637 -0.018382171
000340 2f a8 04 3c f7 bb 47 bd 39 f3 ba 3d 57 86 ac 3d
       0.008096739 -0.04876324 0.09128422 0.08424061
000350 23 62 f3 bd 8b 9a 6e 3d ab 6f c4 3d a5 db 65 3d
       -0.118839525 0.058252852 0.095916115 0.056117672
000360 53 be 53 3d 79 be 4e bd a1 24 ba 3d 41 ff 9a bd
       0.05169518 -0.050474618 0.09089018 -0.07568217
000370 dc 87 50 3d 11 02 bf 3d ff 9e c2 3d 4e bc e9 bc
       0.050910816 0.09326566 0.09502982 -0.028532173
000380 ce 15 04 bc 1d ae d0 3d 66 3f e3 bd 7c 3f 66 3b
       -0.008061839 0.101894595 -0.11096077 0.0035133054
000390 4d a9 a2 3c 00 de a3 bd b4 70 84 3d 87 a8 bd 3d
       0.01985612 -0.080013275 0.06466809 0.0926066
0003a0 5f 5c bf 3d 92 2a da bc e9 10 b5 3d 6d 3a 53 3d
       0.0934379 -0.026631627 0.08841116 0.05156939
0003b0 e7 ff ea 3d 75 47 a8 3c f9 bf dd 3d c6 86 ec bc
       0.11474591 0.020541886 0.108276315 -0.028872859
0003c0 c4 bd 60 3b 7b 37 90 bb 7b fe 96 3d 4d e2 3b 3d
       0.0034292797 -0.004401145 0.07372757 0.045870114
0003d0 47 85 92 bd e7 2b 9d 3d a9 3f 62 bd 67 1b 10 bd
       -0.07154327 0.07674389 -0.055236492 -0.035182383
0003e0 e6 02 e5 3c 63 ac b5 3d af a2 89 3d 9d 64 b8 3d
       0.027955484 0.08870771 0.067204826 0.090035655
0003f0 25 b2 81 bd 31 ad f4 3d 89 ad e6 bd fb 7b ce bb
       -0.063328065 0.11947096 -0.11263568 -0.0063014007

fc1.bias f4 [128]
000000 36 1d 9c bd dc 46 18 3d b4 8d e9 3c 9a 80 c0 3c
       -0.07622759 0.03717695 0.028509952 0.023498822
000010 73 41 c5 3d b9 90 4c 3d de 5b 9a bd 00 46 8e bb
       0.09631624 0.049942706 -0.075370535 -0.0043418407
000020 76 e6 50 bd 73 14 00 3c 70 50 04 bd 0e 0f e1 3c
       -0.051001035 0.0078173755 -0.032303274 0.027472999
000030 4f 7c eb 3d 92 c2 e3 bd 33 a9 a1 3d 64 82 3b bc
       0.11498319 -0.11121096 0.078936 -0.011444662
000040 fd f8 8e bd f0 0a 5b 3c 44 b1 82 bc f0 3e 56 3d
       -0.069810845 0.013369307 -0.015953667 0.052306116
000050 b1 ae b5 bd e0 e1 1f bd 8f 40 dc 3d 20 c4 b4 3d
       -0.0887121 -0.03903377 0.10754501 0.088264704
000060 5b c5 76 3d 4d a2 98 3d f9 c1 be 3d e2 fd b3 bd
       0.060246807 0.074528314 0.09314341 -0.08788659
000070 d0 06 36 bc 3f 32 d1 3d bb 33 e4 3d c7 7f a9 bd
       -0.011110023 0.10214662 0.11142679 -0.08276325
000080 86 3a 57 3d 1b 20 8e bd 50 c4 bb bd e8 63 98 bc
       0.052546047 -0.069397174 -0.09168303 -0.018602327
000090 31 19 f4 3d 08 fa 05 bd e3 a7 62 3c 0e 4b c7 3d
       0.119188674 -0.03270915 0.013833973 0.097311124
0000a0 c3 df 45 bd c2 97 e6 bd 8f 0f 90 bd 6c c9 13 3c
       -0.0483091 -0.11259414 -0.070342176 0.009020191
0000b0 20 39 29 3c 94 af 85 3d 97 38 96 3d 6c d7 4f bd
       0.010328561 0.065276295 0.073350124 -0.05074255
0000c0 24 bf 37 3d 31 c9 2b ba f4 55 15 3b b4 fe c9 bd
       0.04486002 -0.0006553112 0.0022786828 -0.09863034
0000d0 0c 4a e4 3d 28 8c 2d 3d 5f 65 85 3d dd 3f e8 bd
       0.11146936 0.04236999 0.065134756 -0.11340306
0000e0 20 b6 03 3e 82 f1 df 3d 28 98 03 3c 5f 69 8d bd
       0.12862444 0.10934736 0.008031882 -0.069048636
0000f0 46 65 92 bd 02 99 9d bd ac 96 6c 3b b2 49 89 bc
       -0.071482226 -0.076951995 0.003610055 -0.016758773
000100 f0 ea ba 3d f9 ee 65 3b b7 b9 66 bd 53 e7 a2 3d
       0.09126842 0.0035085066 -0.056329455 0.07954278
000110 c4 a0 39 3d 54 5f 7a 3d 8a c8 eb 3d 76 1f ff bb
       0.045319334 0.06112607 0.11512859 -0.007785733
000120 c0 2c 02 3e a0 35 96 38 5c 82 71 bd 27 aa 20 bd
       0.12712383 7.162546e-05 -0.05896221 -0.03922477
000130 2a 80 14 bd 54 01 e6 bd 26 cb ff bd 02 a2 10 3d
       -0.03625504 -0.11230722 -0.12489919 0.035310753
000140 57 ff 9b 3c 40 b6 90 3d 37 56 09 be b4 06 69 3d
       0.019042654 0.070660114 -0.13411795 0.05689116
000150 7d f6 b2 3d 16 3f c5 bd ac b1 22 3d 40 46 2f 3d
       0.0873842 -0.09631173 0.039720222 0.042791605
000160 09 b1 de 3b b3 86 73 3c f5 9e c7 bd 7d 71 2e 3d
       0.0067960066 0.014863658 -0.097471155 0.0425887
000170 b5 34 4c 3d 9d 94 f1 bd 36 f8 89 bd 6a 7e 86 3d
       0.049854953 -0.11795924 -0.067367956 0.0656708
000180 48 8f d7 3d 28 c9 98 bc e6 86 e7 bd be 11 fb 3c
       0.105253756 -0.018650606 -0.11305027 0.030648109
000190 ed c9 7d 3c 36 fe b7 3d 97 b3 8b bd e5 35 90 bd
       0.015490037 0.08984034 -0.068213634 -0.070415296
0001a0 95 a7 cf bc 34 da 0a 3d 1e 98 e5 bc 96 f5 b2 3d
       -0.025348464 0.0338995 -0.028026637 0.08738248
0001b0 bd 83 71 3d 40 a6 b8 3d a6 29 96 bd e0 0e 01 3c
       0.058963526 0.09016085 -0.073321626 0.007877082
0001c0 c3 97 c5 bd 1c dc 31 bd 07 6c 23 bd 92 d4 94 3d
       -0.09648087 -0.043422803 -0.039897945 0.07267107
0001d0 e7 e7 7f 3c 01 ad aa bd 94 12 72 3d 0a c9 d4 bd
       0.015619255 -0.08333779 0.05909975 -0.10389908
0001e0 00 47 44 3b 9c 95 8e 3d d7 df 9b 3d 0e 59 d6 bd
       0.0029949546 0.069621295 0.076110534 -0.104662046
0001f0 b8 40 dc 3c 3e d9 e5 bd d5 bc 40 bd d1 d1 17 3d
       0.026886329 -0.11223076 -0.047055084 0.03706533

fc2.weight f4 [10, 128]
000000 a5 29 47 bd f3 c7 8c bd 11 0b 8b 3d 88 44 24 3d
       -0.0486237 -0.06874075 0.0678922 0.04010442
000010 59 3d 5a be 86 bd ec 39 05 79 ed 3c 8e 48 ae 3d
       -0.21312465 0.00045154634 0.02898837 0.085099325
000020 22 47 20 3c 52 7c 68 bd fa 5f 09 bd 3b c5 d9 3d
       0.009782584 -0.056759186 -0.033538796 0.10633322
000030 62 80 bd bd e6 bb 92 bd fb 3c 9f bb c9 5e 06 3d
       -0.09253003 -0.07164745 -0.0048595644 0.032805238
000040 b6 15 0c 3c 06 77 48 3c b3 16 5f bd d6 dd 9b bc
       0.008550098 0.012235409 -0.054465007 -0.019026678
000050 88 18 b3 3c 12 4d 7b bd dd e3 82 be 18 19 b1 bd
       0.021862283 -0.061352797 -0.2556447 -0.086473644
000060 24 cb a5 bd 23 b8 95 39 e5 2a ad 3d 55 f1 f7 3d
       -0.080953866 0.00028556687 0.08455447 0.12106577
000070 be 5b 4f 3c 47 a4 cd bb 7f d5 00 3e ec 72 b7 ba
       0.01265615 -0.006275687 0.12581442 -0.0013996041
000080 44 d0 14 3d f9 e7 38 be 48 2a 2f 3d 4f 61 71 3d
       0.03633143 -0.1805724 0.042764932 0.05893069
000090 f4 2b 9e 3d 82 62 1f 3d 14 a5 2a 3e f5 73 98 bd
       0.07723227 0.038912304 0.16664535 -0.07443992
0000a0 e0 e4 86 3c 70 1e 31 3d 56 a1 ce bd fa 87 bd 3c
       0.016466558 0.043241918 -0.10089366 0.023136128
0000b0 a7 14 41 3d cd 0e 8c 3d ec 02 2f bd 2c 27 02 be
       0.047138836 0.068387605 -0.042727396 -0.12710255
0000c0 a8 d7 2e 3b 20 5c 60 3e 5b c7 79 bd d3 3c 95 bd
       0.0026678834 0.21910143 -0.060981136 -0.07286992
0000d0 e0 e2 f6 3d 43 96 df bc 7d 86 e0 3d 91 9f ac 3d
       0.12054992 -0.02729333 0.109631516 0.084288724
0000e0 6f 13 16 3d 3b 17 5e 3c 13 57 b9 3c 94 0b c6 3c
       0.036639627 0.013555343 0.022624528 0.024175443
0000f0 dd de 88 3c 00 87 83 3d 18 b6 92 bd e8 bd ba bd
       0.016707832 0.064222336 -0.07163638 -0.09118253
000100 d4 58 95 3d 61 bd f2 3c f2 31 15 bd 53 1b 68 3d
       0.07292333 0.029631319 -0.036424585 0.056666683
000110 08 d5 04 bc ea 03 fc 3d 30 f9 6c bd 7d 22 d6 3d
       -0.008107431 0.12305434 -0.05785483 0.10455797
000120 c4 b6 20 3e 46 44 a3 3d ca 35 91 bd 19 b8 0a bd
       0.1569472 0.079720065 -0.070903376 -0.033866975
000130 d3 21 4f bd f5 b9 2b 3d 00 b5 84 3d 6a 7f 2a 3d
       -0.050569367 0.04192539 0.064798355 0.041625418
000140 12 28 14 bd c1 1b 52 3c c9 9b a9 3a bf e4 9e 3c
       -0.036171027 0.012824 0.0012940104 0.019396184
000150 fc 80 c5 3d 17 e6 ab 3c 6f fd c4 bc 98 2d 1b 3e
       0.096437424 0.020983739 -0.024046628 0.15154111
000160 f9 09 8c 3c 3c 2c 14 bd d0 16 9e 3d 7a 0f 83 3d
       0.0170946 -0.036174998 0.07719195 0.06399436
000170 f5 c4 ad 3a fa 0d 29 3c 69 66 cd 3d 7d 10 25 3d
       0.001325755 0.010318274 0.10029299 0.040298928
000180 e1 bb 8d bd 6d 9e 2a bc 2a d7 a1 3d f3 d8 2f bd
       -0.06920601 -0.010413748 0.079023674 -0.04293151
000190 68 71 85 3d dc e9 c9 bc 51 8b 35 bd 49 40 ec 3d
       0.06515771 -0.024647646 -0.044322316 0.11535699
0001a0 95 fe 1e be a1 14 76 bd f9 c5 c2 bd 8c 17 05 bd
       -0.15526803 -0.060078267 -0.095104165 -0.03249316
0001b0 96 e1 e8 bd be 44 dd 3d e2 fd 91 3d 48 d2 5c bd
       -0.11371152 0.10804127 0.071285024 -0.053911477
0001c0 61 24 ac bd 5f a9 16 bd e6 77 0f 3d d7 89 53 bd
       -0.08405376 -0.03678262 0.035026453 -0.051645126
0001d0 00 ed bd 3d 61 6a 27 3e af ad b4 3d 67 69 8f 3e
       0.0927372 0.16349174 0.0882219 0.28010103
0001e0 26 fa 55 bd 0a 81 97 bd 04 4d 1e bd 12 79 f4 3c
       -0.052240513 -0.07397659 -0.038647667 0.029842887
0001f0 7a 18 ae bd 5d 77 27 3d 9f 09 fc 3d b8 61 b2 3d
       -0.08500762 0.040885318 0.123065226 0.087100446
000200 6c c0 3d bc 92 cb 6c bc dd 6c bf 3d 58 3d 85 bd
       -0.0115815215 -0.014452832 0.09346936 -0.06505841
000210 f9 d8 3c 3e de 5d 86 3d 65 f0 89 3d 3c c0 b3 bc
       0.18442143 0.065608725 0.06735305 -0.02194225
000220 a4 24 03 3e 79 c8 5c 3d d9 8a 5a bc fe 52 d6 3d
       0.12806946 0.053902123 -0.013338768 0.10465048
000230 7d d0 90 3d 53 2c c0 3d c1 7c 6d bd c9 3e 19 bd
       0.07071016 0.09383454 -0.057980303 -0.037413392
000240 8c ac 57 bc 97 8b a7 3d 83 36 9c bd d1 56 87 3b
       -0.013163697 0.081809215 -0.07627585 0.0041302224
000250 3d 09 74 3d 7c 7a 92 bd 71 d2 8c 3e 76 25 53 bd
       0.059579123 -0.07152268 0.27504304 -0.051549397
000260 df 0a 83 bc 0f 14 eb 3c 51 7c 53 bd 8d 9c b0 bd
       -0.015996395 0.028696088 -0.05163223 -0.0862361
000270 3f 3c 84 bd fa e7 dc 3d 91 ad 86 bc a2 74 10 bd
       -0.064568035 0.107864335 -0.016440185 -0.03526748
000280 c6 6e 02 3d ce 39 69 3d 6f 3e 2f 3c 7b df 80 3d
       0.031843923 0.056939892 0.010696038 0.062926255
000290 59 8b 75 3d e8 57 e2 3d 32 76 02 bd d6 89 e3 3c
       0.059947345 0.11051923 -0.031851 0.027775686
0002a0 f8 73 a3 3d 8e d4 17 bd a3 a3 e9 3d 60 6a ae bc
       0.07981104 -0.037067942 0.11408164 -0.021290958
0002b0 a8 86 a5 bc 29 be 95 bc 0d 94 1f 3d 13 05 92 3d
       -0.02020581 -0.018279152 0.03895955 0.07129874
0002c0 df 23 88 3d 12 68 ff bd 31 7e ff 3d 73 68 28 bd
       0.06647467 -0.12471022 0.12475241 -0.041115236
0002d0 af e7 61 3d 29 70 ad bd f9 28 27 bd ee c0 d2 3d
       0.05515259 -0.084686585 -0.04081056 0.10290705
0002e0 5d ca b3 3d ae b9 5b bc a3 6a e0 3c b5 24 02 3d
       0.08778832 -0.013410969 0.027394598 0.031773288
0002f0 d5 7c 95 bd 00 c3 83 3d 39 b8 91 bc d4 a8 f6 3d
       -0.072992004 0.06433678 -0.01778804 0.1204392
000300 1c 43 83 bd 66 47 82 bd 4a 3d a8 3d 4e 82 59 3d
       -0.064092845 -0.063612744 0.08214815 0.053102784
000310 a4 91 2f bd 6c c3 a6 3b 4d 06 eb 3c 00 34 93 3d
       -0.042863503 0.005089214 0.028689528 0.071876526
000320 18 d8 cf bd 9a 53 9f 3d f6 26 a1 3d 01 7b 23 3c
       -0.101486385 0.077796176 0.07868759 0.009978057
000330 05 27 7c bd 1f 74 28 3d e3 1a 57 bc ec 35 34 3d
       -0.06156065 0.041126367 -0.013128969 0.043996736
000340 7d 6a 74 bd 16 13 7f bd 41 00 ef bc 1b ea 14 3d
       -0.059671868 -0.06227406 -0.029174926 0.036356073
000350 60 b5 62 3d b4 33 19 3c 1e ce 8c bd 66 06 1d bd
       0.055348754 0.009350706 -0.06875251 -0.03833618
000360 ac 07 dc bb 0a 8a c0 bc 64 f9 56 3b d3 1c 32 bd
       -0.0067147817 -0.023503322 0.0032802457 -0.04348452
000370 ec 49 c4 3d 78 0f 00 bd f8 b7 4b 3d e7 99 cf bb
       0.09584412 -0.031264752 0.049735993 -0.0063354853
000380 db 0e f1 3d 94 18 1f bd ac aa cb bc 03 55 bb bc
       0.117704116 -0.0388418 -0.024861656 -0.022867685
000390 26 d5 80 3d e1 70 a4 bd 2c 7e 97 3c 42 6f 16 3d
       0.06290655 -0.080293424 0.01849278 0.036727197
0003a0 e2 77 3a 3e 85 ee 45 3c 37 64 5e bd ce d6 45 bd
       0.18209794 0.012080793 -0.05429479 -0.048300557
0003b0 e3 03 f7 3d b6 6b d8 3d e4 10 4f 3c af fb 79 3c
       0.12061288 0.10567419 0.012638304 0.01525776
0003c0 60 7e f4 3d 31 96 7d bd 61 52 a0 3c 44 c7 88 bd
       0.119381666 -0.06191081 0.019570531 -0.06678632
0003d0 d9 7e 9c 3d ab 5a 8a bd dd be 86 3d ae 12 58 be
       0.07641382 -0.06755575 0.06579373 -0.21100876
0003e0 20 48 93 bd 33 38 53 bc f5 40 7f bd 54 49 a2 bc
       -0.07191491 -0.012891817 -0.062317807 -0.019810356
0003f0 82 ff 8a bd 8a 6b 19 3c 16 02 b8 3c cb 03 b1 3c
       -0.067870155 0.009364018 0.022461932 0.021608254

fc2.bias f4 [10]
000000 fa 09 18 bd ab ec a1 3c 61 d8 40 3c c0 54 91 b9
       -0.03711889 0.019766172 0.011770339 -0.000277197
000010 14 f0 ba bd c3 ee 01 be 34 13 06 be f7 8a aa 3c
       -0.091278225 -0.12688737 -0.13093263 0.020818217
000020 76 7c 1c 3c 62 1c bf bd
       0.009551158 -0.093315855
