savedModels/CNN_RNNv1.pth (torch, 222874 bytes, 10 tensors)

conv1.weight f4 [32, 1, 3, 1]
0	0xbe821d46	-0.2541296
1	0xbdc300e7	-0.095216565
2	0x3e32e274	0.17469198
3	0x3ec988fe	0.3936233
4	0xbef4692e	-0.47736496
5	0x3e1c92d8	0.15290391
6	0xbe1352dd	-0.14387079
7	0x3ee17a6c	0.44038713
8	0xbe4e0d5b	-0.20122282
9	0xbd184d4a	-0.037183084
10	0xbe46d433	-0.19416885
11	0x3ec56ffc	0.38562
12	0x3d6575af	0.056020435
13	0x3f13dcaa	0.5775858
14	0x3e8b2f04	0.27184308
15	0xbed3b827	-0.41351435
16	0xbe9952ac	-0.29945886
17	0x3e0666f6	0.13125214
18	0x3eb42583	0.3518487
19	0xbdb51ec5	-0.088437594
20	0x3ebb2f23	0.365594
21	0x3ecb41a8	0.3969853
22	0x3e921d06	0.28537768
23	0xbf338e79	-0.7013927
24	0x3f07a90c	0.5299232
25	0xbf0e3519	-0.5554977
26	0xbed60705	-0.4180223
27	0xbede5a8c	-0.43428457
28	0xbee74cfd	-0.45175925
29	0x3ed4f863	0.41595754
30	0x3f071424	0.5276511
31	0x3e56007e	0.20898625
32	0xbda7320d	-0.08163843
33	0x3e226dd0	0.15862203
34	0xbf0981ce	-0.5371369
35	0x3eeea64e	0.46611255
36	0xbecc9ec4	-0.3996488
37	0xbe7fde4a	-0.2498714
38	0xbedcf60e	-0.43156475
39	0xbd72e8c4	-0.059304014
40	0xbe185e8d	-0.14879818
41	0xbedc91f1	-0.43080094
42	0x3d992056	0.07476871
43	0xbe048cbb	-0.1294431
44	0xbeaa61fb	-0.33277878
45	0xbf0366d2	-0.51328766
46	0x3ed67bf6	0.4189145
47	0x3c7729cf	0.015085652
48	0x3ebd8bef	0.37020823
49	0xbe844f11	-0.25841573
50	0x3e4a7a02	0.19773105
51	0x3e33170f	0.17489265
52	0x3954c355	0.00020290662
53	0xbe0b6376	-0.1361216
54	0xbe79f676	-0.24410424
55	0xbed998a4	-0.42499268
56	0x3effe057	0.49975845
57	0x3ecccbf1	0.39999345
58	0xbeabad47	-0.33530638
59	0x3efff9aa	0.49995166
60	0x3e51f94b	0.20505254
61	0xbec78a18	-0.38972545
62	0xbee88739	-0.45415667
63	0xbef165b6	-0.47147912
64	0xbeabb3f4	-0.3353573
65	0xbe9d4bcc	-0.3072189
66	0xbee21c52	-0.44162232
67	0xbc5fa522	-0.013650211
68	0x3f31634c	0.6929214
69	0x3eda7217	0.4266517
70	0x3eb8ed95	0.3611876
71	0x3e5d0753	0.21584825
72	0x3df95482	0.12174322
73	0x3eb1bb31	0.34713128
74	0xbebe6e87	-0.371937
75	0x3ef60302	0.4804917
76	0x3eaf30bd	0.34216872
77	0xbeb6a642	-0.3567372
78	0xbe00646d	-0.1253831
79	0x3e32ae23	0.1744924
80	0xbec4759f	-0.38370988
81	0xbe54e1c1	-0.20789243
82	0x3d4be4e3	0.04977883
83	0x3d1baf39	0.038008902
84	0x3e141318	0.14460409
85	0x3d476a59	0.048685405
86	0xbc82b0d7	-0.015953464
87	0xbe2f6264	-0.17127377
88	0x3e430e28	0.19048369
89	0x3f1a7eb9	0.60349613
90	0x3da4a5f7	0.08039468
91	0xbe59fd3a	-0.21288005
92	0xbeac1fea	-0.33618098
93	0xbd27675e	-0.040870063
94	0xbeb70882	-0.35748678
95	0xbed9ee63	-0.42564687

conv1.bias f4 [32]
0	0xbdc7cca9	-0.09755833
1	0x3ef0e7d8	0.47051883
2	0x3f0fb730	0.56138897
3	0x3e3ea382	0.18617061
4	0x3e1369d9	0.14395846
5	0x3e8ff5c2	0.28117186
6	0x3e898713	0.26860866
7	0x3e7ed376	0.24885353
8	0x3db33694	0.08750644
9	0x3ed239fc	0.41059864
10	0x3f34054f	0.703206
11	0x3e902325	0.28151813
12	0x3e2bd199	0.16779174
13	0xbeb64a5d	-0.3560361
14	0xbe79c15f	-0.24390171
15	0x3f2199ee	0.63125503
16	0x3df89c1c	0.121391505
17	0xbe628d9b	-0.2212433
18	0x3e07d6b8	0.13265502
19	0x3ee14f46	0.44005793
20	0x3daac4c5	0.08338312
21	0xbee9545d	-0.45572177
22	0x3f02cf7e	0.5109786
23	0x3e93df80	0.28881454
24	0xbdbfb116	-0.09359948
25	0xbe0eacb1	-0.13933064
26	0x3eec0b16	0.46102208
27	0xbec18479	-0.3779638
28	0x3e0e6f6c	0.13909692
29	0x3e5a1da6	0.21300372
30	0xbd8bd121	-0.068269975
31	0x3e215d24	0.15758187

rnn.weight_ih_l0 f4 [64, 640]
0	0xbdcf985a	-0.10136481
1	0xbdb1e7e4	-0.08686808
2	0x3d833a25	0.064075746
3	0xbd78167f	-0.06056833
4	0xbcbb2282	-0.022843603
5	0x3d955a46	0.07292609
6	0x3cc2651f	0.023729859
7	0xbc0cae13	-0.008586424
8	0x3d3a0a2b	0.045419853
9	0xbda84b22	-0.082174554
10	0xbd6aa581	-0.057286743
11	0xbb7b26e4	-0.0038322741
12	0xbde8d76d	-0.11369214
13	0xbbd30fa5	-0.006441074
14	0xbd90b902	-0.070665374
15	0x3de1a9db	0.110187255
16	0xbd42f6f4	-0.047598794
17	0xbdfc4042	-0.12316944
18	0xbd5a40c0	-0.053284407
19	0xbd284e23	-0.041090142
20	0xbd195cd6	-0.03744205
21	0x3c9c72d1	0.019097717
22	0xbde0dc6f	-0.10979544
23	0x3c8e3ecd	0.01736393
24	0x3c8cc2e1	0.01718277
25	0xbdb1c84f	-0.08680784
26	0xbdcccbc1	-0.099998005
27	0xbdfedaa6	-0.12444048
28	0xbca11a1f	-0.019665776
29	0xbdc01eb2	-0.09380855
30	0x3c91924b	0.017769953
31	0x3b5e0d99	0.0033882617
32	0xbcda8195	-0.026673118
33	0x3caaa044	0.020828374
34	0xbdf5f55e	-0.12009691
35	0xbda7fb4f	-0.0820223
36	0xbcac592e	-0.021038618
37	0x3d8a568b	0.06754788
38	0x3d4366ec	0.047705576
39	0x3d8d5a56	0.06901996
40	0x3cb06f83	0.021537548
41	0xbbf3ed4c	-0.0074440595
42	0xbc964c30	-0.018346876
43	0x3df32927	0.118730836
44	0xbd9ed001	-0.07754517
45	0xbd82570e	-0.063642606
46	0x3daf1487	0.08548837
47	0xbd7a9bc2	-0.0611837
48	0x3de4ca52	0.11171402
49	0x3db21942	0.08696224
50	0x3d3417c9	0.043967996
51	0xbcb9bd54	-0.022673286
52	0x3daac012	0.08337416
53	0xbd5e5198	-0.054277033
54	0xbd8286cd	-0.063733675
55	0xbc361f80	-0.011115909
56	0xbbeee98d	-0.007291025
57	0x3dc17eb3	0.09447994
58	0xbd1f07b9	-0.038825724
59	0xbca7673d	-0.02043497
60	0xbdb6f42e	-0.08933292
61	0xbdecdf16	-0.11565988
62	0x3dd827f3	0.10554495
63	0xbbe8a5a0	-0.007099822
64	0xbc4c638d	-0.012474907
65	0xbd1233ea	-0.03569404
66	0xbdde081d	-0.10841391
67	0xbccefa1b	-0.025265744
68	0x3d60693c	0.05478786
69	0x3d90fbd0	0.070792794
70	0x3d6fce5b	0.058546405
71	0xbd95be7e	-0.07311724
72	0xbd8743ca	-0.066047266
73	0xbdec00ff	-0.115236275
74	0x3d96d1eb	0.073642574
75	0x3b513a85	0.003192575
76	0x3dfec04f	0.12439024
77	0x3d6eede5	0.058332343
78	0x383600ab	4.3392803e-05
79	0xbdcada84	-0.0990496
80	0xbddd40e1	-0.1080339
81	0x3d1e1015	0.038589556
82	0x3c8e4232	0.017365549
83	0xbd8b4b58	-0.0680148
84	0x3d14639f	0.03622782
85	0x3da370c2	0.07980491
86	0x3bce8ee0	0.006303653
87	0x3dfcf9dc	0.123523444
88	0x3c969686	0.018382322
89	0x3d34db30	0.044154346
90	0x3d520cc4	0.051281705
91	0xbcd91260	-0.02649802
92	0x3caff028	0.02147682
93	0x3d58a509	0.052891765
94	0x3d5bd679	0.053671334
95	0x3dab9938	0.083788335
96	0xbd961704	-0.07328609
97	0x3ce56a81	0.028004887
98	0xbd5f8c8f	-0.054577406
99	0xbd2cf12d	-0.04222219
100	0xbdae66a1	-0.08515669
101	0x3dfe00f0	0.124025226
102	0xbc952bb9	-0.018209325
103	0xbd8987d8	-0.06715363
104	0xbdeb1ba0	-0.114798784
105	0xbdf23392	-0.118262425
106	0x3d9e2e14	0.077236325
107	0xbd93972a	-0.07206567
108	0xbde936f3	-0.11387434
109	0x3daabe37	0.08337062
110	0x3cc3ea55	0.02391545
111	0xbd901354	-0.070349365
112	0x3d14a584	0.03629066
113	0xbde28e14	-0.110622555
114	0xbdaeac44	-0.08528951
115	0xbd7e1256	-0.062029205
116	0xbce42f27	-0.027854515
117	0x3c5b20bc	0.013374504
118	0xbd09c51d	-0.033635247
119	0xbda04ff3	-0.07827749
120	0x3d975ecf	0.0739113
121	0x3de084a6	0.10962801
122	0x3dd7047d	0.10498903
123	0xbc92b295	-0.01790742
124	0x3d833ff8	0.064086854
125	0xbd7a66f7	-0.06113335
126	0x3deda580	0.11603832
127	0x3c8bc32a	0.017060835
128	0x3d2a3c7f	0.0415616
129	0x3d8c0e93	0.06838717
130	0x3df378a2	0.11888243
131	0x3d7dd75e	0.06197297
132	0x3dcd8a50	0.10036147
133	0x3d89ba91	0.06725038
134	0xbd452b10	-0.04813677
135	0xbdbdaee9	-0.09261877
136	0xbda015c0	-0.078166485
137	0x3d104dd2	0.035230465
138	0xbd356b4b	-0.044291776
139	0xbcd8e865	-0.026478002
140	0x3dd761ca	0.10516699
141	0x3d08bf2c	0.03338544
142	0x3d4bffa7	0.049804356
143	0xbdf25670	-0.11832893
144	0x3da2ef27	0.07955771
145	0x3d38930e	0.045062117
146	0x3db7c16a	0.08972438
147	0xbc81bd60	-0.015837371
148	0x3dba790c	0.09105119
149	0xbdd02db3	-0.101649664
150	0xbcdfb15d	-0.027306253
151	0xbda9d996	-0.08293454
152	0xbc388615	-0.011262436
153	0xbdc4baaf	-0.096059196
154	0x3de6ef8e	0.1127616
155	0x3df08d42	0.11745693
156	0x3c14c4bf	0.009080111
157	0xbc810a1d	-0.015751893
158	0x3c55d3af	0.013050958
159	0x3df3a234	0.11896172
160	0xbde9c487	-0.11414438
161	0xbdfd2416	-0.123603985
162	0xbd76e7b7	-0.060279574
163	0x3dcaf7fb	0.0991058
164	0xbc09b2d6	-0.008404454
165	0xbd497fa0	-0.04919398
166	0xbd923ad5	-0.071401276
167	0xbd105eb8	-0.03524658
168	0xbdcd3b7b	-0.100211106
169	0xbdd89940	-0.10576105
170	0x3d301c4e	0.042995743
171	0xbd81e341	-0.06342173
172	0x3d428dbf	0.04749846
173	0x3d9fcca4	0.07802704
174	0xbcd818c7	-0.026379002
175	0xbde39237	-0.11111873
176	0xbde44079	-0.1114511
177	0xbdeb4d5e	-0.11489366
178	0x3dd4bf14	0.10388008
179	0xbdf8ab06	-0.12141995
180	0xbdef6d4b	-0.11690768
181	0x3da94177	0.082644396
182	0x3d727f02	0.059203155
183	0x3d947fef	0.07250964
184	0x3d54f8db	0.05199514
185	0x3d7e12fb	0.06202982
186	0x3d93bc96	0.07213704
187	0xbc6a2459	-0.0142908925
188	0xbd7859b8	-0.060632437
189	0xbdb9872b	-0.09058984
190	0x3c46c07f	0.012130856
191	0x3dccff0a	0.10009582
192	0xb9b7d5e8	-0.00035063853
193	0x3def6a24	0.116901666
194	0xbdaebc57	-0.08532017
195	0xbd7be71d	-0.061499704
196	0xbdc6054b	-0.09668978
197	0xbd476c1d	-0.04868709
198	0x3c60c044	0.013717715
199	0xbd8619d3	-0.06547894
200	0xbdb04c7a	-0.08608337
201	0xbd70c031	-0.058777038
202	0x3dc9909a	0.09842034
203	0x3cca18fb	0.024670115
204	0xbdf319d9	-0.118701644
205	0xbca69050	-0.020332485
206	0x3ce5182e	0.027965631
207	0x3df18e6e	0.117947444
208	0xbd298d81	-0.041394714
209	0xbda7dfae	-0.081969604
210	0x3db9439e	0.090461
211	0x3ddf1db5	0.10894338
212	0x3cf0756a	0.029352862
213	0x3dc589b5	0.09645406
214	0xbc36794f	-0.011137321
215	0xbc714e2c	-0.01472811
216	0xbd57e795	-0.05271109
217	0x3d69dc34	0.057094768
218	0xbd9d27ef	-0.07673632
219	0xbdbfb6e2	-0.09361054
220	0x3d86bbaa	0.06578763
221	0x3cc76931	0.024342151
222	0xbc1a2836	-0.009409001
223	0x3cfd638c	0.030931257
224	0xbde28063	-0.11059644
225	0xbbf4604b	-0.007457768
226	0x3e01a493	0.12660436
227	0xbd4d6fc4	-0.050155416
228	0xbdc6ce90	-0.097073674
229	0xbb9405ab	-0.0045172772
230	0xbd9b0b7b	-0.07570549
231	0x3da98a6a	0.082783535
232	0x3d234d49	0.039868627
233	0xbda95bde	-0.082694754
234	0x3d3edcf1	0.046597425
235	0x3d9b0b86	0.07570557
236	0xbda57877	-0.080796175
237	0xbda7d94b	-0.08195742
238	0x3d26eaa8	0.04075113
239	0xbc3314c1	-0.010930241
240	0x3d374745	0.044745702
241	0x3b8039df	0.003913149
242	0x3d5398fb	0.051659565
243	0xbdd8686e	-0.105667934
244	0xbd9af35f	-0.075659506
245	0xbdfc36f9	-0.12315173
246	0xbdb1d3f4	-0.08683005
247	0xbd3f1905	-0.04665472
248	0x3dcbc7b8	0.09950203
249	0x3d391f2c	0.045195743
250	0xbd5ad4b1	-0.053425495
251	0xbdf07a0e	-0.1174203
252	0x3d86f66b	0.06589969
253	0xbe01e96a	-0.12686697
254	0xbca30a81	-0.01990247
255	0xbdbf55f9	-0.0934257

rnn.weight_hh_l0 f4 [64, 64]
0	0x3b963de0	0.004585013
1	0x3d6aff10	0.057372153
2	0xbde29444	-0.11063436
3	0xbdcd60ce	-0.1002823
4	0x3cf15618	0.029459998
5	0x3dd00bf8	0.10158533
6	0xbd4fa690	-0.050695956
7	0x3db31184	0.08743575
8	0xbcf69cb8	-0.030104026
9	0x3bd9e4a0	0.0066495687
10	0xbbb4f9e0	-0.0055229515
11	0xbdc794ba	-0.09745164
12	0xbdecb3a2	-0.115577
13	0x3c14e900	0.009088755
14	0x3df4e466	0.11957626
15	0xbbcbbdc0	-0.0062176883
16	0x3d85d610	0.0653497
17	0xbcf25970	-0.029583663
18	0x3c2e6e40	0.010646403
19	0xbde14f5e	-0.11001466
20	0xbd3c5f64	-0.04598941
21	0xbdd4e7d0	-0.10395777
22	0x3d642dcc	0.055707738
23	0xbdaf82d8	-0.08569878
24	0x3d8be32a	0.068304375
25	0xbd983e22	-0.07433726
26	0x3dd3f15c	0.1034877
27	0x3d0a0f94	0.033706263
28	0x3deb7132	0.114962
29	0x3d40c660	0.047064185
30	0x3db407aa	0.08790524
31	0x3cc90180	0.024536848
32	0x3c8757c0	0.016521335
33	0xbc48a190	-0.012245551
34	0x3bcb8420	0.006210819
35	0x3db3d946	0.08781676
36	0xbd602c60	-0.05472982
37	0x3dcc38c4	0.09971765
38	0xbbdb7780	-0.006697595
39	0xbd56bdc8	-0.052427083
40	0xbdf056c4	-0.11735299
41	0xbcafc858	-0.021457836
42	0x3cc86c98	0.024465844
43	0x3deae90c	0.114702314
44	0xbdef3e6c	-0.11681828
45	0xbc9764f8	-0.018480763
46	0xbd56e6a8	-0.052466065
47	0x3d8a4164	0.067507535
48	0xbda42248	-0.08014351
49	0x3d4120d8	0.047150463
50	0x3d5b1c24	0.053493634
51	0x3d79dd64	0.06100215
52	0xbc431120	-0.011905938
53	0x3cf80200	0.030274391
54	0x3c94b628	0.018153265
55	0x3d963bfa	0.07335658
56	0x3dfcc45c	0.1234214
57	0xbd3d06f0	-0.046149194
58	0x3dd488e0	0.10377669
59	0xbd97abd0	-0.074058175
60	0xbdbbfb2c	-0.091787666
61	0x3bef1f00	0.0072973967
62	0x3dc749e8	0.097308934
63	0xbd9347e0	-0.071914434
64	0xbd719938	-0.05898401
65	0xbca4b668	-0.02010651
66	0x3df0f320	0.117651224
67	0x3d8a3eb6	0.067502424
68	0xbdc6720a	-0.0968972
69	0xbd9f5cb0	-0.077813506
70	0x3c739030	0.01486592
71	0xbd315474	-0.04329343
72	0xbdfcad52	-0.12337746
73	0x3c281af0	0.010260329
74	0x3df13f16	0.11779611
75	0x3d59356c	0.053029463
76	0xbd925b14	-0.07146278
77	0xbd91bf2a	-0.0711654
78	0x3deb44b4	0.114877135
79	0xbdf7712a	-0.12082131
80	0x3d4a27e4	0.04935445
81	0xbcab53d0	-0.020913988
82	0xbc98bc98	-0.018644616
83	0xbdc84dec	-0.097804874
84	0xbd8fb2dc	-0.070165366
85	0xbcb0e710	-0.021594554
86	0xbcb90270	-0.02258417
87	0x3d77068c	0.060308978
88	0x3bb2c000	0.005455017
89	0xbd745194	-0.05964811
90	0xbb4d1e40	-0.0031298548
91	0xbc261590	-0.010136977
92	0x3c0afd10	0.008483186
93	0x3d15d53c	0.03658031
94	0xbc0301b0	-0.007996008
95	0x3bf1a080	0.0073738694
96	0x3d86a984	0.06575301
97	0x3dd419fa	0.10356517
98	0xbde934f2	-0.11387052
99	0xbda0c908	-0.07850844
100	0x3dc7fb80	0.09764767
101	0xbcf45760	-0.02982682
102	0x3dbc22a2	0.09186293
103	0xbd4a2ab0	-0.049357116
104	0xb8b3f000	-8.5800886e-05
105	0xbd114c00	-0.03547287
106	0xbd9d5a5a	-0.07683249
107	0x3cae0ac0	0.02124536
108	0x3db93c48	0.09044701
109	0xbd0c3624	-0.03423132
110	0x3db0f9d8	0.08641404
111	0xbdab8504	-0.0837498
112	0xbdbcb074	-0.09213343
113	0xbdf72ed4	-0.12069479
114	0xbc20d5b0	-0.009816572
115	0x3d866036	0.065613195
116	0x3d427888	0.04747823
117	0x3dac2c66	0.08406906
118	0x3d3c17c0	0.045921087
119	0xbde1bbea	-0.1102217
120	0xbd6b8d04	-0.05750753
121	0x3da55716	0.08073251
122	0x3db3b656	0.08775012
123	0x3dce1c5c	0.10064003
124	0xbd4378d8	-0.047722667
125	0xbc6e0100	-0.014526606
126	0x3d7c8120	0.06164658
127	0x3b8d1a60	0.0043061227
128	0x3d80034a	0.06250627
129	0xbd7535b4	-0.05986567
130	0xbbabe780	-0.005246103
131	0x3cadfd68	0.021238998
132	0xbd264df8	-0.0406017
133	0xbd2ffdc0	-0.042966604
134	0xbc2f5c80	-0.010703206
135	0x3db4d81c	0.08830282
136	0x3d9b4ba2	0.07582785
137	0x3a5a0300	0.0008316487
138	0x3d2b08c0	0.04175639
139	0x3db0500e	0.08609019
140	0xbd2bfe78	-0.041990727
141	0xbdba6118	-0.091005504
142	0xbbce69e0	-0.0062992424
143	0x3cfba790	0.030719548
144	0x3df2a72c	0.11848292
145	0xbdd0f288	-0.10202509
146	0xbd8ff1ec	-0.07028565
147	0x3da977e8	0.082748234
148	0xbd2504b0	-0.040287673
149	0xbc51bc60	-0.01280126
150	0xbdf8a96e	-0.12141691
151	0x3d806b22	0.06270434
152	0xbbef4c60	-0.007302806
153	0x3d476308	0.048678428
154	0x3c161d30	0.009162232
155	0x3d580064	0.052734748
156	0x3daf5a3a	0.08562131
157	0x3bf1e480	0.0073819757
158	0xbcdf1fd8	-0.027236864
159	0x3db2e2ec	0.08734688
160	0xbd2147e8	-0.039375216
161	0x3c997220	0.018731177
162	0x3cb02108	0.021500126
163	0x3d776ee8	0.060408503
164	0xbb8c7e00	-0.0042874813
165	0xbd6238c4	-0.055229917
166	0xbc1e8160	-0.0096744
167	0xbdbc60ce	-0.091981515
168	0xbd0b4bb4	-0.034007743
169	0xbdb40e6a	-0.08791812
170	0x3c762460	0.015023321
171	0x3dd769be	0.105182156
172	0x3d956c4a	0.07296045
173	0xbcef1430	-0.02918443
174	0x3d0b3bb4	0.033992484
175	0xbd825c80	-0.06365299
176	0x3da0b0be	0.07846211
177	0x3bed2e00	0.0072381496
178	0xbd3bc8a0	-0.045845628
179	0x3da11446	0.07865195
180	0xbda74c86	-0.081688926
181	0x3df91cea	0.12163718
182	0xbda3cb26	-0.07997732
183	0x3dc2825a	0.09497519
184	0x3db2006c	0.08691487
185	0xbcabc6e0	-0.020968854
186	0xbddd610c	-0.10809526
187	0x3dded448	0.10880333
188	0xbcf81e50	-0.030287892
189	0x3bfa1340	0.0076316893
190	0x3b5ca7c0	0.0033669323
191	0x3d5c6ecc	0.0538166
192	0x3d6f3228	0.058397442
193	0xbc808ed8	-0.015693113
194	0x3d733bf4	0.059383348
195	0x3c3185a0	0.010835081
196	0x3df7ddea	0.121028736
197	0x3cb91240	0.02259171
198	0xbcf80a18	-0.03027825
199	0xbd875220	-0.06607461
200	0x3c2b5af0	0.010458693
201	0xbdc08f88	-0.094023764
202	0x3d84a60c	0.064769834
203	0xbd43dbf4	-0.047817186
204	0x3cdcde50	0.026961476
205	0x3b10c300	0.0022088885
206	0x3c9cdf80	0.019149542
207	0x3d827fe0	0.063720465
208	0xbd083d30	-0.033261478
209	0xbdadedbe	-0.08492611
210	0xbda43974	-0.08018771
211	0xbd0ea23c	-0.034822688
212	0x3b65f300	0.0035087466
213	0x3dedbccc	0.11608276
214	0x3dabdf68	0.08392221
215	0xbd2358b8	-0.03987953
216	0xbdc04fc6	-0.093902156
217	0xbd99ca44	-0.07509282
218	0xbdc7bab0	-0.09752405
219	0xbdd24134	-0.10266343
220	0xbdf002ba	-0.1171927
221	0x3c1ec8b0	0.009691402
222	0xbdce0c8e	-0.10060988
223	0x3dee57fe	0.11637877
224	0xbb8ecb20	-0.0043577105
225	0xbdf8e850	-0.12153685
226	0x3d2aec04	0.04172899
227	0x3dc84420	0.09778619
228	0xbd871c7e	-0.06597231
229	0xbc722790	-0.01477994
230	0xbd50a300	-0.0509367
231	0xbcdfc750	-0.02731672
232	0xbd8dcb48	-0.069235384
233	0xbd5f14b0	-0.05446309
234	0x3ddc6060	0.107605696
235	0xbcaa8ae8	-0.020818189
236	0xbdef8bb6	-0.116965696
237	0xbcc9b718	-0.024623439
238	0x3db853c4	0.09000352
239	0xbd33653c	-0.043797716
240	0xbdf6b3b4	-0.120459944
241	0x3cab9a78	0.02094768
242	0x3c84aa60	0.016194522
243	0xbd2cb54c	-0.042165086
244	0x3c8ac1d8	0.016938135
245	0x3d9a6d1e	0.07540344
246	0x3ded6ad8	0.115926445
247	0x3da80740	0.08204508
248	0x3d302498	0.04300365
249	0x3d145028	0.036209255
250	0x3b99a300	0.0046886206
251	0xbc39c0c0	-0.011337459
252	0xbd81cdb2	-0.063380614
253	0xbddd7a02	-0.10814287
254	0xbdcee7aa	-0.1010278
255	0x3d0f188c	0.03493552

rnn.bias_ih_l0 f4 [64]
0	0xbd92522a	-0.07144578
1	0x3b6b2506	0.0035880222
2	0xbd2387ac	-0.03992431
3	0x3d873294	0.06601444
4	0x3dfd8e7e	0.12380694
5	0xbd4e2290	-0.05032593
6	0x3c3b10e0	0.0114175975
7	0xbd4f1f2a	-0.05056683
8	0x3d125da4	0.035733834
9	0xbda47272	-0.08029641
10	0xbd97e2fa	-0.07416339
11	0x3dd0325a	0.10165854
12	0xbd648b45	-0.05579688
13	0x3dd1a5cc	0.10236701
14	0xbd1b080c	-0.03784947
15	0x3dd6e067	0.1049202
16	0x3c5be710	0.013421789
17	0x3d39b15d	0.045335162
18	0xbcb349ec	-0.021885835
19	0xbca736b0	-0.02041182
20	0xbd852d56	-0.06502788
21	0xbd2688d8	-0.040657848
22	0xbc942255	-0.018082777
23	0xbbab65e0	-0.0052306503
24	0x3d0cb72c	0.034354374
25	0xbcecea00	-0.028920174
26	0xbdc0815a	-0.09399672
27	0x3d47e61d	0.048803438
28	0x3e039df7	0.12853228
29	0x3dc2d104	0.09512523
30	0x3ca803c0	0.0205096
31	0xbdd36584	-0.10322097
32	0x3dfc2384	0.123114616
33	0x3e08a8d8	0.13345659
34	0x3dba3796	0.090926334
35	0x3bd03660	0.0063541383
36	0x3df1ca6a	0.118061855
37	0xbda8a16b	-0.08233913
38	0x3d837e99	0.06420631
39	0xbd9af6c0	-0.07566595
40	0xbdca044e	-0.09864102
41	0xbdd980c1	-0.10620261
42	0x3d9fbfc6	0.0780025
43	0xbdbeafa5	-0.09310845
44	0x3db58664	0.088635236
45	0xbdabbdba	-0.08385797
46	0x3d4bf344	0.049792543
47	0x3de801f6	0.11328499
48	0x3d1413b5	0.036151607
49	0xbdb38085	-0.087647475
50	0x3d91b282	0.07114126
51	0x3c04a7bd	0.008096633
52	0xbdf86c9e	-0.12130092
53	0xbbcfe8a0	-0.0063448697
54	0x3d253180	0.04033041
55	0xbb2089c7	-0.0024496184
56	0x3d9f3522	0.07773806
57	0xbc42d0b3	-0.011890578
58	0x3dbbeb4c	0.09175739
59	0xbb508240	-0.0031815916
60	0xbd0cb700	-0.03435421
61	0xbd813034	-0.06308022
62	0xbd0d7f18	-0.034545034
63	0x3d905c8e	0.070489034

rnn.bias_hh_l0 f4 [64]
0	0xbd126a26	-0.035745762
1	0x3d09e235	0.033662993
2	0xbd306978	-0.043069333
3	0xbdc859de	-0.09782766
4	0xbd91e174	-0.0712308
5	0x3dcf580c	0.101242155
6	0x3dfc9c12	0.123344555
7	0x3c9cf797	0.019161029
8	0xbc8277ac	-0.015926205
9	0x3dc0d534	0.09415665
10	0x3d561a08	0.05227092
11	0xbc4ae880	-0.012384534
12	0xbd0443a5	-0.032291073
13	0x3da2e778	0.079543054
14	0x3cb1d580	0.02170825
15	0x3ba62239	0.0050699976
16	0xbd38595e	-0.045007102
17	0x3d017f41	0.0316155
18	0x3d211e1c	0.039335355
19	0xbcde9580	-0.027170897
20	0xbd6981d0	-0.057008564
21	0x3da77186	0.0817595
22	0x3dbb8104	0.09155467
23	0x3d9cf9b8	0.076648176
24	0x3dafa344	0.08576062
25	0xbd77855c	-0.060429916
26	0x3de3e226	0.11127119
27	0x3d198b19	0.03748617
28	0xbdc3aad1	-0.09554065
29	0xbbc695d8	-0.0060603432
30	0x3dd51a3e	0.10405396
31	0x3d83308e	0.064057454
32	0xbcb40a50	-0.021977574
33	0xbdbb7857	-0.091538124
34	0x3de40a84	0.11134818
35	0x3d85e55a	0.06537886
36	0x3de8cef0	0.11367595
37	0x3dcea467	0.10089951
38	0x3d9aaf0e	0.0755292
39	0xbc9d19d8	-0.019177362
40	0x3dce7f9a	0.10082932
41	0x3cc9ba80	0.024625063
42	0xbdcbaec8	-0.09945446
43	0x3d12d959	0.03585181
44	0x3d8f1612	0.069866315
45	0x3c851748	0.016246453
46	0xbdb7e575	-0.08979312
47	0xbbb8e100	-0.0056420565
48	0x3d2d860a	0.042364158
49	0x3ddc71d7	0.10763901
50	0x3c354070	0.011062726
51	0x3cc72fc3	0.024314767
52	0x3dde7ac0	0.108632565
53	0x3dae8526	0.0852149
54	0xbdb0f93e	-0.08641289
55	0x3d664350	0.056216538
56	0xbd9a44c2	-0.07532646
57	0xbdd70a59	-0.105000205
58	0x3df0e732	0.11762847
59	0xbd681344	-0.056658998
60	0x3def87bf	0.116958134
61	0xbda20388	-0.0791083
62	0x3dd96148	0.10614258
63	0xbd8db2ba	-0.06918855

fc1.weight f4 [128, 64]
0	0xbbf7f10b	-0.0075665764
1	0xbddd35b5	-0.108012594
2	0x3df1cb6b	0.11806377
3	0x3de819a5	0.11333016
4	0x3cfba24e	0.030717041
5	0x3d039047	0.032120015
6	0xbd5873da	-0.05284486
7	0xbc17d1c1	-0.009266318
8	0x3d7fd5ba	0.062459685
9	0x3d22b586	0.039723895
10	0x3d96802d	0.07348666
11	0x3da24a99	0.079243846
12	0x3d93fb67	0.072256856
13	0x3dc089ef	0.09401309
14	0xbdc71447	-0.097206645
15	0x3d053a47	0.03252628
16	0x3dcd4d58	0.10024518
17	0xbc2264dc	-0.009911742
18	0x3da9c81c	0.08290121
19	0xbdbd1dd9	-0.092342086
20	0xbd745a3f	-0.059656378
21	0xbcfca6fa	-0.03084134
22	0x3df8ead7	0.12154167
23	0xbdb95a27	-0.09050398
24	0xbe00509f	-0.12530755
25	0xbbadb4f0	-0.0053011104
26	0xbde141fb	-0.10998913
27	0xbb788bd3	-0.0037925139
28	0xbdf1d679	-0.118084855
29	0x3ead4546	0.33841914
30	0x3d96688b	0.07344159
31	0xbde307ef	-0.110854976
32	0xbc4351af	-0.01192133
33	0x3d944fc1	0.07241774
34	0xbdcbf439	-0.09958691
35	0x3db10c65	0.08644942
36	0xbd3083da	-0.043094493
37	0x3d3bf357	0.045886364
38	0x3dc6f3ac	0.097144455
39	0x3dcbcdcd	0.09951363
40	0x3dbc6779	0.09199423
41	0xbd92fc3c	-0.07177016
42	0xbdc709ee	-0.09718691
43	0xbdee3407	-0.11631017
44	0x3df7e179	0.12103552
45	0xbd4ae7e2	-0.049537547
46	0xbd39290c	-0.04520516
47	0xbdc0a229	-0.094059296
48	0xbe867c61	-0.2626677
49	0xbd7c2797	-0.061561193
50	0xbc87e4f5	-0.016588667
51	0xbde79a83	-0.11308768
52	0x3dd3c62d	0.103405334
53	0xbda2d677	-0.07951062
54	0xbd997831	-0.07493628
55	0x3be70cb1	0.0070510735
56	0x3d98f3e3	0.07468393
57	0x3dc8378b	0.09776219
58	0xbc35f959	-0.011106812
59	0xbd74f6ce	-0.059805684
60	0xbdf105af	-0.11768662
61	0xbdfacdd7	-0.12246292
62	0x3dcc02ad	0.09961448
63	0x3c113fed	0.008865339
64	0xbda47907	-0.08030897
65	0xbdae7baf	-0.085196845
66	0xbd93089a	-0.07179375
67	0x3d2dbd96	0.04241713
68	0x3dac06fb	0.08399769
69	0xbdf07075	-0.117401995
70	0xbd83d093	-0.06436267
71	0x3d9b0b8d	0.075705625
72	0x3d7252f7	0.059161153
73	0x3cb91b61	0.022596063
74	0xbdd535cd	-0.10410652
75	0x3dab1cd5	0.08355109
76	0x3b43dbf2	0.0029885736
77	0xbb4e4c76	-0.003147868
78	0xbdbf506b	-0.093415104
79	0x3d18fb3e	0.03734898
80	0xbdebf904	-0.11522105
81	0xbd18ba51	-0.03728706
82	0x3d9d3061	0.07675243
83	0x3e080694	0.1328376
84	0x3dae08d7	0.0849778
85	0x3dc399a1	0.09550787
86	0x3db156ed	0.08659158
87	0x3dab923f	0.083775036
88	0xbdc49375	-0.09598438
89	0x3d934c82	0.07192327
90	0x3c74049c	0.014893677
91	0xbc4e075f	-0.012575
92	0xbce49b94	-0.027906217
93	0xbcdbc319	-0.026826428
94	0x3d62c8b7	0.055367198
95	0x3d8946f7	0.067029886
96	0x3d451f67	0.04812565
97	0xbe102f8f	-0.14080642
98	0x3c5d9d8c	0.013526332
99	0xbe0c520d	-0.13703175
100	0x3d6f1178	0.05836627
101	0x3dd5fd7c	0.10448739
102	0xbc596e47	-0.013270921
103	0x3dcf79c1	0.101306446
104	0xbdd086dd	-0.10181973
105	0x3cb3a50d	0.021929288
106	0x3cf32e68	0.029685214
107	0x3db04205	0.08606342
108	0x3d90c188	0.07068163
109	0x3d2af5d6	0.041738354
110	0x3dbeb818	0.09312457
111	0x3cb053f3	0.021524405
112	0xbd8f4cad	-0.069970466
113	0x3c0c1da9	0.008551993
114	0xbd9cff05	-0.076658286
115	0xbdf4d086	-0.11953835
116	0x3be69486	0.0070367483
117	0xbcef8994	-0.029240407
118	0x3d9f25ec	0.07770905
119	0x3d316e9d	0.04331838
120	0xbcee1d84	-0.029066809
121	0x3db42b99	0.08797378
122	0xbd310a4a	-0.043222703
123	0xbd4e5893	-0.05037744
124	0x3d3fa16a	0.046784796
125	0xbd0daf65	-0.034591097
126	0xbdb8ea7b	-0.090290986
127	0xbd9731f9	-0.073825784
128	0xbdc37b50	-0.09545004
129	0x3d9f444e	0.077767
130	0xbd8389ca	-0.064227656
131	0xbdbb7cd2	-0.09154667
132	0x3daaf7e8	0.083480656
133	0xbc85a9c5	-0.016316304
134	0xbd1c9aa9	-0.038233433
135	0x3db18694	0.08668247
136	0xbd991d30	-0.0747627
137	0x3bae0b19	0.0053113815
138	0x3ddfc14a	0.10925539
139	0x3b93e99a	0.0045139315
140	0xbdb0bd24	-0.08629826
141	0x3df261e6	0.11835079
142	0x3dbfa090	0.09356797
143	0xbde18e15	-0.11013428
144	0xbe004111	-0.12524821
145	0x3cd5dfb5	0.026107648
146	0xbdb985cc	-0.09058723
147	0x3d383cf3	0.04498
148	0x3c9eb275	0.019372204
149	0x3b2cf2eb	0.0026389908
150	0xbd86ae40	-0.06576204
151	0x3d05b4cc	0.032643124
152	0xbb9fff84	-0.0048827548
153	0xbd2ddc81	-0.042446617
154	0x3dd795a8	0.105265915
155	0xbe00ecaa	-0.1259028
156	0xbdbf809d	-0.09350703
157	0xbd446797	-0.047950353
158	0xbb95361a	-0.0045535685
159	0x3dcf7fd8	0.10131806
160	0x3d78208f	0.060577925
161	0xbd9ab517	-0.075540714
162	0x3beb891c	0.0071879756
163	0x3bcb387d	0.0062018023
164	0x3c35cd5f	0.011096328
165	0xbddeb83b	-0.10874983
166	0x3da8f8d2	0.08250584
167	0xbca95aed	-0.02067324
168	0xbcaef243	-0.021355754
169	0xba079a82	-0.0005172865
170	0xbd47881e	-0.048713796
171	0x3db60b38	0.088888586
172	0xbc62187b	-0.013799782
173	0xbc57bd2e	-0.013167663
174	0xbce71937	-0.028210266
175	0xbda3acac	-0.07991919
176	0xbc0915bd	-0.008366999
177	0x3c5154c0	0.012776554
178	0x3da35fea	0.079772785
179	0xbd99c4c3	-0.075082324
180	0xbdac7f93	-0.0842277
181	0x3d89191a	0.06694241
182	0x3d6671bb	0.056260806
183	0xbd1fd707	-0.039023425
184	0x3d026980	0.031838894
185	0x3a5f1b98	0.00085108867
186	0xbd81ceb6	-0.06338255
187	0x3d1382bd	0.036013354
188	0x3dcde851	0.100540765
189	0x3e01a4a5	0.12660463
190	0xbd9638c0	-0.07335043
191	0x3ca92c75	0.020651082
192	0x3df30a72	0.11867227
193	0xbc777cf8	-0.015105478
194	0x3db4d2d0	0.08829272
195	0x3cc6e04d	0.024276877
196	0xbe016152	-0.12634781
197	0x3d8dafc6	0.06918292
198	0x3d9cdc3e	0.07659195
199	0x3d491329	0.04909054
200	0xbddbf9ad	-0.10740981
201	0xbda345e7	-0.07972317
202	0xbd8b3474	-0.06797114
203	0xbd948bba	-0.07253213
204	0x3baf63fd	0.0053524957
205	0x3c789368	0.015171863
206	0xbdcb39f0	-0.0992316
207	0x3d66f694	0.0563875
208	0xbb47791e	-0.0030437182
209	0xbce9eb3d	-0.028554553
210	0xbddbc196	-0.10730283
211	0x3d45bb13	0.04827411
212	0xbd9bc934	-0.07606736
213	0x3d927696	0.07151525
214	0xbc3d58dd	-0.011556831
215	0x3e05d2c1	0.13068677
216	0x3cdbec8c	0.026846193
217	0xbd88cb8e	-0.0667945
218	0xbd00cf90	-0.031447947
219	0x3dce841f	0.10083794
220	0x3d918da8	0.07107097
221	0xbc034511	-0.008012072
222	0xbcbcd02b	-0.023048481
223	0x3c813cb4	0.015776016
224	0xbd421bab	-0.047389667
225	0x3ddf20bc	0.108949155
226	0xbd87e45c	-0.06635353
227	0x3d73c507	0.05951407
228	0xbc340a45	-0.010988777
229	0x3dc80f31	0.097685225
230	0xbcea84dd	-0.028627807
231	0x3dccf57a	0.100077584
232	0xbdac4e3e	-0.08413361
233	0xbda468c5	-0.08027796
234	0x3d0698ee	0.03286069
235	0xbcfc4bea	-0.030797917
236	0x3d5be393	0.05368383
237	0x3de8374e	0.113386735
238	0x3de01bda	0.10942812
239	0x3d900eac	0.070340484
240	0x3cc3efbb	0.023918023
241	0x3d9065b4	0.07050648
242	0x3d321d6b	0.043485086
243	0xbdb7b4c3	-0.089700244
244	0x3d969e12	0.07354368
245	0x3da62060	0.08111644
246	0x3d568a47	0.052377965
247	0x3d8e230e	0.0694028
248	0x3c70b864	0.0146924
249	0x3e034bf4	0.12821943
250	0xbdcb08e2	-0.09913804
251	0x3cded2fc	0.027200215
252	0xbb834ccc	-0.0040069576
253	0x3d32cb4f	0.04365092
254	0x3d306f95	0.043075163
255	0x3ddea858	0.10871953

fc1.bias f4 [128]
0	0x3d578e48	0.052625924
1	0x3d8cc26d	0.06873021
2	0x3db2ec02	0.08736421
3	0xbdfc235e	-0.12311433
4	0xbd683b03	-0.056696903
5	0xbd769b70	-0.06020683
6	0xbd8842a9	-0.066533394
7	0x3a923d80	0.0011157244
8	0xbc3e64d9	-0.011620724
9	0x3d978d51	0.07400001
10	0xbd7ddfcc	-0.061981007
11	0xbcf0df10	-0.02940324
12	0xbd874ef9	-0.0660686
13	0xbd9a0658	-0.07520741
14	0x3d2e9319	0.042620752
15	0xbd8324c9	-0.064035006
16	0x3d3abec8	0.0455921
17	0x3cf47496	0.029840749
18	0xbdec5a8d	-0.11540709
19	0x3caaba15	0.020840684
20	0xbccf7140	-0.025322556
21	0x3c247a3e	0.01003891
22	0xbd8ee4f2	-0.069772616
23	0xbdfd834c	-0.123785585
24	0x3d87af96	0.06625287
25	0xbd210c89	-0.039318595
26	0x3da61fb9	0.08111519
27	0xbce3ce3a	-0.027808297
28	0xbde9ab1e	-0.11409591
29	0xbcee3d5e	-0.029081997
30	0x3dbc3fc9	0.091918536
31	0x3d43e171	0.04782242
32	0xbdfaae74	-0.122403055
33	0xbd75ac00	-0.059978485
34	0x3dca78c2	0.09886314
35	0x3db11fde	0.08648656
36	0xbd7581f4	-0.059938386
37	0xbc896d5b	-0.016775778
38	0x3d2cdfc9	0.042205606
39	0xbd5a62f4	-0.053317025
40	0x3d2745eb	0.040838163
41	0x3cf051e6	0.029335927
42	0x3d44aea5	0.048018117
43	0x3d07cb93	0.033153128
44	0x3d3b7678	0.045767277
45	0xbe08ea6a	-0.13370672
46	0xbd88b938	-0.06675953
47	0xbcc77158	-0.024346039
48	0xbddf44ab	-0.10901769
49	0xbca9a9d0	-0.020710856
50	0xbd941a75	-0.07231609
51	0x3d9ebc37	0.07750743
52	0x3df00dd2	0.11721386
53	0xb9e0fa00	-0.00042910874
54	0xbd64cfe8	-0.055862337
55	0xbd82b5a0	-0.063822985
56	0xbd25d1a6	-0.04048314
57	0xbd94a315	-0.07257668
58	0x3c613960	0.013746589
59	0xbdfb2bfe	-0.1226425
60	0x3c314290	0.010819092
61	0x3dcd4fa1	0.10024954
62	0xbdfc23b3	-0.123114966
63	0x3ce13b20	0.027494013
64	0x3b769f12	0.0037631434
65	0x3ba18620	0.004929319
66	0xbdaa1d02	-0.08306314
67	0x3d2307de	0.039802425
68	0x3daf0fda	0.08547945
69	0xbc6c0260	-0.014404863
70	0xbc6ff0ef	-0.014644845
71	0x3dc1458f	0.094370954
72	0xbaa5e480	-0.0012656599
73	0x3c31bdb5	0.010848452
74	0xbdfb2c2b	-0.12264284
75	0xbcb499c0	-0.02204597
76	0x3de794e2	0.11307694
77	0x3db3024a	0.08740671
78	0x3d876502	0.066110626
79	0x3d7e71af	0.062120136
80	0x3da15391	0.07877267
81	0xbb4c3754	-0.0031160908
82	0x3d1ee3fb	0.038791638
83	0x3ca61479	0.020273434
84	0xbe08fe73	-0.13378315
85	0xbd03131c	-0.032000646
86	0x3da91034	0.082550436
87	0xbddec92c	-0.10878214
88	0xbce980b0	-0.028503746
89	0xbdded91c	-0.10881254
90	0xbd425fec	-0.04745476
91	0xbd6fd092	-0.058548518
92	0xbd958f2a	-0.07302697
93	0x3d158e90	0.03651291
94	0xbd8c8ea2	-0.068631425
95	0xbd9be81a	-0.07612629
96	0x3d584e88	0.05280927
97	0x3d9724b4	0.073800474
98	0xbdc93b6e	-0.098257884
99	0xbcfb0aa1	-0.030644717
100	0xbe08e7b5	-0.13369639
101	0xbc7cc953	-0.015428859
102	0x3d02fb48	0.03197792
103	0x3d678f5f	0.056533214
104	0x3dc470c7	0.09591823
105	0x3c70b3c0	0.014691293
106	0x3b9ea655	0.0048416057
107	0xbd2abdff	-0.0416851
108	0xbd32cd33	-0.043652724
109	0x3d893d92	0.06701197
110	0x3cc55075	0.024086216
111	0x3de8f4a6	0.11374788
112	0xbda7794b	-0.08177432
113	0x3de02f70	0.10946548
114	0xba6679ae	-0.00087919354
115	0xbdf20946	-0.11818175
116	0xbd40a6fd	-0.047034252
117	0x3d62ee02	0.055402763
118	0x3da407dc	0.080093116
119	0x3b71ee40	0.003691569
120	0xbd9af34e	-0.07565938
121	0x3cbd2bd8	0.023092195
122	0xbcb54b09	-0.022130506
123	0xbd83c9be	-0.06434964
124	0x3dcc932c	0.09989008
125	0xbc763fa3	-0.015029821
126	0xbb3d30d9	-0.0028868227
127	0x3db6a836	0.089188024

fc2.weight f4 [10, 128]
0	0xbcf4ce42	-0.029883508
1	0x3c1adcbe	0.009452043
2	0xbd903cff	-0.07042884
3	0xbd3a391a	-0.045464613
4	0x3db8491d	0.0899832
5	0x3d027cd7	0.031857338
6	0x3dec0183	0.11523726
7	0x3c89efe0	0.016838014
8	0x3dbe51c4	0.09292939
9	0xbdaf7544	-0.085672885
10	0xbcb64008	-0.02224733
11	0xbd9dd3d9	-0.07706422
12	0xbc344f39	-0.011005216
13	0x3d8a4461	0.067513235
14	0x3e0f1e64	0.13976437
15	0xbd9fdd04	-0.07805827
16	0xbd39f240	-0.045397043
17	0x3e04a6f2	0.1295431
18	0x3cedc75b	0.029025724
19	0x3e4255fe	0.18978116
20	0x3d89bead	0.06725822
21	0xbe9e44f4	-0.30911982
22	0x3e55ff0e	0.20898077
23	0xbd890b16	-0.066915676
24	0x3da4a9a5	0.080401696
25	0x3d055416	0.032550894
26	0x3dd138cf	0.102159135
27	0xbe2a3dd4	-0.16625148
28	0xbd1aa627	-0.03775611
29	0xbd8afe91	-0.06786836
30	0xbb12eda6	-0.0022419482
31	0x3ddb6912	0.107134
32	0x3caeed8b	0.021353504
33	0x3d42d9e6	0.047571085
34	0x3dd94020	0.10607934
35	0xbd7bd7b8	-0.061485022
36	0x3d9250e2	0.071443334
37	0x3dfd3ec5	0.12365488
38	0xbcdd4ecb	-0.02701511
39	0x3d9059bd	0.07048366
40	0x3e173e6a	0.14769903
41	0xbd73821b	-0.05945025
42	0xbc829f36	-0.015945058
43	0x3e062b20	0.13102388
44	0xbd77af42	-0.060469873
45	0x3dbe4a86	0.09291558
46	0x3c95933f	0.018258689
47	0x3d5bf6ed	0.053702284
48	0xbd8944e5	-0.06702594
49	0xbd786346	-0.06064155
50	0x3e25c0bf	0.16186808
51	0x3e271ead	0.16320296
52	0x3db762ad	0.08954368
53	0xbc80f243	-0.01574052
54	0xbd4e6370	-0.0503878
55	0x39ce4c6b	0.00039348318
56	0x3e242814	0.16030914
57	0x3d90c680	0.07069111
58	0x3d626a9a	0.055277444
59	0xbd5b0d58	-0.053479522
60	0x3cba83b2	0.022767875
61	0xbcf2cbc1	-0.029638173
62	0xbe627535	-0.22115023
63	0x3cc58737	0.024112327
64	0x3ba2b881	0.0049658422
65	0x3d20493b	0.039132338
66	0x3db43cf8	0.08800691
67	0x3cdd2ad7	0.026997967
68	0x3aaa1062	0.0012974853
69	0x3d8ef8e8	0.06981069
70	0x3d3c3f85	0.045959014
71	0x3da11128	0.078646004
72	0xbbb64d7d	-0.0055634365
73	0x3d9e2ba5	0.07723168
74	0xbd8ae7f6	-0.06782524
75	0xbcb9ce36	-0.022681337
76	0x3db49d77	0.088190965
77	0x3d91cb72	0.07118882
78	0x3d8c09a9	0.0683778
79	0xbc1d96af	-0.009618445
80	0x3d297925	0.041375298
81	0xbd9e6227	-0.07733565
82	0x3c732a49	0.014841625
83	0xbca3a176	-0.019974452
84	0xbd9050ce	-0.07046662
85	0xbdb500f2	-0.08838071
86	0xbcdd5c37	-0.02702151
87	0xbd9e02bd	-0.07715366
88	0xbdb58cef	-0.088647716
89	0x3bfa01d8	0.0076296143
90	0x3dfb1624	0.12260082
91	0xbd0369f3	-0.032083463
92	0x3da16f09	0.078825064
93	0xbd95973c	-0.07304236
94	0xbda41b35	-0.08013002
95	0x3d4e9c59	0.050442073
96	0x3dfd256e	0.12360655
97	0x3d9b4300	0.075811386
98	0x3ccd3148	0.025047913
99	0x3d879b10	0.06621373
100	0xbc4eee07	-0.012629992
101	0xbc95cef0	-0.018287152
102	0x3d3d4785	0.046210784
103	0x3be14634	0.006874824
104	0xbe474a56	-0.1946195
105	0xbba9158a	-0.0051600384
106	0x3c90f12b	0.017693123
107	0xbc233034	-0.009960223
108	0x3d970b56	0.07375209
109	0x3cd8308e	0.02639034
110	0xbd95669b	-0.07294961
111	0xbda8f11d	-0.08249114
112	0x3d766002	0.060150154
113	0xbd285f5a	-0.04110656
114	0xbe1a689f	-0.15078972
115	0x3dc3fb1d	0.095693804
116	0x3e14c402	0.14527896
117	0x3dc7207b	0.09722992
118	0x3db1d995	0.086840786
119	0xbd2e14e0	-0.042500377
120	0xbd3c2a06	-0.045938514
121	0xbcc72a0b	-0.02431204
122	0xbe1db577	-0.15401255
123	0xbea344ef	-0.3188853
124	0xbd1caa1d	-0.03824817
125	0x3cd713c0	0.026254535
126	0xbd35ec01	-0.044414524
127	0xbd5a08c9	-0.053231034
128	0x3d3c5b27	0.045985367
129	0xbd7a9169	-0.06117383
130	0xbd8c0784	-0.06837371
131	0xbcdb4fdf	-0.026771484
132	0xbd7b16df	-0.06130111
133	0xbd91d6bb	-0.07121035
134	0x3d43ca4b	0.047800343
135	0xbda286f9	-0.079359
136	0xbd3592e0	-0.044329524
137	0x3e0bd530	0.13655543
138	0x3dad43d6	0.08460204
139	0x3d1786df	0.036993857
140	0x3d3cd6ed	0.046103407
141	0xbd0c820c	-0.03430371
142	0xbd81fcb2	-0.06347026
143	0xbd865272	-0.06558694
144	0x3d5a3952	0.05327732
145	0xbd6aa3ff	-0.057285305
146	0x3c7e4c9d	0.015521196
147	0xbe4eb50d	-0.20186253
148	0x3983404d	0.00025034175
149	0x3e7942c7	0.2434188
150	0xbdf6a5b8	-0.12043327
151	0xbd3decf5	-0.046368558
152	0x3b864996	0.0040981276
153	0x3d8b1dbe	0.06792782
154	0x3dc80fe6	0.097686574
155	0x3dcf3020	0.10116601
156	0xbd93d528	-0.07218391
157	0xbd1b5687	-0.037924316
158	0xbc08f8ec	-0.008360129
159	0x3ddaa7b5	0.10676519
160	0xbc5d1d66	-0.013495779
161	0xbd6919c5	-0.05690934
162	0xbd53d349	-0.05171517
163	0xbd5760dc	-0.052582607
164	0x3d333009	0.04374698
165	0x3d213b43	0.039363157
166	0x3dd929a8	0.106036484
167	0x3d96b98b	0.07359608
168	0xbdfbaccc	-0.12288818
169	0xbd6798d5	-0.056542236
170	0x3e0a2462	0.13490441
171	0x3d3076e7	0.043082144
172	0x3c2182e0	0.009857863
173	0x3db670f3	0.08908262
174	0xbd4206e1	-0.04736984
175	0x3d7bbb10	0.061457694
176	0xbce32ab2	-0.02773032
177	0x3c9b3b9f	0.018949328
178	0x3d1a2f23	0.03764261
179	0xbc8c766b	-0.01714631
180	0x3dd3a314	0.10333839
181	0xbce2d5a4	-0.027689762
182	0xbd1e1a38	-0.038599223
183	0xbbe8ee65	-0.007108497
184	0xbd7381d9	-0.059450004
185	0x3d80bb88	0.06285769
186	0xbdab6857	-0.083695106
187	0xbcd08068	-0.025451854
188	0x3d581316	0.052752577
189	0xb9abcb92	-0.00032767333
190	0x3df58eeb	0.1199015
191	0x3c8ffb44	0.017575867
192	0xbb81e13d	-0.003963618
193	0x3d8247c9	0.06361348
194	0xbd07b0c3	-0.033127557
195	0xbcfeb320	-0.031091273
196	0x3de2381b	0.110458575
197	0xbdaafb8e	-0.083487615
198	0x3d0a56a2	0.033774026
199	0xbd70f637	-0.05882856
200	0xbc25ff15	-0.010131617
201	0x3d846414	0.06464401
202	0xbd852b03	-0.065023445
203	0x3cacd5d6	0.021098059
204	0x3db9ace9	0.09066183
205	0x3d9528bb	0.07283159
206	0xbd62a73d	-0.055335272
207	0x3d9c0470	0.07618034
208	0xbd721a64	-0.0591072
209	0xbd2171a2	-0.03941501
210	0x3d6713bc	0.056415305
211	0xbd4b0ccf	-0.049572762
212	0xbd1d486c	-0.038399145
213	0x3dfea0ca	0.12433012
214	0x3de94c92	0.11391558
215	0xbc928091	-0.01788357
216	0xbd27520c	-0.04084973
217	0xbd1c33b2	-0.038135238
218	0xbd90655e	-0.07050584
219	0xbd0b4c99	-0.034008596
220	0x3dd12023	0.10211208
221	0xbd9f44be	-0.077767834
222	0x3cdad916	0.026714843
223	0x3caec480	0.021333933
224	0xbc8a5de7	-0.01689048
225	0xbd32c488	-0.043644458
226	0xbd2cc762	-0.042182334
227	0x3d3c130c	0.045916602
228	0xbcc203cd	-0.023683453
229	0x3bca6877	0.006177004
230	0x3b7d960b	0.003869417
231	0xbd09e10a	-0.03366188
232	0x3e14e2cb	0.1453964
233	0x3d5607d3	0.052253556
234	0x3e217bb2	0.15769842
235	0x3de59771	0.11210526
236	0xbda0e48d	-0.078560926
237	0x3d6d7dbf	0.05798125
238	0xbc86f831	-0.016475769
239	0x3ded7e79	0.11596388
240	0x3d807a70	0.06273353
241	0xbd3dca53	-0.04633553
242	0x3e32afff	0.1744995
243	0x3dc25736	0.094892904
244	0xbd883b18	-0.06651896
245	0x3dc94aff	0.098287575
246	0x3d5bd313	0.053668093
247	0x3d545283	0.0518365
248	0x3d240641	0.040045027
249	0xbd3ce453	-0.046116184
250	0x3dba6f01	0.091032036
251	0x3e9b9a7d	0.30391303
252	0x3d55a532	0.052159496
253	0x3d7ebd12	0.06219203
254	0x3ddb1891	0.10698045
255	0xbd8f816b	-0.070071064

fc2.bias f4 [10]
0	0x3d860be7	0.06545239
1	0x39d8b8d3	0.00041336435
2	0x3c1343b5	0.008988311
3	0xbdbd8fee	-0.09255968
4	0x3d17485e	0.03693425
5	0x3cb5aa2f	0.022175876
6	0x3cedee1d	0.029044205
7	0xbde91c26	-0.11382322
8	0xbdfa10bb	-0.12210222
9	0xbcd4454f	-0.025911955
