savedModels/model.pth (torch, 309492 bytes, 6 tensors)

fc1.weight f4 [256, 40]
000000 e7 4b 12 be 80 ee 36 bd 07 09 f6 3b eb 8c 23 3c
       -0.14286767 -0.044661045 0.0075084004 0.009982328
000010 e1 8e 71 bd 0e 8f 0a 3e ff 97 ce 3c 18 07 24 bd
       -0.05897415 0.13531134 0.025218962 -0.040045828
000020 72 3b 12 be 40 93 1b 3e a8 2f bc 3d 95 60 bb 3c
       -0.14280489 0.1519289 0.09188777 0.022873202
000030 1f 44 f6 bc b7 fc 86 bd 7d f2 7c bd 9d dc 1c 3e
       -0.03006178 -0.0659117 -0.061754692 0.15318532
000040 59 bb c8 bd e3 9b df bc e8 35 09 3e d4 6d 36 bc
       -0.09801359 -0.027296012 0.1339947 -0.0111345835
000050 ac ad 38 bd 13 cb 09 3d 0b 5f 03 be b4 f8 a3 3c
       -0.0450875 0.033640932 -0.12829225 0.020016052
000060 2c d9 1f be 42 ff 86 3c 8e 5b d5 bd 22 48 e1 3d
       -0.15610188 0.016479138 -0.10417853 0.11000086
000070 07 06 df 3b 52 e8 09 3e e3 e5 8b b9 d8 cb 08 3e
       0.0068061384 0.1346753 -0.00026683425 0.1335901
000080 0b 6e d9 3d 02 19 ed 3d 72 d7 96 3d 0b e9 26 bd
       0.10616692 0.115770355 0.07365312 -0.04074959
000090 2d b0 c7 3d 06 f7 8f bd e1 98 c9 3c 9a 42 10 3d
       0.097504 -0.07029538 0.024609031 0.035219766
0000a0 d1 ac 6d bc bc 1a 54 bd d5 50 87 3d 43 4e 13 bc
       -0.014506535 -0.05178331 0.06607214 -0.008990827
0000b0 40 8b 4f 3e 9d ef 2b 3e 20 c6 c3 3d df 07 db bc
       0.20267963 0.16790624 0.09559274 -0.026737152
0000c0 fe 81 0b be 5a 39 da 3d 4d 40 e0 3b 25 6c d5 bd
       -0.13623807 0.1065547 0.0068436028 -0.104210176
0000d0 7f 65 61 bd 89 d4 99 3d e7 0c 5c 3d c4 2f f2 3d
       -0.055028435 0.07511241 0.053723242 0.11825517
0000e0 a8 16 5f bb 24 b7 60 bd 15 26 5d bd 53 06 30 be
       -0.0034040604 -0.054862157 -0.053991396 -0.17189912
0000f0 a9 96 a7 b9 be 08 88 bc 8a 1c e4 bd 97 ca f2 bd
       -0.00031964973 -0.016605731 -0.11138256 -0.11855047
000100 04 89 61 3c aa a6 c9 3d df 4f bb bd bc ed 02 3e
       0.013765577 0.09846242 -0.091460936 0.12786001
000110 1a a5 25 be 86 6d 79 3d d3 f3 88 bd be d6 71 bd
       -0.16176262 0.060895465 -0.06687131 -0.059042685
000120 cf 4f bc 3d e1 c8 cd bc ba e7 d0 3d 5e 66 2c be
       0.0919491 -0.0251202 0.10200448 -0.16835925
000130 6c 57 70 3d f9 0f 65 3b 28 98 0b be 4e 44 e9 bd
       0.058677122 0.0034952147 -0.13632262 -0.11389981
000140 6f 8f 78 3d 66 6e d6 3d 8b 62 f4 bd 99 3e da bd
       0.060683664 0.104702756 -0.11932858 -0.10656471
000150 78 1d 0d 3e 7e eb 16 be f7 da 8e bc 7a 9b 2e 3d
       0.13780773 -0.1473827 -0.017438395 0.042628743
000160 15 9e 11 bd 67 5e e6 3d 03 5c 9c bd ed 0a 22 3e
       -0.03555115 0.112484746 -0.07634737 0.1582448
000170 99 02 1d 3d 43 bf 01 3e 00 a4 4a 3d f1 fd 9f bd
       0.038332555 0.12670617 0.04947281 -0.07812107
000180 7c e7 97 bd 73 64 19 be 10 f1 55 bd 6d 20 83 bd
       -0.07417199 -0.14979725 -0.05223185 -0.06402669
000190 5b 08 fd 3d c3 97 14 be 71 a3 04 be 59 44 73 bd
       0.12355109 -0.14511018 -0.12952973 -0.059391353
0001a0 94 66 08 be 4e 78 cc ba 6f 43 11 bd b7 17 ca 3b
       -0.1332038 -0.0015599818 -0.0354647 0.006167378
0001b0 6a d9 84 3c a9 47 cb bc de c3 0c 3e 95 d7 00 be
       0.016216952 -0.024814444 0.13746592 -0.12582238
0001c0 33 2b 45 bd 99 b6 b4 3d 9a 46 6c 3d a4 76 db bd
       -0.0481369 0.0882389 0.05768452 -0.10715988
0001d0 5d ca db bc e3 f4 19 bc c4 64 fb bc 6d 57 9e 3c
       -0.026829893 -0.009396764 -0.030687697 0.019328797
0001e0 2e d9 16 3e 95 47 10 be f7 8a 35 bd 52 12 be bd
       0.14731285 -0.14089806 -0.04432198 -0.09280838
0001f0 0e b3 1c bd e1 7b 19 3e 8f e7 b6 3d 08 8e 85 bd
       -0.038256697 0.14988662 0.08930885 -0.06521231
000200 30 b2 06 3e da 32 fe 3c 68 12 14 3e 3c 34 17 be
       0.1315391 0.031030107 0.14460146 -0.1476602
000210 ff c3 cd bc 41 bd 46 bd d5 9f 31 bd 7b b4 3d 3d
       -0.025117872 -0.04852033 -0.04336532 0.046314698
000220 ac 56 95 bb b7 48 07 be e5 15 12 3e 3b 7d 05 bd
       -0.0045574512 -0.13211332 0.14266165 -0.032590132
000230 b5 64 8c bb d7 b9 b4 bd 7e a5 10 3e 39 1a 80 3d
       -0.004284466 -0.08824509 0.1412563 0.062550016
000240 62 47 40 3d 7e eb 4b 3d 35 dc 4d 3d 3f 60 10 be
       0.046943076 0.04978513 0.050258834 -0.14099215
000250 8a dc 0b be 72 cf 34 3d e7 e6 4a 3d 8a ea df 3d
       -0.13658348 0.044143148 0.049536612 0.10933407
000260 b1 90 e4 3d a1 b6 5c 3d 37 a7 19 be f4 4f 76 bd
       0.1116041 0.053885106 -0.15005194 -0.060134843
000270 5b 28 0d bd 43 c3 1d be 6a 62 17 3e 5b 32 12 3e
       -0.034462314 -0.15406518 0.14783636 0.14277022
000280 13 21 a6 bd dd a3 dc 3d b2 5a 2f 3e fa 03 27 bd
       -0.08111777 0.10773442 0.17124441 -0.040775277
000290 68 88 5d 3d ef 4f c5 3d ad e9 ca bd c4 95 16 3e
       0.054085165 0.09634387 -0.09907851 0.14705569
0002a0 7f 91 5c bc fa 26 db 3d c3 14 2a bd a5 d9 6e bd
       -0.013462423 0.107007936 -0.041523706 -0.05831303
0002b0 47 60 ad bb 70 3d df bc 01 33 de 3d d3 57 02 be
       -0.005291018 -0.027250975 0.10849572 -0.12728815
0002c0 89 04 6e bd 22 10 4b 3b 00 2c 71 3d 74 08 e6 3d
       -0.058109794 0.0030984958 0.058879852 0.11232081
0002d0 c0 ff d8 bd 35 22 64 bd 77 f1 f8 3a 1c df ca bd
       -0.105956554 -0.055696685 0.001899286 -0.09905836
0002e0 ab 36 a7 bd e0 b0 e5 bb 31 25 80 bd 08 e8 0b be
       -0.08164724 -0.0070096105 -0.06257094 -0.13662732
0002f0 60 19 18 be 28 5d 1e 3c 9a 53 9e bd bc 73 04 3e
       -0.1485343 0.009665765 -0.077307895 0.12934774
000300 22 5c 1b be 90 8c 78 3c b3 00 92 3d 0f 7c 96 bd
       -0.15171865 0.015170231 0.071290396 -0.07347881
000310 2d 89 be 3d 30 60 cf 3d 41 59 02 be bd a0 10 bb
       0.09303508 0.10125768 -0.1272936 -0.0022068464
000320 10 8a 05 3e cf 86 ec bd aa a8 ef 3d db 17 de bc
       0.13040948 -0.1154915 0.11702092 -0.027110985
000330 5d c7 b6 3d 85 82 c7 3d a3 1f 67 bd 6f db ce 3d
       0.08924744 0.097416915 -0.056426656 0.101004474
000340 90 2e eb 3d c0 16 a1 bd e9 96 db 3d 08 b5 89 bc
       0.114834905 -0.07865667 0.10722143 -0.016809955
000350 de fe f9 bd 1c d5 d0 3c e5 86 72 bd 23 52 af 3d
       -0.12206815 0.025492243 -0.059210677 0.08560588
000360 6b 34 dd bd ef 74 f9 bc 33 af 8c bd bd 27 12 be
       -0.108010136 -0.030451266 -0.06869354 -0.14272971
000370 b5 46 fd bd ee 2f 3b bd a0 91 21 be 11 79 f8 bd
       -0.12367002 -0.045700006 -0.15778208 -0.121324666
000380 51 76 85 bc bb f8 c1 bd 34 e8 d2 3d 47 f8 15 be
       -0.01629177 -0.0947127 0.102981955 -0.14645492
000390 7b 8b 15 3b 37 87 8d bd e1 e4 99 bd ff 09 8a 3d
       0.0022818733 -0.06910556 -0.07514358 0.06740188
0003a0 62 9a 08 be 50 63 de bc c5 ed df 3a 9e 32 a1 bd
       -0.13340142 -0.027146965 0.0017084411 -0.078709826
0003b0 54 5f ef bc c5 8d 21 be 1c c2 b2 3b 6d 3f a6 bd
       -0.02922026 -0.15776737 0.0054552685 -0.08117566
0003c0 59 a0 71 bd cf 94 cf bd f3 4f 27 3e 93 39 eb bd
       -0.05899081 -0.10135805 0.16339092 -0.11485591
0003d0 db 41 f7 3d 74 de b4 3d a4 d4 cb 3d 46 3c 88 bd
       0.12073108 0.08831492 0.09952667 -0.06652121
0003e0 5b bd 40 bd 30 9a 54 bd f2 ae 87 bd e6 bc 01 be
       -0.047055583 -0.051904857 -0.06625165 -0.12669715
0003f0 b3 38 89 3c 60 e7 2c 3d 4f 76 ae bc cd 50 89 3c
       0.01675067 0.042212844 -0.021296648 0.016762162

fc1.bias f4 [256]
000000 49 6f e4 3d 5a 80 67 3d 31 03 c1 3d 29 29 e3 bd
       0.111540385 0.05651889 0.09424437 -0.11091835
000010 f7 96 6f bd d9 7b f9 3d 9b 81 3a bc 3d 54 0c 3e
       -0.05849358 0.12181825 -0.011383439 0.1370401
000020 8a 11 1b 3e c0 29 87 bd f1 95 a6 bd 1c c7 f7 3d
       0.1514341 -0.0659976 -0.08134068 0.12098524
000030 44 40 cd bd 88 10 b4 3d c4 61 ef 3d 07 97 18 be
       -0.10022023 0.087922156 0.11688569 -0.14901362
000040 ea 00 ff bc 9a 3c b5 3d d2 3c 35 bd 18 75 b6 3c
       -0.031128366 0.088494495 -0.044247456 0.022272632
000050 3d 05 e8 3d d5 03 9a bd 75 c1 04 be dd 01 63 bd
       0.11329124 -0.07520262 -0.12964423 -0.0554217
000060 6e be ac 3d e5 62 d7 3d fb 2c 74 3d 61 52 0c be
       0.08434759 0.105169095 0.05961321 -0.137033
000070 79 6a 02 3d 2a 94 1b 3e a4 2a 21 be 69 80 b0 3d
       0.03183982 0.15193239 -0.15738922 0.08618242
000080 ef d1 9a 3b 77 c7 e2 3d b5 2a 3b bd 67 81 07 be
       0.004724733 0.11073201 -0.045695025 -0.13232957
000090 94 2d fb 3c 9c c9 8d 3c e1 4b 8a 3c 99 2a 98 3d
       0.030661382 0.017308049 0.016881885 0.0743
0000a0 ce a7 1f ba b8 3b 18 bd 3c f1 12 be 49 55 a3 bd
       -0.00060903735 -0.037166327 -0.14349836 -0.07975251
0000b0 ea 62 cd 3c 4b b6 5b 3b f0 85 98 bd 9a 20 c6 3d
       0.02507158 0.0033525403 -0.074474216 0.09674187
0000c0 91 03 d1 3d 47 6a 8b 3d 3f 06 21 bd 9a 16 d7 bd
       0.10205758 0.0680738 -0.039312597 -0.10502358
0000d0 54 da 1b 3e 42 e3 02 bd 70 ab 2c 3d 4a a3 a8 3c
       0.15220004 -0.03195501 0.042155683 0.020585675
0000e0 b1 73 35 bd 91 f6 9f bc bf 87 ea bd 93 be b0 bd
       -0.044299785 -0.019526752 -0.11451673 -0.08630099
0000f0 f5 0a ca bd 25 f2 87 bc c5 27 08 3d 2a 36 26 bd
       -0.09865371 -0.016594956 0.033241052 -0.040579
000100 c1 ab 8d bd f9 f9 15 3e 3c c2 7d 3d 55 89 89 3d
       -0.06917525 0.14646138 0.061952814 0.06715647
000110 c1 cd 20 be d3 28 8a 3b d8 49 0c 3e 4f 14 c0 bd
       -0.15703489 0.0042162924 0.13700044 -0.093788736
000120 85 4e 7e 3d 35 07 3f 3d 7c 46 d5 bd 72 43 73 3d
       0.0620866 0.046637733 -0.104138345 0.059390493
000130 7c 65 8d bc a4 59 8f 3d d7 f8 01 3d 9a fb 09 3e
       -0.017260306 0.069995195 0.031731453 0.13474885
000140 0a 36 da bd a6 81 12 3e a2 24 e7 3d 90 4c 10 3e
       -0.106548384 0.1430727 0.11286284 0.14091706
000150 0b 55 0a be d7 44 c9 bd f6 e4 cb bd 53 82 cb 3d
       -0.13509004 -0.09827583 -0.0995578 0.09936967
000160 36 c6 12 3e 5c fb 17 be f4 c1 1c bd fe 64 92 bd
       0.14333424 -0.1484198 -0.038270906 -0.07148169
000170 b0 0f aa 3d 70 06 c2 bd 55 6e f9 bd 5a 03 ae bd
       0.083037734 -0.09473884 -0.12179247 -0.08496733
000180 8c 98 bc 3b c9 61 76 3c 3a fd df bc 0f e7 b5 3d
       0.0057554897 0.015037962 -0.027342428 0.088819616
000190 8e 16 3e 3d 58 9f a3 3d 56 84 0f 3e 51 d5 01 3e
       0.04640823 0.07989377 0.14015326 0.1267903
0001a0 e4 a2 03 3d 3f 96 f1 bc 7b 7c b6 3d a2 34 92 3c
       0.032137766 -0.029490588 0.089104615 0.017847363
0001b0 3d b7 eb 3d 54 04 d3 bd 24 c4 2a 3c 98 e7 cd bb
       0.11509559 -0.1030356 0.01042274 -0.0062837116
0001c0 48 1c a7 3d d9 7d f5 bd 7e 88 78 3d 17 4d 85 bd
       0.08159691 -0.11986894 0.060677044 -0.06508844
0001d0 bc 7c bf bd fe 1d bc bd 7b 7d 28 3e 36 c3 fb bd
       -0.09349963 -0.09185408 0.16454117 -0.12293093
0001e0 cd bf d7 bd 28 cb de bb 7e c2 90 bd e6 58 e1 bd
       -0.1053463 -0.0067991205 -0.070683464 -0.11003284
0001f0 27 a0 0c be 2e dd 40 bd 40 15 f2 3d 0f 77 31 3d
       -0.13732968 -0.047085933 0.11820459 0.043326434
000200 b0 0f 05 be 9a 2b 48 bd bc 87 0b 3e bd 9a 7c bd
       -0.12994266 -0.048869707 0.13625997 -0.061671007
000210 14 c1 af bd d3 96 1f 3e 89 ec 94 3d e9 72 0a be
       -0.085817486 0.15584879 0.07271678 -0.13520397
000220 7b c0 8b bd 67 ea 81 bb 9d 80 d0 3d a7 7a 17 3e
       -0.06823822 -0.0039647105 0.10180781 0.14792882
000230 26 27 b5 3c cc 67 96 3d 9e 41 0d be 74 b1 68 3d
       0.022113394 0.073440164 -0.13794562 0.056809857
000240 9b 61 9b bc 4a 0b 90 3d 0c cb ce 3d 09 e1 10 be
       -0.01896744 0.07033403 0.10097322 -0.14148344
000250 55 99 94 3d 52 a9 de ba 41 f8 ee bd f4 da 18 be
       0.07255808 -0.0016987717 -0.116684444 -0.14927274
000260 63 6a 99 3d d2 ff 92 3c 2d 06 13 bd de 28 14 3e
       0.07490995 0.01794425 -0.03589456 0.14468715
000270 a1 d6 56 bd e2 f1 25 be 4b 7d c3 bd 94 d4 6a bd
       -0.05245078 -0.16205552 -0.09545382 -0.057331637
000280 dd e8 b0 bc 0a 58 0c be 95 57 e9 bb d2 84 ec 3d
       -0.021595413 -0.13705459 -0.0071210363 0.11548771
000290 36 12 01 3e ec 37 d6 bd 9f ed 64 bc 95 8f 01 3d
       0.12604603 -0.10459885 -0.013972669 0.03163107
0002a0 6f 67 7b 39 79 26 25 3e 25 30 27 bd 70 24 93 3d
       0.00023975757 0.16127957 -0.0408174 0.07184684
0002b0 6d 60 0a bd 88 51 9a bd ec 65 92 bd ff 7d 0a bd
       -0.033783365 -0.07535082 -0.07148346 -0.033811565
0002c0 8f a8 39 bd d2 1b 7e bd d2 d1 a2 bd fc dc 68 bd
       -0.045326766 -0.06203825 -0.07950176 -0.056851372
0002d0 d2 55 11 bc 3c db bc bd 23 47 5f 3d e0 75 f1 bd
       -0.008870559 -0.09221503 0.0545112 -0.11790061
0002e0 9c ef ee 3d 5b f2 1f 3c 46 ed 18 be b2 4f a7 bd
       0.116667956 0.009762372 -0.14934263 -0.081694975
0002f0 95 6c 2c 3d 3f 12 75 bd 22 22 96 3d a4 a2 21 bc
       0.04209574 -0.059831854 0.07330729 -0.009865437
000300 c5 73 cb bd 46 fb 2b bd 59 72 a9 bc 20 7f 47 3d
       -0.09934191 -0.04198768 -0.020684408 0.04870522
000310 6c dd 1b be c3 48 21 3e 83 7a f6 bd a8 96 10 bd
       -0.15221184 0.15750413 -0.12035086 -0.035299927
000320 a3 96 b0 bd 6b ec e4 bc fe 4e 03 be 7f 46 ec bd
       -0.08622482 -0.027944764 -0.12823102 -0.115368836
000330 d9 3e 74 3d 00 c4 7f 3d 34 78 e1 3d 80 0a a8 bd
       0.05963025 0.06244278 0.11009255 -0.08205128
000340 f6 9c 83 bd 9d 31 4b 3d 8c 0f cf bc 07 9e cb 3d
       -0.06426422 0.04960786 -0.025275968 0.09942251
000350 c2 b0 b9 3c 26 4c ae bc 8f 98 e9 bd 72 af 58 bd
       0.022667293 -0.021276545 -0.11406051 -0.052901693
000360 2c e3 3d 3c 9b 7f ec 3d ee 67 19 be d2 2f 39 3d
       0.0115898065 0.11547776 -0.14981052 0.04521162
000370 72 4a 33 bd 4d 46 08 3e 6e 5b 55 3d 90 e6 76 3d
       -0.04377217 0.13308068 0.052089147 0.060278475
000380 0d cd 85 bd 66 e1 a7 3d 62 9f 03 3e 84 51 85 bb
       -0.06533251 0.08197288 0.12853768 -0.0040685553
000390 20 c9 e2 3c ab fd 10 bd 97 33 ab bd a5 d6 16 bd
       0.027683794 -0.035398167 -0.08359449 -0.036825795
0003a0 0f 41 dd bd 64 4c 94 ba 8e f8 99 bd 2b 59 18 bd
       -0.108034246 -0.001131427 -0.07518111 -0.037194412
0003b0 aa 0c 09 3e 77 d7 1a bd e4 31 c2 3c ef 96 0e bd
       0.13383737 -0.03780314 0.02370543 -0.03481191
0003c0 6a b8 10 be 52 82 3d bd 69 5f f1 3d ca ca da bd
       -0.14132848 -0.04626686 0.11785776 -0.1068321
0003d0 59 fa 1d bd ee 8e b8 bd 51 64 c0 bb 02 97 b5 3d
       -0.03856883 -0.09011637 -0.0058713336 0.08866693
0003e0 f9 45 64 3c 2f b2 11 be 90 d8 1f bd 19 2b 81 3d
       0.013932698 -0.14228128 -0.03902489 0.06307048
0003f0 83 80 0d be 81 96 d1 bc ba 9b 75 3d c2 00 cf bd
       -0.13818555 -0.025584461 0.059962966 -0.101075664

fc2.weight f4 [256, 256]
000000 64 7c ad bc ae ba 0b bd 89 ee 0c bc 98 86 2d 3d
       -0.021177478 -0.03411358 -0.008601793 0.042364687
000010 be 60 03 bd 54 43 51 bd 87 ce 5a bd 66 ee 0d 3d
       -0.032074682 -0.0510896 -0.053419616 0.034651183
000020 42 7b a7 3c c6 f3 91 bc 4b c3 af 3c 00 e7 24 3c
       0.020444516 -0.017816436 0.021455428 0.01006484
000030 14 9a 43 bd b8 a6 1a bc ad 52 f4 bc d8 31 75 bd
       -0.047754362 -0.009439163 -0.02982458 -0.059861988
000040 24 31 eb 3c a4 ce 50 bd 41 8f 12 bb c0 82 37 bb
       0.028709956 -0.050978318 -0.0022363218 -0.0028001517
000050 9d 0d 2c bc 04 59 47 3d 90 ca e9 3b a0 8a f4 3c
       -0.0105012925 0.048668876 0.007134743 0.029851258
000060 da 1e 49 3d 00 a6 03 3d 06 b6 64 3d a8 a3 19 3d
       0.049101688 0.03214073 0.055837654 0.03750959
000070 a8 47 09 3d 3a bb 78 3d 1c 30 26 3d 22 ee 4c 3d
       0.033515602 0.06072543 0.040573224 0.05003179
000080 e8 98 f5 bc 90 3e 2c 3d 72 6a 3a bc 69 9a 76 3d
       -0.029980138 0.04205185 -0.011377918 0.06020585
000090 55 09 1c 3d 32 14 5b bd b8 ae a2 b8 ec 07 26 3d
       0.038094837 -0.053486057 -7.757306e-05 0.0405349
0000a0 b0 f6 78 3c 38 35 64 bd a8 59 b5 bc 2c 97 2d bd
       0.015195534 -0.055714816 -0.022137478 -0.042380497
0000b0 26 f6 40 bd 36 5e 06 3d 18 2e 3b bd 8d 21 15 3c
       -0.047109745 0.03280469 -0.045698255 0.009102237
0000c0 82 c7 4c bd 64 da da bc 50 22 a2 3c 9b bb 40 bd
       -0.049994953 -0.026715465 0.019791752 -0.047053915
0000d0 e8 83 b4 3b 0a bb 20 bd d1 f5 1e 3d 2f d8 5d 3d
       0.0055088885 -0.039240874 0.038808648 0.054161247
0000e0 e4 98 85 bd 95 ca 34 bd 88 9b 7e bc 68 67 16 3c
       -0.06523302 -0.04413851 -0.015540011 0.009179927
0000f0 33 99 67 bd f9 66 5c bd 42 9b 0c bd d4 e2 6e 3d
       -0.056542587 -0.05380914 -0.034327753 0.05832179
000100 d1 84 19 bc 36 f0 59 bd d3 23 d6 3c 42 7c 25 3d
       -0.009370045 -0.0532076 0.02614013 0.040401705
000110 2a d0 34 bd 3d 51 c6 3b b4 58 10 bd 9d e7 d7 3c
       -0.044143833 0.006052165 -0.035240844 0.026355559
000120 24 55 91 bc 32 d2 01 bd 2c c2 55 bd 22 05 8f bd
       -0.017740794 -0.0316946 -0.05218713 -0.06983401
000130 28 2f d9 3c 08 e6 46 3c d6 44 47 bd 98 45 8b 3c
       0.026511744 0.012139805 -0.04864963 0.017000958
000140 d4 bf e9 3c 23 3c 2e 3b 25 9f 27 bd 80 a1 51 bd
       0.028533854 0.0026586137 -0.040923256 -0.05117941
000150 28 3c 0e bd 66 3e f4 3b 74 20 b7 bc 52 ce 04 bd
       -0.03472534 0.0074537275 -0.022354342 -0.032423325
000160 76 b0 76 3d 28 b3 22 3c 25 2a e4 3c f4 5d bb 3b
       0.06022688 0.0099304095 0.027852127 0.005717987
000170 fc a5 d2 3c ec e4 75 3d 38 71 4a 3c a9 4c 9b bc
       0.025713913 0.06003277 0.012356095 -0.018957453
000180 70 41 8b 3c 79 c1 5d bc 76 de 2f bd dc e2 4d 3d
       0.016998976 -0.013534897 -0.042936765 0.050265178
000190 14 2d fc 3b 7e fc 2a 3d 05 64 d6 3c 86 6e 3d bc
       0.0076958034 0.0417447 0.02617074 -0.011561995
0001a0 64 a0 94 3c 8e 71 00 3d 74 f4 85 bd 86 61 1e 3d
       0.018142886 0.031358294 -0.06540766 0.038667224
0001b0 15 84 14 bc 7e 0f 05 bd d1 5e 71 3d dc cb 37 bc
       -0.009064694 -0.032485478 0.058928315 -0.011218037
0001c0 0a aa 23 3d 30 6f 0c bd 27 ee 17 bd 3e b7 19 3d
       0.039957084 -0.034285724 -0.037092354 0.03752827
0001d0 9d ba 49 3d 98 f8 20 3d a8 be 29 bd 10 c0 2e 3d
       0.049250234 0.039299577 -0.04144159 0.042663634
0001e0 2a 28 8b 3c b0 9f 61 bd 5f 64 2d 3c f6 e3 33 bb
       0.016986925 -0.05508393 0.010583012 -0.0027449108
0001f0 70 f6 21 bd 40 e3 21 bb f2 0a 07 bd fd 3b 18 bd
       -0.03954166 -0.0024702102 -0.032969423 -0.037166584
000200 7f 74 57 ba c0 1a 8b 3b ff 7b 50 3d 98 ec 7c bc
       -0.00082189584 0.004245132 0.050899502 -0.015437268
000210 cd f5 c5 bc 68 ee 33 3c 12 19 22 3c c4 c2 4a 3d
       -0.024165059 0.010982133 0.009893673 0.04950215
000220 9a a7 03 bd 1f 2e 1c 3d 37 ff b6 bc a1 3a bc bc
       -0.03214226 0.038129922 -0.022338493 -0.022977175
000230 f5 4d 25 3d cd ba 4c 3d a7 d9 db 3c ed fe c7 3c
       0.04035755 0.049982835 0.026837183 0.02441355
000240 7c 82 58 3d 44 c7 27 3c c0 fd 00 3b 45 78 eb bb
       0.052858815 0.01024038 0.0019682497 -0.007185968
000250 a0 70 b6 bb 70 89 89 3b 75 6d 5b 3c c3 d1 f2 bc
       -0.005567625 0.004197292 0.013392796 -0.029641038
000260 c1 c4 68 bd c4 53 db bc fc 70 f1 bc 8c 98 89 3c
       -0.056828264 -0.026773341 -0.02947282 0.016796373
000270 50 3b d1 3b 6b 00 bb bc b3 2d 87 bb 56 6b 05 bd
       0.0063852444 -0.022827348 -0.004125321 -0.032573067
000280 83 83 9b bc 48 fb b2 bc 30 17 4f bc e8 22 a2 3c
       -0.018983608 -0.021848336 -0.012639806 0.019792035
000290 38 c2 cb bc 40 6e 6a bb b0 89 04 3d f6 07 95 bd
       -0.024872884 -0.003577128 0.03235787 -0.07276909
0002a0 60 60 81 3d b6 42 f6 3b c4 19 51 bd 58 a1 a4 bc
       0.0631721 0.007515277 -0.051049963 -0.020096466
0002b0 08 8e 6e bd c6 d9 43 3d 00 7c c6 b9 60 ab c6 bb
       -0.05824092 0.047815107 -0.0003785789 -0.00606291
0002c0 38 7c 57 3d 34 65 55 3c 8b c3 6c bc 58 ab dc bb
       0.0526087 0.013024617 -0.014450918 -0.006734293
0002d0 9b a7 e4 bc a8 17 82 bd e7 42 7c 3c 83 4a 27 bc
       -0.027911952 -0.06352168 0.01539681 -0.010210636
0002e0 7e 12 6f bd 00 fe a1 b9 62 8b 7a bd 68 91 0a 3d
       -0.058367245 -0.00030897558 -0.061168082 0.033830076
0002f0 32 62 7b bc 27 8f b3 bc 6a 4c 3f 3d 48 96 35 3c
       -0.015343236 -0.021918846 0.046703734 0.011083193
000300 92 18 06 bd 5a 87 b6 3c e0 71 a4 3c c4 ed 53 bd
       -0.032738276 0.022281338 0.020073831 -0.051740423
000310 e6 57 27 bd 7a 32 76 3d 5c fc 2f 3d ac 42 04 3d
       -0.04085531 0.060106732 0.042965278 0.032290146
000320 50 7b 35 bd bc f4 b8 bc fe be eb 3c 28 85 4b 3d
       -0.044307053 -0.022577636 0.028777596 0.049687535
000330 e7 df 1a bd 6b d3 1c bd 30 56 fa bc f8 39 57 3d
       -0.037811186 -0.03828756 -0.030558676 0.052545518
000340 80 43 29 3b 4c 60 52 bd 1c ee 3d 3d 8e 9d 24 bd
       0.0025827587 -0.051361367 0.046369657 -0.04018932
000350 d2 a0 1e bd 99 60 79 3c b2 bf 29 bd 0d 3a 91 3c
       -0.03872759 0.015220785 -0.04144258 0.017727876
000360 ea da de 3c 8f f8 df bc 32 3d 77 3d 9e a1 43 3d
       0.027203996 -0.027340202 0.060361095 0.047761552
000370 3c d8 4f 3d 96 65 a2 3c 23 50 04 3d 12 37 77 bd
       0.050743327 0.01982383 0.032302987 -0.060355254
000380 2a 4e 3c 3d 5b 78 20 3d 25 6f da bc d8 69 0e 3c
       0.04597298 0.03917728 -0.026664326 0.008692227
000390 16 17 1d bd 7b bf 20 3d 26 a3 28 bd bb fd 48 3b
       -0.038352095 0.03924511 -0.041171215 0.0030668813
0003a0 70 8f 55 bd 23 6b 30 bd 56 07 53 bd 9e 62 1a bd
       -0.052138746 -0.043070924 -0.051520668 -0.037691705
0003b0 cc cd 00 3d cd 48 6a 3d fc b0 a7 3c 6e ed 3f 3d
       0.031446263 0.057198334 0.020470135 0.04685729
0003c0 25 dd 01 3d a1 4f a7 3c 00 c0 19 bc e7 c7 c9 3c
       0.03170504 0.020423712 -0.009384155 0.024631454
0003d0 12 f3 77 bd 91 3c 79 bd ec 4a 33 3d 89 eb 40 bc
       -0.060534544 -0.060848776 0.043772623 -0.011774906
0003e0 71 ec d8 bc 0c 65 6a bd 87 ae 35 3d a0 ab 1c 3b
       -0.026479932 -0.057225272 0.044355895 0.0023906007
0003f0 bb 89 90 bd a0 61 82 bd 69 78 3d bd a8 ac b4 3c
       -0.0705752 -0.06366277 -0.04625741 0.022054985

fc2.bias f4 [256]
000000 99 c7 1d 3d 5e 93 ef 3c 94 7e d8 bc e1 b5 18 ba
       0.03852043 0.029245075 -0.026427545 -0.0005825442
000010 99 73 eb 3c c6 33 7e bd 32 76 2f bd 9c d2 3e bd
       0.028741645 -0.062061094 -0.04283733 -0.04658757
000020 bf 72 19 3d d8 bf 14 bd b6 72 6c 3d c8 7a b5 bc
       0.037462946 -0.03631577 0.057726584 -0.022153273
000030 9f 64 2d 3d 35 8c ca bc d8 08 d1 3c 50 82 45 3d
       0.042332288 -0.024725059 0.025516912 0.04821998
000040 bd 42 7d bc b4 1b 43 bd 1e 36 93 3c 42 df 4f 3d
       -0.015457806 -0.04763384 0.017970141 0.050750025
000050 16 85 c3 bc 5f 86 b4 bb 34 7f 63 bd ac 3b 5b 3d
       -0.023867171 -0.0055091823 -0.055541232 0.053523704
000060 2d f7 ce bb 4c 85 13 3d 14 68 39 3c 68 0f 1f 3d
       -0.0063160867 0.036015794 0.011316318 0.038833052
000070 32 13 98 3c 85 49 56 bd 9c 0d 85 bc c8 63 20 bc
       0.01856384 -0.052316207 -0.016241841 -0.009789415
000080 01 1d 57 3d 2a f0 25 3d 3e 9f f9 3c ee 88 d8 bb
       0.052517895 0.04051224 0.03047144 -0.00660812
000090 ab 47 13 bd 47 e4 55 bd 71 44 14 3d d3 84 14 bd
       -0.03595702 -0.052219655 0.036198083 -0.036259484
0000a0 71 63 43 bd dc b2 5c 3d 09 d1 2a 3c f4 9b 29 3d
       -0.047702257 0.05388151 0.010425814 0.041408494
0000b0 87 73 78 bd c0 f8 05 3d 94 ef 43 3d 75 92 88 bc
       -0.06065705 0.03270793 0.0478359 -0.016671399
0000c0 60 be de 3c d1 e6 83 bd 59 8b 35 3d 32 3a e0 bc
       0.027190387 -0.06440509 0.044322345 -0.0273715
0000d0 d5 7b 3b bd 2a 52 00 3c 60 56 02 bd fe ce 81 3c
       -0.045772392 0.007832089 -0.031820655 0.015845772
0000e0 df c1 79 bd d8 1f 59 3d 00 45 0e 3a a0 0e ff 3c
       -0.060975906 0.053008884 0.0005427152 0.031134903
0000f0 f6 8a f3 3c c6 c8 a7 bc 6a 1b 70 bd bb 24 36 3d
       0.029729348 -0.020481478 -0.058619894 0.044468623
000100 58 5a 06 3c 08 0e 0e bd 00 84 6e 3c f8 e3 6d bc
       0.008200251 -0.03468135 0.014557838 -0.014519684
000110 3c 41 3d bd be 93 65 3c 23 b1 45 bd 79 e0 10 bd
       -0.04620479 0.014012275 -0.048264634 -0.035370324
000120 7d 04 a5 bc 46 6d 77 3d b6 41 56 3c 0a ad ee 3c
       -0.020143742 0.060406946 0.01307719 0.029135246
000130 2d 67 3c bd 04 e5 e2 bc eb 7a 55 bd a8 04 c0 bc
       -0.045996834 -0.027697094 -0.052119177 -0.02343972
000140 dc 6c 85 3c 6f 21 5d 3d 75 03 3e bc 24 f0 7d bc
       0.01628726 0.053986963 -0.011597504 -0.0154991485
000150 fb 1c 8f 3b fc 07 66 bd b4 75 e9 3b 29 da 20 3b
       0.0043674684 -0.05615996 0.007124627 0.0024544096
000160 36 d3 1c 3d 3e 54 74 bd b7 f4 7a bd 0d 18 55 bd
       0.038287364 -0.059650652 -0.061268535 -0.05202489
000170 fc e1 78 bc 24 35 85 bc fe 24 21 3d 80 30 35 3b
       -0.015190598 -0.016260691 0.03934192 0.0027647316
000180 86 d5 3c 3d 98 59 1e bc a5 b4 a1 3c 68 8a 3f 3d
       0.04610207 -0.0096649155 0.019739458 0.046762854
000190 ab 81 95 3a b0 dd 40 3c c7 45 15 bd bb 7a 7c 3d
       0.0011406442 0.011771604 -0.036443498 0.061640482
0001a0 d2 ca 1e 3d 77 a7 65 bd 26 79 d7 bc 61 7a 41 3d
       0.038767643 -0.05606791 -0.026302885 0.04723585
0001b0 57 64 2a bd 38 cd 62 3d 3d dc 06 bb 23 fb 43 3d
       -0.041599598 0.055371493 -0.002057805 0.047846925
0001c0 bb 50 1f bd a2 bd 9b bc 15 46 43 bc b7 ec 81 3c
       -0.03889535 -0.019011322 -0.011918564 0.015859945
0001d0 b4 6c 9a bc 30 0a 06 bc 03 31 35 3d 4c be 46 bc
       -0.018850662 -0.00818114 0.044236194 -0.012130331
0001e0 ba 79 73 bd ab 84 02 bd 3e d8 cc 3c 06 1f f1 bc
       -0.05944226 -0.031864803 0.025005456 -0.029433738
0001f0 10 82 49 bc 18 d1 39 bc d0 2a 2a bd 6b 68 b1 bc
       -0.012299076 -0.011341356 -0.041544735 -0.021656236
000200 77 ec e2 3b c2 34 1e 3d cc 79 d6 3c f4 bd fe 3c
       0.0069251615 0.038624533 0.026181124 0.031096436
000210 17 7a 6f 3c 01 10 d0 3c d7 55 dc 3c e7 e5 19 3d
       0.014616511 0.025398256 0.0268964 0.037572768
000220 40 04 a6 3b 10 97 66 bc 4b 60 48 bd 74 a2 77 bd
       0.0050664246 -0.014074102 -0.048919957 -0.06045766
000230 40 3f 27 bc 74 89 62 bd 00 c8 4e b8 d1 ba ea bc
       -0.010207951 -0.055306867 -4.930049e-05 -0.028653534
000240 14 41 9f bb d5 14 fd bc 55 ac 7f 3c 38 1e e7 bc
       -0.004860053 -0.030893723 0.015605052 -0.028212652
000250 49 76 5e bc c0 6e dd bb 94 18 14 bd 59 d7 01 3c
       -0.013578006 -0.006757587 -0.036156252 0.007924878
000260 ee 7a ee 3a c3 e7 3a 3d 00 8f f3 3a 33 21 22 3d
       0.0018194595 0.04563118 0.0018582046 0.039582442
000270 f6 ac a1 3c ee 71 95 bb 81 df a3 bc 68 5a 83 3c
       0.019735795 -0.0045607006 -0.020004036 0.01603432
000280 13 2a 02 bc 60 79 4f bd d6 5c f6 3c 8e ed 38 bd
       -0.007944602 -0.05065286 0.030073564 -0.045148425
000290 a9 de 8c 3b 08 32 44 bc 43 07 91 3c 1d 86 7b bd
       0.004299004 -0.011974819 0.017703658 -0.061407197
0002a0 fd 7d 12 3d 58 95 f4 ba e1 5f f7 bc 9e da 7a 3c
       0.035764683 -0.001866023 -0.030197086 0.015310911
0002b0 b3 af 3e 3d a7 2e 55 3c 60 15 fb 3c 90 1e b9 bc
       0.04655428 0.013011611 0.03064984 -0.022597581
0002c0 d5 00 d1 bc 7e bd dc 3b 23 fc 88 bd a0 48 e7 bc
       -0.025513092 0.0067364564 -0.06688716 -0.028232872
0002d0 58 3a 37 3d d0 1d a9 3b e9 43 30 bd ce 18 e5 3c
       0.044733375 0.0051610246 -0.043033514 0.02796593
0002e0 60 06 e8 bc 22 5e cd bc 2b 58 b7 b9 3f 26 e0 bc
       -0.028323352 -0.0250693 -0.0003497017 -0.027361987
0002f0 8c 10 a0 3c 8a ef 0a bd 62 50 56 3d 7b ab 3b 3d
       0.01953914 -0.03391985 0.052322753 0.045817833
000300 8a 14 66 3c d9 a8 53 bd b0 ad 25 bc ac 4c 13 bd
       0.014042983 -0.051674698 -0.010112211 -0.035961792
000310 82 9c 5b bd 24 16 c0 3b b9 49 18 3c c4 66 52 bd
       -0.053616054 0.0058620144 0.009294921 -0.051367536
000320 ff c3 18 3d de bd 62 bd 60 7a 20 3d 83 10 38 3d
       0.03729629 -0.055356853 0.039179206 0.04493762
000330 15 86 85 bd 2b f7 7a bc ab fb 60 bd 3c ab 7c bd
       -0.06519715 -0.0153177185 -0.05492751 -0.06168674
000340 30 27 37 bd ee df 5c bd b9 89 0e 3d ef a3 dd bc
       -0.044715106 -0.053924493 0.03479931 -0.027055709
000350 17 88 4a bd 6c ef d6 3c 5c 98 23 bd e0 1a 89 bb
       -0.04944619 0.026237212 -0.039940223 -0.004184112
000360 0b cc b7 3c 6b 4c d8 3b 11 f0 2d bd 40 15 5f 3d
       0.022436162 0.0066009066 -0.042465273 0.054463625
000370 d0 df c1 3b a5 1b 12 3d 08 fd 21 3d 76 4d 24 3d
       0.005916573 0.035670895 0.03954795 0.040112935
000380 83 90 b3 bb 59 f7 49 bd a7 00 89 bd 7c 4c 2d bd
       -0.0054798736 -0.049308155 -0.066895775 -0.04230927
000390 c5 f4 80 3b 9c 3e 66 3d d7 34 75 bd 0a bd 9f bb
       0.003935429 0.056212053 -0.059864845 -0.00487483
0003a0 99 6a b9 bc 51 73 4b 3d e3 f0 c7 bc f0 90 16 3c
       -0.022633838 0.04967052 -0.024406856 0.009189829
0003b0 a9 81 45 3b 64 ce 18 3c 16 dd 85 bd f9 a2 fe 3c
       0.0030137098 0.009326551 -0.065363094 0.03108357
0003c0 bd 74 8a bd 60 93 1a 3d bf 2a e7 3c 0b 10 db 3c
       -0.06760547 0.037738204 0.028218625 0.026741048
0003d0 a0 c7 29 bb ef 19 a7 3c cf c9 37 3d 40 8e 76 3d
       -0.002590634 0.020398108 0.044870194 0.060194254
0003e0 48 3e 7f 3d 56 ee 08 3c 67 e3 47 3d 3e 8c 5e bd
       0.062315255 0.008357605 0.048800852 -0.054332964
0003f0 51 44 5b 3d 10 9c f4 bb 4a 72 7a bb db a9 26 bd
       0.05353195 -0.007464893 -0.0038215094 -0.04068933

fc3.weight f4 [2, 256]
000000 50 51 40 bd 86 2d eb bc a8 f8 3c bd 09 0b 8a bc
       -0.046952546 -0.02870823 -0.046135575 -0.016850965
000010 02 29 53 3d 58 43 25 bc 00 89 f5 bc 39 ba 27 bd
       0.05155278 -0.010086857 -0.029972553 -0.04094908
000020 d4 85 bb 3c a4 bd db bc e2 5a 68 3d 2c fa 0f 3d
       0.022890963 -0.026823826 0.056727298 0.035150692
000030 7e b7 38 3d e0 48 52 bd 84 c2 58 3d 5b 04 07 3d
       0.045096867 -0.05133903 0.05291988 0.032963138
000040 95 e3 ae bc 60 e9 77 3b 39 26 3e bb 14 25 40 3d
       -0.021348754 0.0037828311 -0.0029014482 0.04691036
000050 e3 4d 27 bd 69 e6 77 bc 2a f2 5f bd 88 fd ca bc
       -0.040845763 -0.015130618 -0.054674305 -0.024779096
000060 4f 1f 41 bd cb 71 c1 bc 68 22 11 bd 65 90 8c 3c
       -0.047149 -0.023613831 -0.035433203 0.017158696
000070 50 d4 28 3d 5a ca 33 3d c8 2c 70 bc 02 1c a9 bc
       0.041218102 0.04389415 -0.014659114 -0.020643238
000080 07 0d 03 3d 71 72 06 bd 2f 9e 2d bc a5 2e 3c 3d
       0.031994846 -0.032823984 -0.010596796 0.04594292
000090 68 52 9b 3c c0 ca 0b bd 82 9a fd bc c3 95 47 bd
       0.018960193 -0.034128904 -0.030957464 -0.04872681
0000a0 0c 94 f1 bc dd 66 33 3d f3 27 f2 3b 3b 82 32 3d
       -0.02948954 0.04379927 0.007390016 0.04358123
0000b0 af 80 29 bc d0 91 44 3d 54 22 61 3c 9f 0a 12 bc
       -0.010345622 0.04799062 0.013741095 -0.008913665
0000c0 50 3d a7 bc 66 01 41 bd 1b da 2d 3c f5 ff 98 3a
       -0.020414978 -0.047120474 0.010611082 0.0011672961
0000d0 74 0b 2b bc 9b d5 c0 3c 0c c3 49 bd 9d fe 18 3d
       -0.010439742 0.023539355 -0.049258277 0.037352193
0000e0 1e a5 4d 3d 2c 2a f5 3b 10 c5 dd 3c be 96 7d bc
       0.050206296 0.007481834 0.027071506 -0.015477834
0000f0 ec e6 70 bd 83 03 3c 3d 06 ce 37 3d c0 f5 57 3d
       -0.058813974 0.045901787 0.044874214 0.0527246
000100 30 9d 1d 3c ec 7e 4b 3c 04 76 94 3c d8 a3 f4 3c
       0.009619996 0.012420397 0.01812268 0.029863283
000110 88 54 66 bb aa 95 fe 3c ff ec 36 bc 20 91 61 bd
       -0.00351456 0.031077225 -0.011164903 -0.055070043
000120 7b 8d af b9 10 7a cd bb 59 39 af 3c 43 4a e5 bc
       -0.00033484012 -0.0062706545 0.02138965 -0.027989512
000130 a7 82 cb 3b 3c 1d 57 3d c8 46 c4 bb 85 85 a5 bc
       0.0062106433 0.052518114 -0.005989883 -0.020205269
000140 00 c1 c0 3c 50 63 04 bd 43 b5 15 bd aa 45 19 3d
       0.02352953 -0.032321274 -0.036549818 0.037419952
000150 64 69 0f 3d ba f3 48 3d c5 cb 39 bd ab f3 21 3d
       0.035012618 0.04906056 -0.045360345 0.03953902
000160 82 af 27 bd 9c 7e fb 3a 28 e3 14 3c cc c3 83 bd
       -0.04093886 0.0019187513 0.009087361 -0.0643383
000170 13 4e 35 bc 78 fe 75 bc 03 c0 01 bd 2c a4 31 bd
       -0.011065978 -0.015014283 -0.031677257 -0.043369457
000180 de 16 b9 3c e0 b1 db 3c 30 32 ed bb 1a bb ea bc
       0.022593912 0.026818216 -0.007238649 -0.02865367
000190 6b 40 59 bd 5e 7b 62 3d ca 34 7b 3d 58 66 34 3c
       -0.05303995 0.055293433 0.06132964 0.011010729
0001a0 51 31 e6 3b 46 08 3b bd 65 97 4f bd 75 9e cf 3c
       0.007024922 -0.045662187 -0.05068149 0.025344113
0001b0 c0 4f b3 bc 84 67 bb bc d6 b8 1f bd 66 8e 11 bb
       -0.021888614 -0.022876509 -0.038994633 -0.002221012
0001c0 dc a0 db bc 71 3a 7e bd b2 8e 22 3d 78 1d b6 bc
       -0.026810102 -0.062067453 0.039686866 -0.022230849
0001d0 5a 4d 40 3d a0 df 32 bd 25 1c 57 3c 52 b7 38 bd
       0.04694877 -0.043670297 0.013129269 -0.045096703
0001e0 c0 45 e9 3c e8 2f 8f bb be f5 13 3d e1 57 6e bc
       0.028475642 -0.0043697245 0.03612303 -0.014547319
0001f0 50 35 c1 bb 70 58 e6 3b 6f 8e 1d bd 2c 01 85 3c
       -0.005896248 0.0070295855 -0.038465913 0.01623591
000200 ba a1 0c bd 1c 5a 92 3c 16 92 6f bd 04 be 1d 3d
       -0.034333922 0.017865233 -0.058488928 0.03851129
000210 a8 20 2f 3c d7 31 27 3d 45 b3 a2 3c 32 36 16 bd
       0.010688938 0.040819015 0.019860873 -0.03667278
000220 4c 35 3a bc 4c d0 4f bd b9 ee 31 3d 98 34 73 bc
       -0.011365246 -0.050735757 0.043440554 -0.014844082
000230 3e 83 5c 3d 34 5c ee bc 10 18 b1 bb 60 53 68 bc
       0.0538361 -0.0290967 -0.00540448 -0.014180034
000240 4a 34 ff 3c d5 50 62 bc 42 a6 15 3d 80 d5 7e 3b
       0.031152863 -0.013813217 0.03653551 0.003888458
000250 ce cf 09 bc a0 23 98 bc e4 12 15 bd e9 6d 0b bb
       -0.008411361 -0.018571675 -0.03639497 -0.0021275228
000260 01 2d 0c bd e6 aa 1a 3d e8 e1 9f 3c 3e c8 07 bd
       -0.034222607 0.037760638 0.0195169 -0.03314995
000270 1a 53 34 bc c9 4f ca 3c 14 56 0d bd 1e 08 30 bd
       -0.011006141 0.024696248 -0.03450592 -0.04297649
000280 06 8e 17 3c c4 79 3e 3d cf fa 52 bc db bd 99 bc
       0.00925017 0.046502843 -0.01287718 -0.018767288
000290 4c 82 36 3b d0 ca 11 3d 33 6b 00 bc 09 b9 58 3d
       0.002784866 0.035593808 -0.007838058 0.05291084
0002a0 1a e8 02 bc fb aa 0a bd c4 dc 71 bd 3e ac 8f bc
       -0.007989908 -0.033854466 -0.05904843 -0.017538186
0002b0 0f 26 73 bd 3b 55 0e bd d2 cc 58 3d 7e c2 3d bc
       -0.059362467 -0.03474925 0.052929707 -0.011582015
0002c0 e0 4b 4c 3c 89 9d 40 3d ca f3 fd bc f6 4e 66 3d
       0.012469262 0.047025237 -0.031000037 0.056227647
0002d0 80 e4 e6 ba 30 54 e9 bb a3 d1 6d bc c8 07 43 3d
       -0.0017615706 -0.0071206316 -0.014515313 0.047614843
0002e0 cc b0 2a bd c6 32 82 bb a3 46 20 bd 78 11 52 bd
       -0.041672513 -0.003973338 -0.039129864 -0.05128619
0002f0 c0 ca a0 ba 3e d4 d0 bc 3c 63 19 3d 52 6f 1d 3d
       -0.0012267455 -0.02549183 0.037448153 0.03843624
000300 89 15 71 bd ac 32 d8 bc a0 d6 70 3b 20 be de 3b
       -0.05885843 -0.02639135 0.003674902 0.006797567
000310 1f de 27 bd 56 82 15 bd de 6e 28 3d f0 b5 66 3d
       -0.040983316 -0.03650125 0.041121356 0.056325853
000320 46 22 62 3d 10 0b 5b bc 94 9b 47 3d 98 29 6e bd
       0.055208467 -0.013369337 0.048732355 -0.058145136
000330 49 27 9f 3b df 27 44 3d c3 a2 6a 3a ba 39 47 bd
       0.004856978 0.047889587 0.0008950645 -0.048639037
000340 f6 94 36 bd ae 47 6f 3d e4 c1 f3 bc 00 61 be ba
       -0.044575654 0.05841797 -0.02975554 -0.0014524758
000350 10 38 3b 3d 5c bc 5d 3d 46 b0 3a bd cc 5f 51 bd
       0.045707762 0.05413471 -0.045578264 -0.05111675
000360 3d dd 95 3c 86 2a 31 3c 36 01 0e 3d 60 7f 94 bb
       0.018293971 0.010813361 0.034669124 -0.004531786
000370 d0 b9 04 3d ba c3 96 3c d0 f5 bb bb 14 2c 30 bd
       0.032403767 0.018403877 -0.0057360902 -0.043010786
000380 24 4e 1f 3d e2 f8 0c 3d e0 47 a5 bc 63 1b 54 3d
       0.03889288 0.03441704 -0.020175874 0.05178393
000390 82 c5 33 3d 2e a9 ad 3c 01 5a 18 bd 66 96 57 bc
       0.04388953 0.021198835 -0.03719521 -0.013158416
0003a0 b2 df 60 bd 32 06 22 bd fe bc 6e ba d0 4f 05 bd
       -0.054900832 -0.03955669 -0.00091071415 -0.03254682
0003b0 23 1d 4d 3d 22 92 9e 3c b6 9e 4d 3d 5f 8d ef 3c
       0.050076615 0.01935679 0.050200187 0.029242216
0003c0 b6 d5 9c bb f0 48 7a 3d 58 93 7e 3b bd 41 7d bc
       -0.0047862185 0.061104715 0.0038845148 -0.015457568
0003d0 00 4e 8c 3a 9b 32 8c bc de e6 bc bc 06 b9 88 3c
       0.0010704398 -0.017113974 -0.023059305 0.016689789
0003e0 64 39 bd 3c c6 97 c2 3c fa 98 13 3d 10 02 33 bd
       0.023098655 0.023754012 0.03603456 -0.04370314
0003f0 d9 8e 31 3d b0 64 d7 3c bb 51 10 3d b1 3b 10 bd
       0.04334912 0.026293129 0.035234194 -0.035213176

fc3.bias f4 [2]
000000 49 da 6f 3c 43 7f 3c bd
       0.014639446 -0.046019804
