savedModels/model1.pth (torch, 309502 bytes, 6 tensors)

fc1.weight f4 [256, 40]
00000000: 0af1 4bbd 4590 bebd 8fd4 cabc e53d 523c
00000010: 43d3 b53d 36cc 2abd 3070 363c ac1d 6abc
00000020: 37ad e33d 7d31 6cbd e854 4bbb 80b6 b13d
00000030: c8a8 acbd 5f0f 313e fe2d 683d 3064 ae3d
00000040: aef6 d13c bc8b 05bd 1676 d7bd 7320 3cbd
00000050: 6c9a dfbd e852 a53d 6972 193e 21de b1bd
00000060: dd59 203d d4ec 2cbd c60f 143e 3c2e e7bd
00000070: 9da4 25be 72f6 58bd 85b5 333e 9b2e f43d
00000080: c58b 54bd a67f 8ebd 7a94 173d 5ae5 563d
00000090: d402 753d df2a fcbd 0c43 59bd c691 3cbd
000000a0: 49bd f23d 9fca 51bc 8e5b 22bd 44b5 eebd
000000b0: 0dca 753d af51 bf3d 90f1 d2bd ceb2 7ebd
000000c0: de8b ca3a 5001 a93d 882d 40bc e304 0b3e
000000d0: e05f cebd 01c3 b3bc a341 84bc ee18 2c3d
000000e0: 26e8 0dbe cdd3 fc3c 877a 76bd 95b6 bbbd
000000f0: 7c7f 5c3d cddd 323d a085 dbbc 4e61 85bd
00000100: 3485 4d3d f10e 9fbd 3a84 1b3e eef1 8a3a
00000110: f7fb 013e 80aa 13bc 101f 6d3d e5d2 463d
00000120: 1d78 bf3d 7af4 013e a130 a4bd c26f f83d
00000130: dd39 b8bd 5904 ee3b 6518 c53c 3401 8a3d
00000140: c506 57bd 945f 62bd 3dd3 f1bd 9c94 dbbd
00000150: db98 203e aef8 6e3b 2142 fbbd 82fd 52bb
00000160: 14b1 533c 7b7c acbd 7a25 1abe af3f d13d
00000170: 589f 653d 06f9 443b df6d 27be c554 d4bd
00000180: cc27 e7ba 3253 443d 8036 19bd e569 99bd
00000190: 4a2e 9cbd aeb3 00bc 4ca6 c33d 1c4f 6bbd
000001a0: c536 193e b03b 183e e909 abbc a2e7 1bbe
000001b0: 5a7b 663d 69fb dd3c a24e 8fbc 1ba8 d6bd
000001c0: 47bd 2fbd 6c91 aabb 5b0f 44be 7c80 c2bc
000001d0: 1a90 16be 37dd ca3c a40a 4c3e cb18 783d
000001e0: f867 183e 4c5a 9b3d 58dc e53d af23 0cbe
000001f0: 17d9 b1bd 2043 a53c 3122 9f3d 9fc2 283d
00000200: bef6 113e 116c 003e b7d2 92bc 286c 163e
00000210: 9e93 1fbe 5aff 7e3d ec64 08bd 747f 33bc
00000220: c101 303d ba08 0c3e b706 fc3d cc00 80bd
00000230: 404b e43d ef62 b0bd bbc8 83bd 4a7b 043e
00000240: 1cf5 073e 1393 dc3d 3926 313d 8275 19be
00000250: a2a2 903c b478 adbd 1f23 8cbd 6222 fa3c
00000260: 0526 033d 4138 143e 3ce7 90bd 1af6 9fbd
00000270: 42d0 ab3d 20e7 0abe 854d 7c3d c46b a6bd
00000280: 9f45 19be 9d11 e6bd 9ca8 113d fc99 08be
00000290: 9911 413d a90e ee3d 616d c23b 1489 163e
000002a0: caf1 353d ce01 e2bd 568e 63bd fe99 eebd
000002b0: c716 fd3d b299 03bd 347e a1bd 2f44 173e
000002c0: ac7b ef3d d280 173e 0293 edbd 8057 1dbe
000002d0: 3cf3 353d b39f 6bbd 9056 173e 486d 15be
000002e0: ee32 63bc dd8b 863d bb5f 223d 11f7 9fbd
000002f0: 157c b8bd e815 1e3d 7fa8 bc3d 1af3 0e3e
00000300: a659 003e 7dd5 03be fe37 15be 51b4 a2bd
00000310: d2fb 4abc 38e5 cabd 3783 3c3d ca75 f9bd
00000320: 31bb bebd eb56 21be d29c 253e e8ef 22be
00000330: 2167 b03d 7629 ef3d 4f7b 013e 6b1a 33bb
00000340: 26aa e4bc 0dd5 9739 fa5a a93c 3ab3 3ebd
00000350: 197f 0ebe 0ac7 ed3d e9ee d13d 12f3 09bd
00000360: fa9f 08be ad52 fe3d ff5d bebd c18b 9d3c
00000370: 4a17 7c3d a324 bd3d 4a66 e13d 6dd6 dabc
00000380: a628 fd3d 154a 68bd de3f 1b3e 6e31 263d
00000390: b857 bebc 0bae f83d a32f 1d3e 27c8 2cbe
000003a0: c98d 7cbd 5935 363e 16c4 453c 2dfd 02be
000003b0: 3b80 efbc 9e1d fabc bcf8 37be 6ec9 d33d
000003c0: 7242 ce3d 19e5 0c3c 78e6 c9bd 8238 cd3d
000003d0: 8d2a 443b 5685 5c3d b154 0ebe 4eec 72bd
000003e0: 2129 c43d f554 ac3d fd5e 01bd 08aa 0d3e
000003f0: d6f2 10bd e937 1dbd 1fb4 fe3d bb32 ffbd
-0.04979042 -0.09304861 -0.024759559 0.01283214 0.088781856 -0.041698657 0.011135146 -0.014289301
0.111170225 -0.057664383 -0.003102595 0.08677387 -0.0843063 0.1729102 0.056684487 0.08515203
0.025630321 -0.032603964 -0.1052057 -0.045929383 -0.109181255 0.08072454 0.1498505 -0.08684946
0.0391482 -0.042218044 0.14459142 -0.112881154 -0.16176076 -0.052969404 0.17549713 0.11922952
-0.051891107 -0.06957941 0.037006833 0.05246482 0.05981715 -0.123128645 -0.053042457 -0.046037458
0.118525095 -0.012804656 -0.039638095 -0.116556674 0.060007144 0.09341752 -0.10299981 -0.06218224
0.0015453061 0.082522035 -0.0117296055 0.13576083 -0.100768805 -0.021943571 -0.01614458 0.042015962
-0.13858089 0.030862713 -0.060175445 -0.09165684 0.053832516 0.043668557 -0.026797116 -0.065127
0.05017586 -0.07766522 0.15187159 0.0010600665 0.12693773 -0.009012818 0.05789095 0.04854097
0.09349082 0.12690917 -0.08017088 0.12130691 -0.089954115 0.007263702 0.024059484 0.06738511
-0.05249669 -0.05526693 -0.11807869 -0.10721704 0.1568331 0.0036464143 -0.122684725 -0.003219456
0.012920637 -0.0842218 -0.15053359 0.10217225 0.056060165 0.0030055656 -0.16350506 -0.10367731
-0.0017635762 0.047930904 -0.03740549 -0.07490901 -0.076260164 -0.007855339 0.09553203 -0.05744849
0.14962299 0.14866519 -0.020878749 -0.1522508 0.05626998 0.02709742 -0.01749355 -0.10481282
-0.04290512 -0.005205324 -0.19146483 -0.023742907 -0.14703408 0.024763687 0.19925934 0.06057052
0.14883411 0.07585582 0.11223668 -0.13685487 -0.08683985 0.02017361 0.07770193 0.04120123
0.14254281 0.12541224 -0.017922742 0.14689696 -0.15583655 0.06225524 -0.03329937 -0.01095568
0.042970423 0.13675204 0.12305968 -0.06250152 0.11147165 -0.0861262 -0.06434771 0.12937656
0.13277096 0.1077024 0.043249343 -0.14986232 0.017655674 -0.08470288 -0.06842636 0.030533973
0.03201868 0.14474584 -0.070753545 -0.07810612 0.083893314 -0.1356473 0.061597366 -0.081260234
-0.14967965 -0.11233828 0.03556119 -0.1333999 0.047135923 0.1162389 0.005933449 0.14700729
0.04442004 -0.110355005 -0.055555664 -0.116504654 0.1235786 -0.032128997 -0.078853995 0.14772104
0.116935104 0.14795235 -0.11600305 -0.1536541 0.04442142 -0.057525348 0.14779115 -0.14592469
-0.013867123 0.065696456 0.039642077 -0.07810796 -0.09008042 0.03859511 0.092118256 0.13959923
0.12534198 -0.12874408 -0.1457214 -0.07944549 -0.01238914 -0.09907001 0.046023574 -0.121806696
-0.09313048 -0.15755813 0.16173103 -0.1591183 0.0861342 0.1167783 0.12644695 -0.0027328979
-0.027913164 0.000289597 0.020673264 -0.046557643 -0.13915671 0.11610229 0.102506466 -0.033679076
-0.13342276 0.12418113 -0.09295272 0.019231679 0.061545648 0.092355035 0.11005838 -0.026713574
0.12361269 -0.056711275 0.15161082 0.040574484 -0.023235187 0.12142571 0.15350203 -0.16873227
-0.061658654 0.17793788 0.012070676 -0.12791891 -0.02923595 -0.0305317 -0.17965978 0.10341154
0.10071267 0.008599543 -0.098584116 0.10020544 0.0029932589 0.053838097 -0.13899495 -0.05930739
0.09578157 0.08414642 -0.03158473 0.13834393 -0.035387836 -0.0383834 0.12436699 -0.12460848

fc1.bias f4 [256]
00000000: c197 d13d 1f41 0a3e cab4 87bd a576 1d3e
00000010: 37b3 813c ef8f 33be c413 31bd ea0c 02be
00000020: 9e2e 31be db31 fa3d 3cce 303d 5282 383d
00000030: a606 6c3d 29d4 ebbd fe55 8c3d 06ad 2f3d
00000040: 6d62 0b3e 3439 7f3d 4a51 9bbd 5665 e83d
00000050: da86 24be 2a00 bcbc 817c 0f3e b074 553d
00000060: ce94 ec3d 0e9f b1bc adee fb3d 98ba 99bd
00000070: 27fa 54bd 7952 a23d 800d ebbd 181d e8bd
00000080: 28ad 77bc 44ab a23c b73f 12be 3f50 fabd
00000090: a3f4 cc3d e541 68bd 33a6 8e3b f7a6 b7bc
000000a0: 08aa febc 5c80 343d bdb3 ff3d c278 463e
000000b0: b687 f63c 66ea a33d 0053 e3bd 6e65 533d
000000c0: 3b0a a53c 6b25 99bd e7d2 80bd d1b4 933c
000000d0: 0be8 8d3c 6584 02be c7b7 3cbd 896b fb3c
000000e0: fb81 b2bd d2cc bdbd 30e8 7bbd efa3 1a3d
000000f0: e27d 3b3d b221 e43d 24f0 02be 6b9a 9b3d
00000100: ea02 60bd 1472 ad3d 53a3 2c3d d3a9 0cbd
00000110: 244e 4fbd 88ea 8c3d b46f 1fbd d348 4abb
00000120: 855c e7bd 1348 95bc c8b6 4b3d 4319 4b3d
00000130: 9a9c a43d 45b4 093e 3aa5 8fbd e463 313b
00000140: 6627 12be 5598 88bd c0e9 163e 4389 b73d
00000150: 047c 20bd 3b66 5cbd 613a a43d 13fa d2bd
00000160: 9a9c ef3d 1207 453d 7af2 bd3c d55e 14bd
00000170: 0917 0bbd 7f44 d13d f1e6 cfbd 122f 33bd
00000180: c8e3 bcbd 64f7 0ebd 8c07 13be eea4 403d
00000190: 66f5 03be e227 1dbd 9e93 fa3d adfb 1c3e
000001a0: 6dcd 22be fa0c f43d 447d adbd 25e9 aebd
000001b0: c439 4a3d e053 01be 9f8a 9bbd 4b7f eabd
000001c0: e4b4 fa3d 7828 1e3e 0898 cf3d 2906 c2bd
000001d0: 8124 ae3d 162b a1bb 5044 b43d 00e9 0dbe
000001e0: 49f0 e0bd 9c96 053e 07d7 aa3d 3872 24bd
000001f0: 8f9c 0bbe 957f 9dbd 8131 f3bc ad2a fabd
00000200: b2c8 f93d ad9e c9bd 62c8 f5bc aa08 823d
00000210: 8185 ed3b c0fa 0fbe 72b6 0d3e ba5f 703d
00000220: 6ac4 58bd ec30 8dbd d431 073e 8ca9 d63c
00000230: bd9c b43d 25f5 a93b 7486 ff3d 7978 d6bd
00000240: 5fed a8bc 3b23 0d3e f89e dabd 090d d0bd
00000250: ccd2 be3d 3f60 fa3d 7710 27bb e9cf 2cbe
00000260: 10d7 963d 82be 813c 04b7 f53d 7be9 d63d
00000270: a634 443d 87f4 0e3e 914a 0f3e 699d 9ebd
00000280: ee6d cebb 8096 c23d 569f 10be 1194 fa3b
00000290: 1248 fa3d beeb fa3d 519d ffbc 34f6 933d
000002a0: fecb 1cbe 1f3a be3d 6b03 e83d 4afa 033e
000002b0: 22ae b93d 9207 5ebd f6a0 cd3c 5dd0 403d
000002c0: bd83 a4bd 7a1e de3d 41b6 3f3d 2a9b 2a3d
000002d0: ca55 a6bd 661d 2f3d 5a57 003d b2a0 e3bd
000002e0: ec67 06be ded3 0dbe a304 ca3a 251a 05be
000002f0: 7271 9c3d 5755 6ebd 4842 5d3d 6d38 2dbe
00000300: 8ed3 d23d caad 993c 318e e03d b097 733d
00000310: f4af ea3d 4feb 513c 30d7 1f3e 302d 763d
00000320: 36e1 efbd c19d f73b 74f3 04bd fa48 07be
00000330: 17d6 13be dea2 73bb 0fd0 003e 5f91 12be
00000340: e7d3 e33c 3cf6 abbb f592 a13d 7868 dabc
00000350: 40b3 03be cb0a 93bd 49af d43d 094c ac3d
00000360: 9c66 e5bd 0f45 173e 708f 0e3e af76 b73d
00000370: 1b05 d1bc a1a0 0b3d a262 00bc 9bd4 683d
00000380: 084d eebc bc78 f63c edf8 ec3c 0881 43bb
00000390: 5b87 563d 388b 293c 0633 96bd 849d 033d
000003a0: d34d 023e a4dd a33d 00ff fd3d f433 be3d
000003b0: 5176 5ebd dfd9 d5bc 51c0 093d c209 aebd
000003c0: 16cb 813d 20a7 283e 5ca4 c8bc c977 e33d
000003d0: 9af5 023e 34cf 33bd 8a11 5c3d 57ec debd
000003e0: 1d2e 9e3d e49c 0b3d b3d5 4dbc 3712 7b3d
000003f0: 4325 b2bc a010 aa3c 1b4a eebd 1c78 9b3d
0.10234023 0.13501404 -0.0662628 0.1537729 0.015832527 -0.17535375 -0.04323174 -0.12700239
-0.1730294 0.122165404 0.04316543 0.045046158 0.057623528 -0.11515076 0.06852339 0.042889617
0.13611765 0.062310413 -0.07583864 0.11347453 -0.16067067 -0.022949297 0.14012338 0.052113235
0.1155182 -0.021682288 0.12301383 -0.07506293 -0.051996376 0.07925887 -0.11477184 -0.11333674
-0.015116967 0.019857056 -0.14282118 -0.12222337 0.10007598 -0.056703467 0.0043533086 -0.022418482
-0.031086937 0.044067726 0.12485454 0.19382003 0.030094009 0.08003692 -0.11099815 0.051610403
0.02014648 -0.0747784 -0.062902264 0.018030556 0.01732256 -0.12745817 -0.0460737 0.030690925
-0.08716198 -0.09267582 -0.061500728 0.037753996 0.045774348 0.11139239 -0.12786919 0.07597812
-0.05469028 0.08469024 0.042147946 -0.034341644 -0.05061163 0.06880671 -0.038924888 -0.003086616
-0.112969436 -0.018222844 0.04973486 0.04958464 0.08037682 0.13447674 -0.07013936 0.0027067596
-0.14272842 -0.0666968 0.14737606 0.089617275 -0.03918077 -0.053808432 0.080189474 -0.10301604
0.11699791 0.048102446 0.02318691 -0.03622325 -0.033957515 0.10218143 -0.101514705 -0.04374606
-0.09223133 -0.0349039 -0.14358348 0.04703229 -0.12886581 -0.038368113 0.12235187 0.15330382
-0.15898676 0.119165376 -0.08471158 -0.085405625 0.049371496 -0.12629652 -0.07594799 -0.114500605
0.122415334 0.15445125 0.101364195 -0.09473831 0.08503056 -0.0049184663 0.08802092 -0.13858414
-0.10983331 0.13045734 0.083417945 -0.04014799 -0.13633941 -0.0769035 -0.029686691 -0.12215171
0.12196483 -0.09844718 -0.030002777 0.06349309 0.007248581 -0.14060497 0.13839129 0.058685042
-0.05292169 -0.06894097 0.13202602 0.026203893 0.08818958 0.005186694 0.12476817 -0.10472197
-0.020621 0.1378297 -0.10674852 -0.10158736 0.0931755 0.12225389 -0.0025491992 -0.16876186
0.07365239 0.015837912 0.11997798 0.104937516 0.047901772 0.13960467 0.13993289 -0.07744867
-0.0062997257 0.09501362 -0.14123282 0.0076470454 0.122207776 0.122519955 -0.031202944 0.07224694
-0.15312192 0.092884295 0.11328777 0.12888446 0.09066416 -0.05420644 0.025101166 0.04707371
-0.080329396 0.10845657 0.04680467 0.041651882 -0.08121832 0.042752646 0.031333305 -0.111146346
-0.1312558 -0.13850352 0.0015412759 -0.12998255 0.076388255 -0.058186855 0.05401829 -0.16916056
0.10294257 0.018759627 0.10964621 0.059470832 0.11459342 0.01281245 0.15609431 0.060101688
-0.117128775 0.0075566475 -0.032458737 -0.13211432 -0.14437138 -0.0037175934 0.12579368 -0.14313267
0.027811004 -0.0052478593 0.07889358 -0.026661143 -0.12861347 -0.07179793 0.103849955 0.0841294
-0.11201212 0.14772438 0.13921905 0.08958184 -0.02551513 0.034088735 -0.007836016 0.05684338
-0.029089466 0.030086868 0.02892729 -0.0029831547 0.05237518 0.010348134 -0.07333951 0.03213264
0.12725 0.08001259 0.12402153 0.09287253 -0.054312054 -0.026104866 0.033630673 -0.08497955
0.06337564 0.16470003 -0.024492435 0.111068316 0.12789002 -0.043898776 0.053727664 -0.10884922
0.07723639 0.03408517 -0.012563157 0.061296668 -0.021746283 0.02075988 -0.11635228 0.075912684

fc2.weight f4 [256, 256]
00000000: 1afd f43b c84c df3c c019 81bc 0a8a 08bd
00000010: 13bd 063d 8577 8cbd 9edb 323d 68bf 0cbd
00000020: 40ae 5cbc c2bc 57bd 37a6 62bd 6427 cf3c
00000030: bca3 b6bc 6046 e3bb 0eb3 5d3d 80ce c9bb
00000040: 4193 a3bc b807 08bc 7f05 97bb fcfc f33c
00000050: 4b14 dc3c 72b9 353d b0dd cbbb 558d 3bbc
00000060: 8e77 1b3d 970c e1bc b19a 49bd 7494 c3bc
00000070: 8a13 55bd b8f7 b83c 227d 463d b4e3 8abc
00000080: 917b 243d 7f1a bd3c ec45 bd3c 060b 02bd
00000090: 3ce8 39bd c0b4 553d 23d0 ffbd be39 76bd
000000a0: 842a 16bd 1342 163c c06d c23b 6d34 1cbe
000000b0: b219 013d 0057 06bb 8ac1 4fbd 2ce0 043d
000000c0: 7b51 1d3d a238 18bd ba59 85bc a000 663c
000000d0: 59ea b9bc c297 353b b233 5abd 7879 ebbc
000000e0: eaaa 443d 307c acbb 7254 abba 849f ff3c
000000f0: 072b 24bc 00ad 983c 9953 63bb 6641 6abd
00000100: f0a3 32be 4e26 5ebd 0c0a 1fbd 601c 3dbd
00000110: 5d81 d2bc 402b 6a3d 5e34 76bc a65e 27bd
00000120: 86cc 443c 6ce9 4d3c 00b2 e5ba d816 08bd
00000130: 61c3 023c c0a1 e3bc 3e02 103d 31f9 9a3c
00000140: 6a93 f13c 8cad 593d ca5e 68bd 049a 913c
00000150: 8027 6dba af3d 6c3b 8448 81bd 8867 64bd
00000160: 7ae6 dc3c eabb 2d3d a6c0 29bd 08c5 96bc
00000170: 161a 263a c9da 29bd 404d 583c 809d 20bc
00000180: e880 a5bc aac2 143d 1d70 bdbb 81b8 28be
00000190: baa0 2bbd e7c4 b6bc b823 13be c0ca e2bc
000001a0: 1a0b bfb8 d2d5 843c 5867 08bd a979 3c3d
000001b0: 420a 28bd b201 6bbd 8eff 0bbd decb 133d
000001c0: 50c3 013c 4f01 01bb f849 1d3d 0395 0e3c
000001d0: b53f 023d a464 7abd bc0b 303d 5be7 833d
000001e0: a4f8 9bbc 76c4 fdbb 278b c33b a26c 033d
000001f0: 54fe ad3c bc34 e2bc 1512 98bc 51ad c5bc
00000200: 6344 873c 449a 553d c255 ec3b 2358 113d
00000210: ee41 61bd 7623 e1bd 61c2 9f3b 349e 1bbc
00000220: 67f9 1bbd 7896 18bc 4965 ac3c fa88 24bd
00000230: d0f0 fd3b c4c8 313d 4888 1d3c 56f9 27bd
00000240: 200c f5bb 97cd 1a3d 4067 4fbb 9a13 37bd
00000250: f21a 3f3d 2823 053d 9a2d ebbc 6e51 7f3d
00000260: 69e4 fabc 58ff 37bd cdbe 6b3d 6f9d 763d
00000270: e40b e03c ba29 e2bd e5ae 45bd 1fd5 163d
00000280: 8867 ea3c 5a75 593d 3b2e 78bd b64c 68bd
00000290: 3e3e 50bc 6c08 21bd a808 2e3d b912 47bd
000002a0: bc5d b2bc 8097 83bd 2149 36bd 4831 cb3c
000002b0: 5d77 d53c 8de9 72bd 9b5f 4fbd be1b f0bd
000002c0: 446d c5bc 7d0f b23d 265d 49bd 5850 12bc
000002d0: 7ca0 5bbd 85a6 333c d8f5 8ebc 6d0f e2bd
000002e0: fecf 6dbd 8818 033d 13ad 65bd 4892 743d
000002f0: 44cc 843c d846 0a3c 4d77 a9bd 2ee4 843c
00000300: 5745 083c 2bad 973b fa73 48bd 316f abbd
00000310: c0e5 80ba 5c87 513c c6a0 4c3d b89c 583d
00000320: f4b6 1a3d af39 7d3c abc7 74bd e077 703c
00000330: 48ed 68bc a08b 183b 5af2 593d 962e 3abd
00000340: 065e 633d 9480 83bd 338b abbc eceb 4fbd
00000350: a4a4 5fbd 2841 413c 4479 1a3d 8412 523d
00000360: 5795 84bd d448 4e3d 8ae7 6abd 2d84 36bc
00000370: 271c 0bbc 7e6d 5c3d 12dd 3abc b6f9 45bd
00000380: faa5 833d f2f8 31bd dc3a 4f3d a8a4 313d
00000390: 5cf7 293d c4f9 383c d3ca 7dbd ee1a 333d
000003a0: 64a8 acbc 483b 053c 0211 003d 9621 d73c
000003b0: 7847 833c e0df 1abd 2444 4ebd 2f57 0c3d
000003c0: c4b2 e33c e627 03bd 3327 7abd 5377 5d3d
000003d0: 329f 3dbd bcf1 153d 24a2 84bc b58e 00bc
000003e0: 9f80 afbc 2ccf ca3c 8866 f039 c1ad c0bc
000003f0: 48f8 40bd dcaf efbd d874 1cbc aa58 433d
0.007476461 0.027258292 -0.015759349 -0.03333477 0.03289516 -0.06858734 0.043666475 -0.034362227
-0.013469279 -0.052670248 -0.055334296 0.025287338 -0.022294872 -0.0069358796 0.054125838 -0.00615865
-0.019967677 -0.008302622 -0.0046088095 0.029783718 0.026865145 0.044366308 -0.0062214956 -0.01144727
0.037955813 -0.027471824 -0.04921979 -0.023874499 -0.052020587 0.022579059 0.04845918 -0.01695428
0.040156905 0.023083923 0.02310463 -0.031748794 -0.04538749 0.05217433 -0.12490871 -0.06011366
-0.03666164 0.009171027 0.0059334934 -0.15254374 0.031518646 -0.0020498633 -0.050721683 0.03244035
0.038407784 -0.037163384 -0.016278137 0.014038235 -0.022694753 0.0027708863 -0.053271957 -0.028744444
0.04801456 -0.0052638277 -0.0013071431 0.031203993 -0.010020024 0.01863718 -0.003468728 -0.057191275
-0.1744535 -0.05423575 -0.03882794 -0.04616964 -0.02569645 0.057170153 -0.015027134 -0.04086175
0.012011653 0.012567859 -0.0017524362 -0.03322491 0.007981152 -0.02778709 0.03515839 0.018917652
0.029489238 0.053144023 -0.056731023 0.017773636 -0.00090467185 0.0036047508 -0.063126594 -0.055762798
0.026965369 0.042415537 -0.04144349 -0.018404499 0.00063362846 -0.041468415 0.013202012 -0.009803176
-0.020203069 0.03631846 -0.005781187 -0.16476633 -0.041901328 -0.022310687 -0.14369094 -0.02768457
-9.1096575e-05 0.016215239 -0.03330168 0.04601446 -0.041025408 -0.057374664 -0.034179263 0.036083095
0.007920101 -0.0019684618 0.03840062 0.008702519 0.031799037 -0.061131135 0.04297994 0.06440612
-0.01903946 -0.0077443672 0.005967516 0.032086022 0.021239437 -0.027613036 -0.01856331 -0.024130495
0.016512102 0.052149072 0.0072123716 0.035484444 -0.054994516 -0.10993092 0.0048754667 -0.009498168
-0.038079645 -0.009313218 0.02104439 -0.040169694 0.0077496544 0.043404356 0.0096150115 -0.04100927
-0.007478252 0.037793722 -0.0031647235 -0.044696428 0.046656556 0.03250423 -0.028708268 0.062333517
-0.030626493 -0.04492125 0.05755501 0.060208734 0.02734942 -0.11043115 -0.048262496 0.036824342
0.02861382 0.05309043 -0.060590964 -0.056713782 -0.012710152 -0.039314672 0.042488724 -0.04860184
-0.021773212 -0.06425381 -0.044503335 0.024803773 0.026057893 -0.059304763 -0.050628286 -0.117240414
-0.024099953 0.086943604 -0.0491611 -0.008930288 -0.053619847 0.010964994 -0.017451212 -0.110380985
-0.058059685 0.032005817 -0.05607326 0.059709817 0.016210683 0.008439742 -0.08274708 0.016222086
0.008317313 0.0046287975 -0.04893873 -0.083708175 -0.0009834096 0.01278862 0.049958013 0.052883834
0.037772134 0.015455647 -0.05976073 0.014677018 -0.0142167285 0.0023276582 0.05320964 -0.045454584
0.05550959 -0.06421009 -0.020940399 -0.050762102 -0.054600373 0.01179532 0.037713304 0.05128719
-0.06473797 0.050362423 -0.05734972 -0.011139912 -0.008490599 0.053815357 -0.011405246 -0.048333846
0.06428142 -0.043450303 0.050593242 0.04336992 0.041495666 0.0112900175 -0.061961006 0.043726854
-0.021076389 0.0081318095 0.03126622 0.026261132 0.01602529 -0.03781116 -0.050357953 0.034262832
0.027795203 -0.032020472 -0.06107254 0.054068875 -0.0462944 0.03660749 -0.016190596 -0.007846524
-0.021423636 0.02475699 0.0004585276 -0.023520352 -0.04711178 -0.117034644 -0.009549342 0.04769198

fc2.bias f4 [256]
00000000: d39c 86bc f36b 09bc 0281 fdbc 6b0b 39bd
00000010: c0a1 9cbc 58c3 4cbd c05f 62bd 8eb4 29bd
00000020: ec80 183d b3ed 193d b01e 183d 3106 1cbd
00000030: 22ea 23bc 5cef 20bd 7a82 173d a4e7 23bd
00000040: 70b2 53bd 4a4d 89bd 02d1 f63c 9b75 2fbd
00000050: 951b 0fbd 1b1e 1a3d 205e 573d 90cf ab3c
00000060: 21a5 583d 4d29 803d f55d 403d 996d efbb
00000070: 3464 0bbc 1988 33bd f8f4 7dbd 9396 223d
00000080: 438b d8bc c7e8 f4bc 0cb6 743d b645 833d
00000090: 534c e73b f3bb 3fbd 888c 823c d0f3 01bd
000000a0: bcdb 0c3d 19e9 393d c0b0 05bc 2205 303d
000000b0: 1c32 8abc a6a1 2d3d 3bc9 863c f750 723c
000000c0: 88ac 45bd 69a7 3b3d e220 453b 50c4 553d
000000d0: 3342 24bd c850 6dbc f08c c73c 0342 1c3d
000000e0: 812a 89bd e41d 92bc 2819 843c b873 e7bc
000000f0: 6522 7cbd 107a 7bbd 22a3 0ebd 0b54 923b
00000100: 1bfc 79bb a82c debc 8e49 813b 0c42 5b3d
00000110: 0902 d53c 385a 4fbc 20f8 293d bfa1 a7ba
00000120: 4ba0 e7b9 e378 633d f02f 59bc d841 f93b
00000130: 1832 b8bb 945e 5cbd caf7 50bd 2638 05bd
00000140: dc0a 933c 21c9 eebc 8957 51bc c952 68bd
00000150: be69 afbc 3f37 073d fcb2 f23c 346d f93c
00000160: 3ecc 393d fe88 2abd d077 65bc c25a b0bc
00000170: 669a 2e3d 0637 15bd 1cc2 1bbd 9918 38bd
00000180: 4748 a03c c283 713d 3493 bbbc 9ff3 3ebd
00000190: acb4 d13c d868 33bd a2b2 713b 0788 aebc
000001a0: ca52 513d 1ada 65bd c212 3ebd 56c2 e139
000001b0: ee01 04bd 5082 debb 20f2 5abb 688f 6fbd
000001c0: cf14 a03c 62bd 44bd 079c 0dbd 3ad8 54bd
000001d0: 8623 2b3d f783 86bd 54e7 243c 9de2 62bd
000001e0: d018 5cbd 7c15 f73c f0cb 6f3d 5e81 75bc
000001f0: e379 66bd f543 1c3d 7d71 8cbc ab95 24bd
00000200: 899e 453c 8131 7e3c f7c3 5f3d 2ae7 7fbd
00000210: f758 3fbd 644b 63bd 96cd cb3c 7a1c 85bd
00000220: 481a 313c 3290 edbc 9696 473b 3e39 0dbc
00000230: 2e93 31bd fa3b 70bd ac8a cc3c ddec c9bc
00000240: c84b 1b3c f9e6 c33b 9df4 56bd 47ff 1abd
00000250: 6600 6c3d b853 30bc 827c 87bd 82e6 16bd
00000260: be68 88bd b6d9 283d 679b 88bc 5851 ad3c
00000270: 2be9 f3b9 d6c2 053d 9152 663d 46af 48bd
00000280: 671d 85bd b919 5dbd 7e66 573d b257 3f3d
00000290: 4e2b 3fbd 0eb7 b5bc 5a5f a8bc f6c1 fabc
000002a0: 3492 edbb d2a1 5a3d 27fb 84bc b8d3 c93c
000002b0: 940f 37bd 24f6 1d3d 8687 03bd 72c8 07bd
000002c0: bb68 19bd 6f42 58bd 9b8a 263d 40c7 50bd
000002d0: 2333 d23c 6491 02bd f86e 5f3d a661 023d
000002e0: f454 e8bc c1fc bd3c 6f72 2ebd 4444 3c3d
000002f0: a205 0f3d 00ca 2c3b 8b6a bc3c 746b 09bd
00000300: 0100 bdbc 9581 82bd 26d7 15bd 55a9 85bd
00000310: 062a 6d3d 0046 a43c efba b8b9 a33a 89bd
00000320: e2de 4ebd 55ec b53c dea9 3b3c 2705 00bd
00000330: 77d3 3ebd 1f0a 0a3c 3c1f 153d 0f66 313d
00000340: 08df af3c e702 52bd c961 75bd bfb8 ccbc
00000350: efbe 343d 239d 463b 2cb2 5abd aeaf 7abd
00000360: dda7 5e3d d536 1f3d 82ea 63bd 22fe 963c
00000370: f020 39bc 3481 8abc fe93 6f3d 3398 a339
00000380: 0e50 b7bc 30de f1bb c804 31bd 20c5 ccbb
00000390: 4124 1e3d 4906 7abd 48ff 91bc bccf 33bd
000003a0: 1727 84bc cb41 15bb 6521 c8bb 2048 1bbd
000003b0: 0843 73bc 7bbb 25ba 2b35 fbbb a7b5 cdbc
000003c0: 2637 773a 2ede f73c 740f d53c e332 243d
000003d0: df04 623c 3aef 21bd d0a6 d8bb 94f9 f7bc
000003e0: a231 7e3d 44c8 593c e019 013d d915 46bd
000003f0: 7e9f 033d 85b2 d9bc 4007 10bd 8317 30bd
-0.016432201 -0.0083875535 -0.030945305 -0.045176905 -0.019120097 -0.04999098 -0.055267096 -0.041431956
0.037232324 0.037580203 0.03713864 -0.038091842 -0.010004552 -0.03929077 0.036989667 -0.04001583
-0.051683843 -0.06704195 0.03012896 -0.042836767 -0.034938414 0.037626367 0.05258 0.020972997
0.052891854 0.062578775 0.046964604 -0.007306766 -0.008507777 -0.043830965 -0.0620012 0.03969438
-0.026433593 -0.029896153 0.059743926 0.06409781 0.007058659 -0.0468101 0.015936151 -0.03172666
0.034389243 0.045388315 -0.008159816 0.042973645 -0.016869597 0.042390488 0.016453376 0.014789811
-0.04826024 0.04581395 0.0030079414 0.05218917 -0.040102195 -0.014484592 0.024359196 0.03814889
-0.0669756 -0.017836519 0.016125277 -0.028253421 -0.06155624 -0.061395705 -0.034823544 0.004465585
-0.0038144651 -0.027120903 0.003945536 0.053529784 0.026001947 -0.012655787 0.041496396 -0.0012789293
-0.0004417918 0.05553521 -0.013256058 0.007606726 -0.005621206 -0.053801134 -0.05101756 -0.03252425
0.017949514 -0.02914864 -0.012777218 -0.056719575 -0.021412726 0.03301167 0.029626362 0.03044758
0.045360796 -0.041634552 -0.014005616 -0.021527652 0.042627715 -0.036429428 -0.038026914 -0.044945333
0.019565715 0.058963545 -0.02289734 -0.046619054 0.025598846 -0.04380116 0.0036880155 -0.021305097
0.051104344 -0.0561162 -0.046404608 0.00043060136 -0.032228403 -0.006790437 -0.0033408478 -0.058486372
0.019541172 -0.048032172 -0.034572627 -0.051964022 0.041781925 -0.06568139 0.010064919 -0.055391897
-0.0537346 0.030161612 0.0585441 -0.014984457 -0.056268584 0.038150746 -0.01714396 -0.040181797
0.0120617235 0.015514732 0.054630246 -0.062476315 -0.046715703 -0.05549182 0.024878304 -0.06499572
0.010809489 -0.028999422 0.0030454746 -0.008619605 -0.043353252 -0.058650948 0.024968468 -0.024649078
0.009478517 0.005978462 -0.052479375 -0.037841108 0.057617567 -0.010762148 -0.06615545 -0.036840923
-0.06660603 0.04122325 -0.016675664 0.021156952 -0.00046522295 0.032656513 0.056231085 -0.04899528
-0.06499749 -0.05397961 0.05258798 0.046714492 -0.046672158 -0.022182014 -0.02055328 -0.030610066
-0.007250095 0.05337698 -0.01623304 0.024637088 -0.04469259 0.038564816 -0.032111667 -0.033150144
-0.037453394 -0.05279773 0.04065953 -0.05097127 0.02565915 -0.031876937 0.054549187 0.031831406
-0.028360821 0.023191812 -0.0425896 0.04596354 0.03491748 0.0026365519 0.023000022 -0.03354974
-0.02307129 -0.06372372 -0.036582135 -0.06526438 0.057901405 0.02005291 -0.0003523449 -0.06700637
-0.050505526 0.022207418 0.011454074 -0.031254914 -0.046588387 0.008425265 0.03640674 0.04331022
0.021468654 -0.0512723 -0.05990771 -0.024990438 0.0441274 0.0030306063 -0.053392574 -0.061202697
0.054359306 0.03887065 -0.055643566 0.018431727 -0.011299357 -0.016907312 0.058490746 0.0003120318
-0.02237704 -0.007381223 -0.04321745 -0.006249085 0.038608793 -0.06104115 -0.017821923 -0.043899283
-0.01613192 -0.0022774811 -0.0061074966 -0.03791058 -0.014847524 -0.0006322187 -0.00766625 -0.025111033
0.000943052 0.03025731 0.026008345 0.04008759 0.013795107 -0.039534785 -0.0066116825 -0.030270375
0.062059052 0.013292376 0.031518817 -0.04836068 0.032134525 -0.026574383 -0.035163164 -0.042991173

fc3.weight f4 [2, 256]
00000000: fa06 3bbc 61c6 e1bc 9b62 38bd e1ed 6e3c
00000010: 04be 043d 3eae 61bd 22cd b63c e65a 263b
00000020: 872d ecbc 524c 123d 2e17 0f3d d8d5 0fbd
00000030: d37c 8dbb 685b f73c 54ac 0d3d 78aa 4b3d
00000040: 94c3 1abd de0b 4e3d 0aef 0c3d 5324 453d
00000050: cf2d 12bc 6606 713d 9036 fdbb b84f 753c
00000060: da31 b13c 7be4 a63c 093e 2a3d e6af 48bd
00000070: 9d63 36bd d827 c1bc 6db5 6f3d 862e 4ebd
00000080: 039a 053d 5de8 47bd b892 033d 991c 94bc
00000090: 07a2 8bbb e9e7 16bd 6307 803c 10c3 45bc
000000a0: 0045 d6bb 4b0f 313c ceda 56bd b599 0d3d
000000b0: d1e8 5ebd b060 b5bc 6641 ab3c 55a4 fbbc
000000c0: 3e70 583d f167 753d cc98 b2ba fe4b 69bd
000000d0: 90dc 5fbd 643f b13c fc61 67bd a734 46bd
000000e0: 91ae 0cbd bc9f 1cbd b3b1 f03c 8c96 c53c
000000f0: 4728 753d 146e 703d 568f 0abb 64a0 3abd
00000100: 8107 1cbd 2457 abbc e0ae 23bd 703d 16bd
00000110: 3be5 0bbd 04dc 4ebd e36b 663d 3b53 25bd
00000120: 8800 1abd 2651 56bd aaa2 6c3d 0237 153b
00000130: 93ce 523b 1098 5f3d f782 443d d47f 3abd
00000140: e1fc 703d c596 453c ba39 193d aefb 623d
00000150: a9dc 2abd cd40 b3bc 54c1 113d d123 5a3c
00000160: e0d6 14bc 2c7e efbc 9e4a 31bd e3e2 bd3b
00000170: 25ea 5a3d 7512 56bd 483f a83c 0b91 47bc
00000180: 608f 14bd ad94 38bd 40f3 f7ba 75f8 d6bc
00000190: 2017 eb3b 8c7d a53c 5100 0e3d 307c 533c
000001a0: 6637 1b3d 5a9f 793c 4479 4fbd 10c3 e3bb
000001b0: 9aab 353d 4461 fc3c 48a4 c83c 3c59 bd3c
000001c0: 092f 79bc 1820 073c b8be 1cbd 44db 793d
000001d0: b05c 1f3d ea29 783d 6f22 3a3c 49e9 2cbc
000001e0: 38d2 cbbc 20f3 963c 2b2e e53c dd9b 61bd
000001f0: 4109 2f3d 08ca 9abc 6b27 413d 63c2 683d
00000200: 6eed 5cbd 1fd5 ee3c c052 ab3c 1882 253d
00000210: f323 693d 6c3d d8bc a95c 253d cdcb 423d
00000220: ee53 653d 60d4 3cbd 6159 dbbc 727e 5abd
00000230: 60f0 9e3b eede 35bd a2f6 4abd a07f e63b
00000240: 2255 8d3a b385 0a38 f712 08bd 6b5b 373c
00000250: 00a2 94bb 2a0f c23c 2c54 15bd d196 93bc
00000260: 81c0 a4bb 207e 69bd cb48 3a3d 20a9 87bb
00000270: 3220 8c3c c977 3abd cfd6 9b3b 3060 02bd
00000280: 9307 213c 6f9f 8d3c 7c03 623d 204f 1f3d
00000290: e5ea a4bc 4a70 b73c 636c 56bd 09b9 483d
000002a0: b89d 8cb9 a477 febc 4774 553d 2b1f 98bc
000002b0: 0045 883b a013 933b 0999 363d da82 4b3b
000002c0: a993 46bd 90ac 2d3b 790b 3dbd d67b b6bc
000002d0: 4947 76bc 803b 17ba f3b9 0a3b 7c40 60bd
000002e0: ae27 ea3b cc8e 1cbd e4a2 abbc 60db 953c
000002f0: f0e1 af3c 4e65 0ebd b562 97bd 693c adbc
00000300: 53dc 593d 99d0 02bd c0cd 2abc 2a43 993c
00000310: 9277 473d 800f 43bc 8c4d 79bd 903f f13c
00000320: 76c6 34bd c7fe 693d de45 02bd ebce 1fbd
00000330: b3e1 103c f006 c63c 7c43 66bd aa3c d43c
00000340: 6de7 263d 16e5 04bd e8ed 493d 57aa 3dbd
00000350: 7fef c03c 78c9 2ebd 2019 20bc 4a34 533c
00000360: 423c 5ebd 3d92 55bd 2610 08bd 3458 473d
00000370: 9403 063d 6202 713d 6d23 e6bc 07e2 533d
00000380: c1d7 4d3d 88b7 023c c46e 003d 443f a2bc
00000390: 3048 063d b02e 99bb 541b d73c 8886 533d
000003a0: e70e 45bd dca8 273d 2d58 1b3b da51 30bc
000003b0: 4096 afbc f02a 0f3c 8107 0ebd 0f52 3cbd
000003c0: 4750 1c3d d9c8 4039 d451 913c 10c4 12ba
000003d0: 0514 a6bc 35ac 393c 3048 af3c a09e 913b
000003e0: 6833 6fbc a1f4 c23a e199 aa3c f142 1fbd
000003f0: dcf8 433c d30f 01bd 0e75 21bd dc43 273d
-0.011415238 -0.027560415 -0.045015913 0.014583082 0.032407776 -0.05509781 0.022314612 0.002538377
-0.028830303 0.035717316 0.034934215 -0.035116047 -0.0043178587 0.030194953 0.034588173 0.04972312
-0.037784174 0.050304286 0.034407653 0.048130345 -0.008922054 0.058843993 -0.0077274516 0.01497262
0.021630216 0.02037262 0.041563068 -0.048995875 -0.044528592 -0.02357857 0.05852263 -0.050337337
0.03261758 -0.048805583 0.032122344 -0.018080043 -0.0042612585 -0.03684226 0.015628522 -0.012070432
-0.006538987 0.010806869 -0.052454762 0.034570415 -0.05442125 -0.02214083 0.020905208 -0.030718008
0.052841417 0.05991358 -0.0013625859 -0.056957237 -0.054653704 0.021636672 -0.05648993 -0.048390057
-0.034346167 -0.038238272 0.029381609 0.024119638 0.059852865 0.05869873 -0.0021142564 -0.045563117
-0.038093094 -0.020915575 -0.039961696 -0.036679685 -0.034154158 -0.050502792 0.056255233 -0.040362578
-0.037598163 -0.052323483 0.057772316 0.0022768383 0.0032166585 0.054588377 0.04797646 -0.045532063
0.058834914 0.012059872 0.037408568 0.0554158 -0.041714344 -0.021881485 0.035584763 0.013314203
-0.009084433 -0.029234968 -0.04328405 0.0057948693 0.053445954 -0.052263696 0.020537987 -0.012180577
-0.036269546 -0.045063663 -0.0018917099 -0.02624152 0.0071743876 0.020201467 0.03466827 0.012908027
0.03789463 0.015235746 -0.050652757 -0.0069507435 0.044353105 0.030808099 0.024492398 0.02311384
-0.015208968 0.008247398 -0.03826782 0.061000124 0.038906753 0.060586847 0.011360749 -0.010553666
-0.024880514 0.018426478 0.027976116 -0.055080283 0.042733435 -0.018895164 0.047156733 0.056826007
-0.053937368 0.029154358 0.020913482 0.04040727 0.05691905 -0.026396476 0.04037157 0.04755764
0.055988245 -0.046100974 -0.026776018 -0.053343244 0.0048504323 -0.044402055 -0.049551614 0.007034257
0.0010782818 3.302628e-05 -0.03322121 0.011191229 -0.0045359135 0.023688871 -0.036457226 -0.01801625
-0.005027831 -0.057005048 0.045479577 -0.0041400343 0.017105196 -0.045524392 0.004755832 -0.031830013
0.009828466 0.017287938 0.055179104 0.03889382 -0.020131538 0.02239241 -0.05234946 0.04900459
-0.0002682039 -0.031062908 0.052112844 -0.01856955 0.004158616 0.0044884235 0.04457954 0.0031053335
-0.048480663 0.002650056 -0.04615352 -0.022275846 -0.015031644 -0.0005769059 0.0021167963 -0.054748997
0.0071458435 -0.03822212 -0.020951696 0.018293083 0.02147004 -0.03476458 -0.07391874 -0.02114697
0.053188633 -0.031937215 -0.010425031 0.018708784 0.048698016 -0.011905551 -0.06086497 0.029449254
-0.04413458 0.05712774 -0.03180491 -0.03901569 0.008842873 0.02417323 -0.056216702 0.025907833
0.04074805 -0.032445036 0.04929915 -0.046305027 0.0235517 -0.042672604 -0.009771615 0.012890885
-0.054256685 -0.052141417 -0.033218525 0.0486681 0.032718256 0.058840163 -0.028093064 0.05172923
0.050254587 0.007978328 0.031355634 -0.019805558 0.032783687 -0.004674755 0.026258148 0.05164197
-0.048109915 0.04093252 0.002370368 -0.010761702 -0.02143395 0.008738264 -0.034675125 -0.045976695
0.038162496 0.00018385368 0.017739214 -0.00055986736 -0.020273218 0.011332561 0.021396726 0.0044439584
-0.014599659 0.001487393 0.020825328 -0.0388822 0.011961188 -0.03150923 -0.039418273 0.0408362

fc3.bias f4 [2]
00000000: 5be1 ecbc c310 723d
-0.028916052 0.059098016
