savedModels/modelShallowCNNv1.pth (torch, 336620 bytes, 6 tensors)

conv1.weight f4 [32, 1, 3, 1]
000000 6e 8f 5c 3e 89 27 3b 3f 0b 80 15 3f ee 43 be bd
       0.21539089 0.731072 0.58398503 -0.092903
000010 de e2 0a be f6 cb a5 be 8c a3 e3 be 50 ab ee 3e
       -0.13563105 -0.32382172 -0.44460714 0.46615076
000020 fb 6f 5b bd 95 15 14 bf 1a 96 d5 3e e0 e2 ec 3e
       -0.05357359 -0.5784543 0.4171608 0.46266842
000030 79 04 b4 be 61 67 15 3e d5 b9 cd be a5 70 19 3e
       -0.35159662 0.14590217 -0.4018084 0.14984377
000040 9c e9 c9 be 46 15 b2 be 9b 79 3f 3c 93 bf 09 3f
       -0.39436042 -0.34781855 0.011686708 0.53807944
000050 ca b9 1f 3f cd a4 d9 3e 6f 89 00 be cb 6c 54 3e
       0.62392867 0.42508546 -0.12552427 0.20744626
000060 e5 03 00 bf 86 e5 12 3f 8b e9 d2 be 0a df 1f be
       -0.5000594 0.57381475 -0.41193804 -0.15612426
000070 11 6c ad be 9a 16 95 be bf 18 bd be e6 ca a5 3e
       -0.3387151 -0.29118806 -0.36932942 0.32381362
000080 fd d5 0c bf 4e 22 b6 bc b1 2c 0d be 84 a8 c5 be
       -0.5501402 -0.022233155 -0.1378658 -0.3860513
000090 ec 8e 8b 3d 01 f9 15 be 69 95 e3 3e 0e 01 06 3f
       0.068143696 -0.14645769 0.44449928 0.5234536
0000a0 7b 7f 9d 3d 43 98 fa 3e 2a 99 9d be 6a 97 20 be
       0.076903306 0.4894429 -0.30780917 -0.1568276
0000b0 56 37 e8 be 6c 99 f6 3e c9 d5 cc 3e 9d 70 e1 be
       -0.45354718 0.48163927 0.40006855 -0.4403123
0000c0 78 50 0f 3f a7 0e a7 be 0c ad 04 bf 5c 11 d1 3e
       0.5598216 -0.32628366 -0.5182655 0.40833557
0000d0 a6 50 8b be a6 de c1 3e 05 9c 8e 3e b3 df 8b 3e
       -0.27209967 0.3786518 0.27853408 0.27319106
0000e0 be b3 0d 3f 37 73 cd bd 95 93 0c 3f f9 57 d1 3e
       0.5535239 -0.10031741 0.5491269 0.4088743
0000f0 08 fd 91 3e b2 aa 8d be 9b e2 58 3d 81 14 94 3e
       0.2851336 -0.27669293 0.052950483 0.28921893
000100 ff b6 4e 3c 48 51 18 3f 1d 0c 01 3f 34 c4 ab be
       0.012616872 0.59499025 0.5040911 -0.3354813
000110 f2 cd 1e be 58 1e a0 3e bf d9 a7 be a9 8c 1e bf
       -0.1550825 0.3127315 -0.32783315 -0.6193338
000120 11 de 0e be 7a 90 03 3f c0 9f 9a be b0 72 9d 3e
       -0.13951899 0.5139233 -0.30200005 0.30751562
000130 c2 09 a6 3e 75 5a d3 be 18 cb 7b be e3 34 f5 3e
       0.3242932 -0.4127995 -0.24589193 0.47891912
000140 75 51 ea 3d f5 ba 7e 3e c0 e1 33 3f 25 32 ad 3e
       0.11441318 0.24876006 0.7026634 0.3382732
000150 1d 07 88 bd 64 26 7b bd 27 63 01 bf 03 40 c9 be
       -0.06641982 -0.06131591 -0.5054192 -0.3930665
000160 e0 7b 06 3f 39 04 8e be 17 c8 54 be f6 8a c7 be
       0.5253277 -0.27737597 -0.20779453 -0.38973206
000170 46 f1 e9 be 3e 9f 9a 3e e1 db eb be 2f 9b 97 3e
       -0.4569189 0.30199617 -0.46066192 0.29610583

conv1.bias f4 [32]
000000 fe 8e 81 be c3 24 8f 3e 07 ca 5f bd f3 b0 7f 3e
       -0.25304407 0.27957734 -0.054636028 0.24969845
000010 7c 4f 1c bf b5 51 9b 3e aa cf b4 3e ee 4d 7b 3e
       -0.61058784 0.30335775 0.35314685 0.24541447
000020 21 bd 88 be 60 10 d3 3e 12 db dd 3e 17 d1 fe 3e
       -0.26706794 0.4122343 0.433312 0.49768898
000030 8a 72 0b 3f 10 ae ed 3e 1b c6 1d bf 0f b6 b2 be
       0.5447165 0.46421862 -0.6163041 -0.34904525
000040 7d da 6d ba 0b 83 11 be 8f 14 7b bc 73 33 1b 3f
       -0.000907339 -0.14210145 -0.015324726 0.6062538
000050 29 90 72 3e e2 c2 1d 3e 01 c3 b9 3e fc 26 05 3f
       0.23687805 0.15406373 0.3628159 0.5201261
000060 41 09 20 3e d0 d6 f4 bc 5d df 14 3f 5e 2f 99 3e
       0.1562853 -0.029887587 0.58153325 0.2991895
000070 aa 64 f2 be ab 06 3e 3e 8c 60 f5 bd c7 d3 b2 3e
       -0.47342426 0.18557231 -0.119813055 0.34927198

fc1.weight f4 [128, 640]
000000 f3 90 eb 3c c5 4b 7a 3c d9 26 f3 bc 7e 02 c5 3b
       0.02875564 0.015276854 -0.02968161 0.00601226
000010 2a 49 1a 3d a0 ff f4 bb 90 8e 9b bb 3b 9d 25 3c
       0.03766743 -0.007476762 -0.0047472194 0.010108287
000020 fc e5 f3 bc cf 9a da 3c ab d6 84 3c 03 43 9b bc
       -0.029772751 0.026685147 0.016215643 -0.018952852
000030 8f 03 81 3c e4 28 0a bb 56 5d b6 3b c2 46 5b bc
       0.015748767 -0.0021081502 0.0055653257 -0.013383569
000040 dc 1a 11 3c 54 59 a3 3c 00 0f b4 3c 6b c2 13 bd
       0.008856501 0.019940056 0.021979809 -0.036074083
000050 64 47 2e bb c4 3e 80 bc fe 7e e6 3a a1 fb 19 bc
       -0.0026592845 -0.015654929 0.0017585454 -0.009398372
000060 60 6d 5b bc 82 49 08 bc b3 b1 fe 3c 9c 40 ce bc
       -0.013392776 -0.008318307 0.031090593 -0.025177293
000070 50 ef 05 3d ec 2c 0a bd 60 36 0b 3c 18 28 21 bd
       0.03269893 -0.033734247 0.008496851 -0.039344877
000080 c2 a2 e6 3c c2 cd 30 bc a3 7e cc bc 20 4a 9f bb
       0.02815378 -0.010791244 -0.024962729 -0.0048611313
000090 80 b0 c2 ba 1c c7 bd bc 12 5e 23 bc 49 91 9f 3c
       -0.0014853626 -0.023166232 -0.009971159 0.019478457
0000a0 c9 43 21 bd 2b 58 11 bc 7f a1 e2 bc 7e 0f 0b 3d
       -0.039371286 -0.008871119 -0.027664898 0.03395032
0000b0 6d 83 9d bb bf aa f5 3a 77 83 a8 3c 69 af bb bc
       -0.004806927 0.0018742903 0.0205705 -0.02291079
0000c0 a1 82 b2 3c 96 45 82 bc dc a7 38 bb ee 81 2e 3c
       0.021790804 -0.015902322 -0.0028176224 0.010651095
0000d0 24 5c eb 3c de 08 12 3d e8 32 1e 3d fd 96 a6 bc
       0.02873046 0.035652988 0.038622767 -0.020335669
0000e0 5b f4 9e 3c c8 90 ce bc 13 dc c9 bc 43 d4 d7 bc
       0.019403627 -0.025215521 -0.024641072 -0.026346331
0000f0 0b 06 1a bc 41 93 91 bc c8 42 aa 3c cd a9 b2 3c
       -0.009400855 -0.017770411 0.020783797 0.021809483
000100 a2 39 fd 3c f1 68 a0 3c d0 28 a1 ba ec 57 1a bd
       0.03091127 0.01958129 -0.0012295488 -0.037681505
000110 dd 45 82 3c 7d 0a 23 bc d7 30 b8 3c 54 52 8e 3c
       0.015902454 -0.009951231 0.022484226 0.017373241
000120 1c 3f 2e bc 80 ba fc 3b 8f f1 14 3c 1a 12 f4 bc
       -0.010635164 0.007712662 0.009090795 -0.029793788
000130 f0 2a 1e 3d 9f fb c3 3c 65 91 18 bd d4 5a 91 3c
       0.038615167 0.023923693 -0.037248034 0.017743506
000140 31 d7 97 3c 96 9b dd bc 54 75 5c 3b 4f 5e e2 3c
       0.018535228 -0.027051728 0.003363927 0.02763286
000150 31 5c 16 3a fd 6b d7 3b f1 83 98 3c df 2f 1e 3d
       0.00057357835 0.0065741525 0.018617602 0.038619872
000160 88 ad 1f bd 0b d2 b1 3c f2 12 c0 3c d2 da 16 3c
       -0.03898385 0.021706602 0.023446534 0.009207444
000170 88 86 ba 3c 0f 44 ae 3c e1 44 f0 bc 27 22 14 3c
       0.022769228 0.021272687 -0.029329719 0.009041346
000180 6f 01 20 bd 90 22 ef 3c 76 44 82 3c f4 fb 20 bd
       -0.039063867 0.029191285 0.015901785 -0.03930278
000190 11 48 ba 3c 6f 0c d5 bc a3 47 c8 3c 1b 73 17 3b
       0.022739442 -0.026006905 0.024448222 0.002310938
0001a0 87 fc 87 bb a2 fb 2d bc 53 b1 07 3c c1 94 f6 39
       -0.0041499767 -0.010619076 0.0082820235 0.00047031607
0001b0 30 16 a8 bc a8 6f c6 3c e3 0f da 3c c8 11 e2 bc
       -0.020518392 0.024223164 0.026618904 -0.02759637
0001c0 99 10 1e bd a1 ed bb bb 81 8b 85 bb 80 5d 21 3d
       -0.038590048 -0.0057351147 -0.004075468 0.03939581
0001d0 de 5f b6 39 af eb c7 3c 60 81 10 3d 23 4b 40 3c
       0.00034785172 0.024404375 0.03527963 0.011736664
0001e0 8a c4 b5 bc ea 61 0a 3d 05 83 a6 3c 65 21 ed bc
       -0.022188444 0.033784784 0.020326147 -0.028946588
0001f0 df c6 08 3d 52 81 ad bc da ed 0a 3d 68 05 b9 3c
       0.033392783 -0.021179829 0.03391824 0.022585586
000200 87 bc 2d bc 79 9a 80 3b 16 13 08 bd 61 e6 76 bc
       -0.01060403 0.0039246646 -0.033221327 -0.015069575
000210 bf aa c5 bc 8c 12 1b 3d 18 88 a4 3c f2 fd cd bc
       -0.02412927 0.037859485 0.020084426 -0.025145505
000220 ab a3 11 3c 94 9b 00 bd 12 7d 1e bd 80 18 19 3d
       0.008889119 -0.03139837 -0.038693495 0.03737688
000230 d7 05 84 3c 6a 6c 12 3d a4 95 69 bb fd e7 08 3d
       0.016116066 0.035747923 -0.0035642171 0.033424366
000240 4e 29 8d bc 8e 30 04 3d d1 a5 d5 bc 40 bf 70 bc
       -0.01723161 0.032272868 -0.026080044 -0.014694035
000250 2b 71 14 bc 2a 58 01 bd eb 65 3d bc 1d 56 1e bd
       -0.0090601845 -0.03157822 -0.011559944 -0.038656343
000260 8e 26 8d bb 4d 77 d0 3c ad e2 51 3c 13 86 0f 3d
       -0.0043075746 0.025447512 0.012810391 0.035039973
000270 9a 2e 06 3d 0e 4e 12 3c 15 75 c1 3c dd 1b 0d bd
       0.032759286 0.0089297425 0.0236154 -0.0344504
000280 c7 08 cb ba 3d 7c e0 bc 72 90 12 bd 16 b8 2e 3c
       -0.0015490287 -0.027402991 -0.035782285 0.010664007
000290 61 f5 09 3d a3 fe da 3c ad 13 1a bd a7 53 b9 3c
       0.033681277 0.026732748 -0.03761642 0.022622896
0002a0 95 6e 81 3c e3 97 37 3c a1 75 99 3c 93 ff 20 bd
       0.0157998 0.011205646 0.018732848 -0.039306235
0002b0 60 73 60 bc aa 58 f8 bc f9 b8 99 3c dd d9 75 bb
       -0.013699383 -0.030315716 0.01876496 -0.003751389
0002c0 1d c6 1b bd a7 ca 49 3b 01 c2 ce bb 79 fe 0f 3c
       -0.038030732 0.0030790956 -0.006309748 0.008788698
0002d0 77 13 ee bc 94 ff f6 bc 20 5d 8d bc cb af 9c bb
       -0.029062016 -0.030151166 -0.01725632 -0.0047816983
0002e0 7b a1 1e 3d cd 36 a0 3c a2 77 05 3d c8 45 ef bc
       0.03872822 0.019557381 0.032584794 -0.029208079
0002f0 09 09 90 3c 8b 70 df ba e1 cf ee 3b 55 55 49 ba
       0.017582433 -0.001704709 0.0072879647 -0.0007680257
000300 6e 58 35 bc 92 51 c5 3c 60 de 16 bd c9 a5 b3 bc
       -0.011068447 0.024086747 -0.036833167 -0.021929638
000310 b9 b1 81 3c a9 41 1b bc e3 ae 2d bb b6 21 9e bc
       0.015831815 -0.009476104 -0.0026501946 -0.019303184
000320 a3 ff 02 3b 02 38 fc 3c 58 c7 f2 3c aa bf ab bc
       0.0019988797 0.030788425 0.02963607 -0.020965416
000330 f7 3b c3 3c 31 cd 8f bc 42 04 a9 bc 1f bc 10 3d
       0.023832304 -0.017553898 -0.020631913 0.035335656
000340 78 7a 89 3c 46 8b 4d bc ec c9 1a bd 79 9f 00 3d
       0.01678203 -0.012545412 -0.037790224 0.031402085
000350 d9 bf b7 bc fc db 3c bb 58 9e 4d bc 64 e7 8c 3c
       -0.022430347 -0.0028817644 -0.012549959 0.01720018
000360 fe 6e b5 3c 97 c8 1e 3c d1 1c 8f bc d2 92 93 3b
       0.022147652 0.009691379 -0.017469795 0.0045035863
000370 3b 2f a3 3c 77 9c 43 bc 2f 07 b4 bc 04 d8 1b 3d
       0.019919982 -0.01193916 -0.021976082 0.038047805
000380 73 e7 b6 3b b3 37 00 3d ac 4e 36 3c 2f f4 06 3d
       0.00558179 0.03130312 0.011127155 0.032947715
000390 93 aa db bc d7 b6 ab 3c 6f 5b 02 bd c0 80 1c 3d
       -0.026814735 0.020961208 -0.03182548 0.038208723
0003a0 dd 37 e1 bc 37 ba f1 3c cd eb 1d bc c7 f9 11 3d
       -0.027492458 0.02950774 -0.009638739 0.035638597
0003b0 bb 95 b4 bc b2 6a ce 3c 98 65 c2 bb 63 ca a6 bc
       -0.022044053 0.02519736 -0.005932521 -0.020360177
0003c0 ed 80 0c bd c2 3a 0c bd 70 03 41 3c 76 4e 11 3d
       -0.03430264 -0.034235723 0.011780605 0.035475217
0003d0 24 89 44 bc 5d a3 ed bc 93 2d bf bc 26 44 75 bc
       -0.0119955875 -0.029008562 -0.023337161 -0.014969861
0003e0 1b ee 1f bd 81 52 d9 bc f5 6e 4b bc 71 03 cb bc
       -0.039045434 -0.026528599 -0.012416591 -0.024781914
0003f0 61 32 3b 3c 2b 0a 0b bd 88 52 80 3a 09 f9 f9 3b
       0.0114255855 -0.033945244 0.0009790221 0.0076285643

fc1.bias f4 [128]
000000 40 d2 bc 3c d5 6b b4 3a 40 99 d4 3b b3 0a 80 bc
       0.023049474 0.0013765047 0.0064879954 -0.015630102
000010 7f e5 c2 ba 01 24 0c 3d 72 4b ea bc 00 bf f1 bb
       -0.001486942 0.034214024 -0.028600428 -0.0073775053
000020 73 6a 10 bd 75 cd 32 3c 67 10 14 bd 4b f4 c0 bc
       -0.035257768 0.010913243 -0.036148455 -0.023553988
000030 a1 21 91 bc c9 ad 47 bc 9e ed 4d bc 06 a3 1a 3d
       -0.01771623 -0.01218743 -0.012568859 0.037753128
000040 c9 5d 81 bc 87 37 0e bd 65 28 40 3d 77 27 c4 bb
       -0.01579179 -0.034720924 0.046913523 -0.00598615
000050 d6 57 0e 3d 93 4e b4 bc 30 1c 15 bd 83 da 5d bb
       0.034751736 -0.022010123 -0.036403835 -0.0033852167
000060 fc 96 f3 bc c8 5a 0d 3d d0 ec ee bc 53 46 20 3d
       -0.02973508 0.034510404 -0.029165655 0.039129566
000070 9b b1 b0 3c 4f aa 9b bc 36 fa 23 bd ae 3f c4 3c
       0.021569064 -0.019002108 -0.04003354 0.023956146
000080 9b 71 f0 bc 97 93 32 bd 81 1b 8e bc a7 c7 36 bd
       -0.029351046 -0.043597784 -0.0173471 -0.044623997
000090 80 1e 63 bc 6d 60 1a 3c f0 52 8b bc 49 9c 84 3c
       -0.013862252 0.009422404 -0.017007321 0.016187804
0000a0 40 1d be 3c 21 ab 8e bc 6a ec 57 3c f4 14 69 3c
       0.023207307 -0.017415585 0.013178924 0.014226187
0000b0 6f d5 81 3b ce a8 dc bc 6c dc bc 3c 9d ce 27 bc
       0.003962211 -0.026935961 0.023054324 -0.010242132
0000c0 c3 c8 3a bc 27 d7 96 3c 28 cb 1f bc 46 f4 ab 3c
       -0.011400404 0.01841314 -0.009753026 0.020990502
0000d0 da bc 89 3a 95 53 1d bd 6e e3 4b 3c 0c 8f 01 bd
       0.0010508553 -0.03840979 0.01244436 -0.03163056
0000e0 cd 0c ec ba 10 24 f5 3c 3a 17 cd bc bd 30 13 bd
       -0.0018009186 0.029924423 -0.02503549 -0.035935152
0000f0 43 4d 72 bc 12 1d e7 3b d2 3b 2b b9 57 2f e4 3c
       -0.014788928 0.007053026 -0.00016330116 0.027854605
000100 06 c5 70 3d e4 03 8d bc 95 1a fe 3c f4 c1 ba 3b
       0.058781646 -0.01721377 0.031018535 0.0056993905
000110 5d 92 d8 3c 0f e9 97 39 a9 ad d4 3c d2 76 ef bc
       0.026436979 0.00028974607 0.025961714 -0.029231463
000120 fa 48 06 bd 64 9e 33 bd a5 4b 35 3d 7a 6e b4 b8
       -0.03278444 -0.043852225 0.044261593 -8.603647e-05
000130 4e 42 b2 bc 9c 14 0e 3c 62 9b 05 3d 75 a8 b6 bc
       -0.021760132 0.008671906 0.032618888 -0.022297123
000140 16 cc 2b bc d1 0a ea bb 4f fe 9f bc 21 1b de bc
       -0.01048567 -0.0071424027 -0.019530443 -0.027112545
000150 cd 08 b0 3c 2a ea 23 bd bd c8 f0 bc 62 9e 1d bd
       0.021488572 -0.040018238 -0.029392594 -0.038481124
000160 0c 09 3c bc 6d 5a 08 bc 6b de c0 3c 56 bd 28 bd
       -0.011476766 -0.00832234 0.023543557 -0.04119619
000170 f9 94 80 3b 0d ac ef bc 24 08 b2 3b d2 98 16 bd
       0.003924009 -0.029256845 0.0054330993 -0.036766835
000180 4f cd 99 3c ff 96 a7 bc 69 31 81 bc 13 92 64 3c
       0.018774657 -0.020457743 -0.01577063 0.013950842
000190 56 ef 94 bc 7c c6 c0 bc 3d a9 a8 bb e5 e8 ad 3c
       -0.01818053 -0.023532145 -0.005147128 0.021229217
0001a0 c2 80 c9 bc f4 71 65 bc c6 83 38 bd f6 68 11 bd
       -0.02459753 -0.014004219 -0.045047544 -0.03550049
0001b0 ec d0 03 bd 27 0a a3 bc c1 b6 07 3d 15 c3 2d bd
       -0.032181665 -0.019902302 0.033133272 -0.042422373
0001c0 83 e9 68 bc 17 83 91 bb c3 d6 1f bd 3b 1b db 3c
       -0.01421583 -0.004440676 -0.039023172 0.026746383
0001d0 ab 78 51 3d 21 75 f0 bc f8 e5 d8 3a b8 d0 33 bc
       0.05114047 -0.029352726 0.0016548028 -0.010975055
0001e0 46 14 dc 3c a7 4f b4 bc 85 5a 1d 3d 74 95 47 bc
       0.026865136 -0.022010637 0.038416404 -0.0121816285
0001f0 bb c7 b0 3c 7f a4 df 3c 62 5b d0 3a ca fe 03 3d
       0.021579614 0.027300118 0.0015896375 0.032225408

fc2.weight f4 [10, 128]
000000 63 1c 04 3d 86 1b 98 3d af 42 e4 3c 0e ad 8a 3d
       0.032253634 0.07427125 0.027863828 0.06771289
000010 47 e9 56 bd 90 b7 04 bd 08 02 9a bc 13 51 24 3a
       -0.052468564 -0.03240162 -0.018799797 0.00062681845
000020 da 64 09 3d ff a6 78 be 07 d2 10 3d cb 66 75 3d
       0.033543445 -0.24282454 0.035356548 0.059912484
000030 4d ce a6 3d 56 97 6e 3d 76 23 a5 bd f9 3b bd bc
       0.081448175 0.058249794 -0.08063404 -0.023099886
000040 24 c7 e0 bc b1 28 ab bc 1d fb df bc 88 b3 10 bd
       -0.027438708 -0.020893427 -0.02734142 -0.035327464
000050 06 29 22 3d 4c ea 92 bd df db 40 bd 36 8e 00 bd
       0.039589904 -0.07173595 -0.047084685 -0.031385623
000060 cc 82 6b 3d 89 c3 db bc ee 65 8a 3d 30 42 66 bc
       0.057497784 -0.026826637 0.06757723 -0.014053866
000070 ee da 36 bd 28 1f a3 bc 07 73 54 bd d8 75 a6 bd
       -0.04464238 -0.019912317 -0.05186751 -0.08127946
000080 2a 34 0c 3d ef 1e b6 3c 12 8e ab bd 4f 9f 14 3d
       0.034229435 0.022231547 -0.08376707 0.03628474
000090 48 d1 a0 bd 8f e4 31 3d 01 67 ea 3c 83 58 5a 3c
       -0.07852417 0.04343086 0.02861357 0.013326767
0000a0 f0 3c a2 3d 27 3c 32 bd 6a 24 29 bd 51 d6 ae bb
       0.07921779 -0.043514397 -0.041294493 -0.005335607
0000b0 9d 3b 18 bc b4 76 ac 3d d3 6b 75 bd 99 e1 30 bc
       -0.009291557 0.08421078 -0.059917282 -0.010795974
0000c0 5e d0 02 3d de fb 37 3d 79 4d a8 3c b1 69 28 3d
       0.031936996 0.044917934 0.020544754 0.04111642
0000d0 a7 15 88 bd 7c 5a 84 bc 9f 18 a1 bd 28 3d 8a 3b
       -0.06644755 -0.016156428 -0.07866024 0.004218716
0000e0 a1 53 86 3c 5c a2 a2 bd ee 4a a4 3c 9d 7f 9a bd
       0.0163973 -0.07941124 0.02005526 -0.075438716
0000f0 4b ea 21 bd c2 83 ce bb 5a 9d bb 3d 0c 2d 88 bc
       -0.03953008 -0.006302328 0.09160872 -0.016623043
000100 15 8b 2b be 84 18 30 bb 35 f1 79 3c df d6 cf bc
       -0.16752274 -0.0026870081 0.015255262 -0.025371013
000110 5e 56 4a bb 50 19 e1 bb 2a 17 8d bd a5 24 bf 3d
       -0.0030874233 -0.0068694726 -0.06889184 0.09333161
000120 85 67 00 bd c9 d3 3a bd e6 5f 67 3c 6c 67 90 3b
       -0.031348724 -0.04561213 0.014121985 0.00440686
000130 bf a3 16 bd 31 91 39 3d 95 16 f4 3c 26 de 40 3c
       -0.036777254 0.04530448 0.029795924 0.011771714
000140 c5 68 6c 3d e5 b0 8c 3c 44 f4 81 bd 3d f4 be 3d
       0.057717104 0.017174194 -0.06345418 0.093239285
000150 21 d9 69 3d e9 17 00 bc 28 a1 98 3d e1 f0 89 3d
       0.057091836 -0.007818201 0.07452613 0.06735397
000160 2a b1 88 bc 25 4a 82 3d 55 94 26 3d 5e 17 99 bd
       -0.01668604 0.06361798 0.040668804 -0.0747516
000170 2f b3 5e 3d 18 e2 2d bd ec b9 15 bd fd b6 69 3d
       0.0543701 -0.042451948 -0.036554262 0.057059277
000180 6f a4 64 3c 0f 94 98 bd 54 ce ac 3d a5 7c a9 bd
       0.01395522 -0.07450115 0.084377915 -0.08275727
000190 09 6c 95 bd fc 8b 8e bd 31 d0 e0 bc c9 1e e9 3c
       -0.07295997 -0.06960294 -0.027443023 0.028457062
0001a0 b5 8e 58 bd 1a 5f 20 3d cc ac 91 3d f1 30 5d 3c
       -0.05287047 0.039153196 0.071130365 0.013500438
0001b0 13 ea 98 bc 46 f8 a2 bc 8f 99 da bc 8a b7 91 bc
       -0.018666303 -0.019893777 -0.02668455 -0.017787714
0001c0 a3 af 9d 3d 3e 50 cd 3c d1 f8 9d 3b a1 a9 68 bd
       0.07699516 0.025062677 0.004820921 -0.056802396
0001d0 e4 d7 25 be 59 4e 9a bd 3f 3b a2 bd 21 77 90 3d
       -0.16195637 -0.07534475 -0.079214565 0.07053972
0001e0 47 7f 4a 3d a9 56 72 bc 90 8d c0 3b f6 bd 87 3d
       0.049437787 -0.014791169 0.0058762506 0.06628029
0001f0 4d 2e 92 3d a4 87 c5 bc ac 0f ae 3d d7 d8 8c 3d
       0.071377374 -0.02411253 0.08499083 0.068772964
000200 c8 b2 58 3d f0 2c 37 3d 62 26 93 3d eb cf 0d bd
       0.052904874 0.04472059 0.07185055 -0.034622114
000210 70 d8 6b bc 49 74 bb bc 4d 09 59 bd 78 66 ae bd
       -0.014394864 -0.022882598 -0.052987386 -0.08515638
000220 7b 64 8a bc 53 7a f3 3d 97 03 af 3c 84 c4 0a bb
       -0.016893616 0.11888566 0.021364016 -0.0021174261
000230 20 c8 2c bd 5a 97 61 bc ed 97 12 bb 83 e1 92 3d
       -0.04218304 -0.013768995 -0.0022368387 0.07171919
000240 a6 54 cc bc 0d 0a 2b bd 30 7b 27 ba 89 39 fb bc
       -0.024942707 -0.041757632 -0.0006388901 -0.030667083
000250 32 c2 6f 3d ac a5 08 3d aa 4c 47 bc 15 f2 bb 3b
       0.05853481 0.033361122 -0.012164274 0.0057356455
000260 5b 75 6f bd d8 ba 76 3d c8 f0 cf bc 8d d8 7c 3d
       -0.05846153 0.06023678 -0.025383368 0.061729956
000270 b9 36 8c 3d 45 e7 d5 bb 56 b2 d3 3a 5c ab 48 bd
       0.06846375 -0.0065278136 0.0016151171 -0.048991546
000280 5e d5 79 bd 3e 0a 95 bd 14 ec 9d 3d e5 fc 65 3c
       -0.0609945 -0.07277344 0.07711044 0.014037346
000290 b7 eb 5b 3d 27 bd 9c 3d 9d 2b 5e bd 01 19 de ba
       0.053691592 0.076532654 -0.05424081 -0.0016944708
0002a0 59 cb f6 bc 95 9d d1 bc 40 fc b3 bd d7 7a 39 3d
       -0.03012626 -0.025587836 -0.08788347 0.045283165
0002b0 b7 93 ba 3c 6e 8b b3 3d 40 51 42 3c 10 08 39 3c
       0.022775514 0.087668285 0.011860192 0.011293426
0002c0 89 63 d5 ba 64 35 29 3d 3a 92 3c bd ad 63 42 bc
       -0.0016280274 0.041310683 -0.04603789 -0.011864585
0002d0 81 2d 46 bd 07 9d 3a bd a0 ca 53 3d 1f b2 74 bd
       -0.04838324 -0.04555991 0.05170691 -0.059740182
0002e0 fa df af bc eb 13 ee bb c7 b9 4f 3d 17 a7 79 3d
       -0.021469105 -0.007265558 0.05071428 0.060950365
0002f0 36 87 9e 3d 97 c6 25 3c 12 57 b4 3c 8f e6 07 3d
       0.07740633 0.010118148 0.022014175 0.033178862
000300 33 a1 45 3e 3f 8b aa 3d 42 df 50 bd 6a 9e 5b bc
       0.19299774 0.0832734 -0.050994165 -0.013404468
000310 89 dc a2 bd a1 88 83 bd c3 bd 13 bc 34 32 29 bd
       -0.0795222 -0.06422544 -0.009017411 -0.041307643
000320 96 f3 24 bd 51 33 b0 3c b1 e6 79 3d b6 2e 10 bc
       -0.040271364 0.021508845 0.06101102 -0.008800199
000330 14 02 97 3d b7 29 42 3d 72 a8 44 bd 71 2d 86 bc
       0.07373443 0.047403064 -0.048012204 -0.01637909
000340 66 9a 96 bd dc 50 19 3d 0c d8 a6 3c 7a 23 24 bd
       -0.07353668 0.03743063 0.020366691 -0.040072896
000350 16 46 49 bd a8 fd b8 bc 5a 05 1f 3d 47 24 30 bd
       -0.049139105 -0.02258189 0.038823463 -0.043003347
000360 7b 75 9f bd 00 61 e4 3a e8 96 e6 3c d2 6d b1 bd
       -0.077860795 0.0017423928 0.02814813 -0.08663525
000370 23 98 10 bd 48 39 34 bd c4 e3 13 bd 61 72 ef 3b
       -0.03530134 -0.04399994 -0.036105886 0.007307336
000380 f0 8d 07 3c 37 c4 7b 3d 0a 92 a4 3b 31 77 13 bd
       0.008273587 0.061466422 0.005022292 -0.03600234
000390 b6 c8 7e 3d 11 21 09 bc b6 4b 84 bd f7 ec 6a bd
       0.06220313 -0.0083697 -0.06459753 -0.057354894
0003a0 9f e6 d8 bc 1c 6c 77 bd f2 ce b9 3c f7 67 c6 ba
       -0.026477156 -0.060405836 0.022681687 -0.0015137185
0003b0 00 3e 7e bd a7 36 d5 bc 60 ea 88 bc 56 1e 49 bd
       -0.062070847 -0.026027037 -0.016713321 -0.049101196
0003c0 ef fd 94 bd 2b 60 64 3d e4 19 4a bd db 1b 8b bd
       -0.072749965 0.055755775 -0.049341097 -0.067924224
0003d0 cb a3 b2 3d c9 87 77 3c 54 a5 8b 3d 8f 48 b0 bc
       0.08722647 0.015108057 0.06818643 -0.021518974
0003e0 31 33 ac 3d 73 c7 4a bd 2d 51 88 3d 0c dc de bc
       0.084082015 -0.049506616 0.06656108 -0.027204536
0003f0 0b ca 76 bd a5 a9 af 3d 38 59 1c 3d f2 72 5d bd
       -0.060251277 0.08577279 0.038171023 -0.0540647

fc2.bias f4 [10]
000000 45 94 9b bc 2c 5b 06 bd 61 ce 33 bd d1 3d 8d 3d
       -0.018991599 -0.032801792 -0.04389799 0.06896556
000010 ad ce a6 bd e5 01 71 3d 3e 44 a7 bd 78 45 94 3c
       -0.08144889 0.058839697 -0.08167313 0.018099532
000020 74 ef 31 bb d9 3f 51 bd
       -0.0027150782 -0.05108628
